models/aapl_model.pth (torch, 416418 bytes, 27 tensors)

kline_transformer.layers.0.self_attn.in_proj_weight f4 [15, 5]
0	0xbe859ede	-0.2609777
1	0x3e97afa2	0.29626185
2	0x3e3eafb4	0.18621713
3	0xbec4a267	-0.38405153
4	0xbea84297	-0.32863304
5	0xbe716cfc	-0.2357673
6	0xbec60382	-0.3867455
7	0x3e939355	0.28823343
8	0x3ede83b0	0.43459845
9	0xbe9f9173	-0.31165656
10	0x3f02f335	0.51152354
11	0xbe85dbb2	-0.26144177
12	0x3bc59078	0.006029185
13	0x3dab789c	0.08372614
14	0x3e4fbf06	0.20287713
15	0x3c69540f	0.014241233
16	0xbe69d665	-0.22835691
17	0x3ea83961	0.32856277
18	0xbeb22a44	-0.3479787
19	0x3e7a55a5	0.24446733
20	0xbea28995	-0.31745592
21	0xbdd8fa9a	-0.105946735
22	0x3d98dcfd	0.07464025
23	0xbf0338fb	-0.5125882
24	0xbe85600b	-0.26049837
25	0xbe90e022	-0.28296
26	0x3e9c98ac	0.3058523
27	0xbe905b94	-0.2819487
28	0x3f0ecf19	0.55784756
29	0xbee63a24	-0.44966233
30	0xbf0446bf	-0.5167045
31	0x3c485b8a	0.012228856
32	0xbdac67cb	-0.084182344
33	0xbeba9c7d	-0.36447516
34	0x3e139411	0.14411952
35	0xbe84b17a	-0.25916654
36	0xbe577592	-0.21040943
37	0xbefee4a8	-0.49783826
38	0xbd358285	-0.044313926
39	0x3efabac5	0.4897062
40	0x3e0f2541	0.13979055
41	0x3ef1e92e	0.47248214
42	0xbd398fb3	-0.045303058
43	0x3e2eb4d4	0.17061168
44	0x3e4a3a6c	0.19748849
45	0x3d8144c7	0.06311946
46	0x3ee46a0c	0.44612157
47	0x3eec2cd2	0.46127945
48	0x3d5892ad	0.052874256
49	0xbec3ef7f	-0.3826866
50	0x3e93019e	0.2871217
51	0x3e9d75e8	0.30754018
52	0xbd1a3ef5	-0.037657697
53	0x3ed38714	0.41313994
54	0x3c90f260	0.017693698
55	0xbd8d8b11	-0.069112904
56	0xbe8a0cde	-0.26962942
57	0xbd3393ff	-0.043842312
58	0xbde3a272	-0.11114968
59	0xbece5e38	-0.40306258
60	0xbee54460	-0.44778728
61	0xbeaef716	-0.34172887
62	0xbdbe9c50	-0.09307158
63	0x3e7f56a4	0.24935395
64	0xbeff0fe5	-0.49816814
65	0x3efdb39f	0.49551103
66	0xbbdd05e0	-0.006745085
67	0xbedd1785	-0.43182006
68	0x3f03b096	0.51441324
69	0x3eb17729	0.34661224
70	0xbee0a72b	-0.4387754
71	0x3ec51634	0.38493502
72	0x3efc9371	0.4933124
73	0x3c2e5cd5	0.01064225
74	0x3e839f79	0.25707605

kline_transformer.layers.0.self_attn.in_proj_bias f4 [15]
0	0x3ca04f47	0.019569052
1	0xbc83639c	-0.016038708
2	0xbc8dc065	-0.017303655
3	0x3c7faecc	0.01560564
4	0x3c8c37bd	0.017116422
5	0xb703ff4f	-7.867652e-06
6	0xb71149ad	-8.6598275e-06
7	0x3602984f	1.9460165e-06
8	0x35dd06c8	1.6467757e-06
9	0xb7340334	-1.0729582e-05
10	0x3c2e5186	0.010639554
11	0xbc4bfab6	-0.012449911
12	0xbc2fc591	-0.010728256
13	0xbc56a0b3	-0.013099837
14	0xbc1ef65b	-0.00970229

kline_transformer.layers.0.self_attn.out_proj.weight f4 [5, 5]
0	0x3cfb3f2d	0.030669773
1	0xbe986760	-0.2976637
2	0xbea72dff	-0.3265228
3	0x3d3cfe82	0.046141155
4	0x3e3eb9ac	0.18625516
5	0xbc7b7e0c	-0.015349876
6	0xbe27cc0b	-0.1638643
7	0xbda1e011	-0.079040654
8	0xbe82dcc6	-0.25559062
9	0xbda30c3b	-0.07961317
10	0xbee0d802	-0.439148
11	0x3ea578cc	0.32318723
12	0x3e0629cb	0.1310188
13	0x3e84b9ee	0.25923103
14	0x3e7b6294	0.24549323
15	0xbe5ace5a	-0.2136778
16	0xbe260e31	-0.16216351
17	0x3cd4eb7d	0.025991196
18	0xbebf9000	-0.3741455
19	0x3e534b84	0.20634276
20	0xbe3a57b2	-0.18197516
21	0xbe88dbb0	-0.26730108
22	0x3e099e66	0.1343933
23	0x3cc4a507	0.024004472
24	0xbe59cce7	-0.2126957

kline_transformer.layers.0.self_attn.out_proj.bias f4 [5]
0	0x3c31430e	0.01081921
1	0x3c0d3ab1	0.00861995
2	0xbc44feb5	-0.0120236175
3	0x3caa5915	0.02079443
4	0x3c5eb65b	0.013593282

kline_transformer.layers.0.linear1.weight f4 [128, 5]
0	0xbedaed19	-0.42759016
1	0xbebe4766	-0.37163848
2	0x3e96105e	0.29309362
3	0xbecfdbba	-0.40597326
4	0xbd952f2a	-0.072843865
5	0x3d0662e4	0.032809153
6	0xbe87e6eb	-0.26543364
7	0xbecd86ef	-0.4014201
8	0xbee6f3dc	-0.45107925
9	0xbec08379	-0.37600306
10	0x3e91eeef	0.28502604
11	0xbcdcd690	-0.02695778
12	0xbe7d1add	-0.24717279
13	0xbd51c830	-0.051216304
14	0x3e990a97	0.29890892
15	0xbe881f44	-0.26586354
16	0xbdf6f6f7	-0.120588236
17	0x3d9d5c1f	0.07683586
18	0xbe789a3b	-0.24277584
19	0xbe3a5dfb	-0.18199913
20	0xbe9024b0	-0.2815299
21	0xbe813ab9	-0.25240114
22	0x3e7c99b5	0.2466801
23	0x3ede798e	0.43452114
24	0xbd915491	-0.07096208
25	0x3eaaef55	0.3338572
26	0xbe4d47ed	-0.20046969
27	0x3ec04d56	0.37559003
28	0xbbb30dc0	-0.0054642856
29	0x3eb33bd2	0.35006577
30	0x3dc85a50	0.09782851
31	0xbee12dc8	-0.4398024
32	0x3e3f67ae	0.18691894
33	0x3e86d8fc	0.2633742
34	0x3d41f667	0.04735413
35	0x3d8df86f	0.069321506
36	0xbe9e91e0	-0.3097067
37	0x3eb7b4c1	0.35880092
38	0x3dda7028	0.10665923
39	0x3e73471a	0.23757592
40	0x3ea0bcdb	0.31394085
41	0x3e76d435	0.24104388
42	0x3e95b7b6	0.29241723
43	0xbecdbe63	-0.40184316
44	0xbe2ca758	-0.16860712
45	0x3df034de	0.117288336
46	0xbea1a3c5	-0.3157026
47	0x3eb942e8	0.36183858
48	0xbcd6a89b	-0.026203444
49	0x3b5b21c7	0.003343688
50	0xbdbee512	-0.093210354
51	0x3e84ead3	0.25960407
52	0xbe2e1d52	-0.17003372
53	0xbea70bde	-0.3262624
54	0xbc14a576	-0.009072652
55	0x3d2d7740	0.042350054
56	0xbec1eeab	-0.37877402
57	0xbe8ba7c8	-0.27276444
58	0x3d763f2c	0.06011884
59	0xbc75fdaa	-0.0150140915
60	0x3e9fd37b	0.31216034
61	0xbe12db20	-0.14341402
62	0xbec7649e	-0.38943952
63	0x3ec6d05f	0.3883085
64	0xbeb6e6da	-0.35723
65	0xbe5a6591	-0.21327807
66	0x3ea3cce6	0.31992263
67	0x3e3457e8	0.17611659
68	0xbdc9aea8	-0.09847766
69	0x3e412104	0.1886025
70	0xbe5ebe5a	-0.21752301
71	0xbe206da3	-0.15666823
72	0xbe61dafe	-0.22056195
73	0xbed8718c	-0.4227413
74	0x3e6318dc	0.22177452
75	0xbebeef60	-0.37292004
76	0xbd19efb4	-0.037582114
77	0xbdfc4b4d	-0.1231905
78	0x3ec01bdc	0.37521255
79	0x3e3e4e40	0.18584538
80	0x3ed0a690	0.40752077
81	0x3d95f045	0.073212184
82	0xbc56c968	-0.013109542
83	0xbd5dc9aa	-0.0541474
84	0xbe8a114f	-0.2696633
85	0x3e99dc1e	0.3005075
86	0x3ea09e08	0.31370568
87	0x3cdbcaed	0.026830161
88	0xbec2d858	-0.38055682
89	0x3eaaa8e6	0.33331984
90	0x3eca678b	0.39532122
91	0x3d2f2cb6	0.04276725
92	0x3cfaf219	0.03063302
93	0xbe277b03	-0.16355519
94	0x3e5b733d	0.21430679
95	0x3ebb1cd2	0.36545426
96	0x3e833494	0.2562605
97	0xbe0c2145	-0.13684566
98	0xbe729edd	-0.23693414
99	0xbeb990a9	-0.3624318
100	0x3e38ee2c	0.18059605
101	0xbcfdaa7d	-0.030965084
102	0x3e6b6f05	0.2299157
103	0xbe8d575e	-0.27605718
104	0xbd765142	-0.060136087
105	0x3ebe9f28	0.37230802
106	0x3d175c7c	0.036953434
107	0x3e8627a5	0.2620212
108	0xbe999867	-0.29999086
109	0x3e926875	0.2859532
110	0x3ed45801	0.41473392
111	0xbd2fae38	-0.042890757
112	0xbdc749f0	-0.09730899
113	0xbee335e2	-0.44377047
114	0x3ea12636	0.31474465
115	0xbe6c66ba	-0.23086062
116	0x3de579f0	0.11204898
117	0xbdb55b38	-0.08855289
118	0x3d6aaffa	0.05729673
119	0x3cdcfb11	0.026975187
120	0xbdd11646	-0.102093264
121	0xbdc59adb	-0.09648677
122	0xbea26303	-0.31716165
123	0x3de38db1	0.1111101
124	0x3e3df694	0.18551093
125	0x3d201315	0.039080698
126	0xbea388bc	-0.31940258
127	0xbe4b7843	-0.19870095
128	0xbe57f599	-0.21089782
129	0x3cfe408f	0.031036643
130	0xbe81284f	-0.25226066
131	0x3e7d9ae0	0.24766111
132	0xbd886957	-0.06660717
133	0xbea59116	-0.32337254
134	0xbe6cf677	-0.23140894
135	0xbc579589	-0.013158211
136	0x3e7dfde9	0.2480389
137	0x3ec9a11f	0.39380738
138	0x3c36ad8d	0.011149776
139	0xbeda879a	-0.4268158
140	0x3ed020c2	0.40649992
141	0x3da44817	0.080215625
142	0xbd9c66a4	-0.07636765
143	0x3e6f37c4	0.23361117
144	0xbd88810a	-0.06665237
145	0x3e90201d	0.281495
146	0x3eac47ce	0.33648533
147	0x3e276465	0.16346891
148	0xbe9d2970	-0.30695677
149	0xbea4763b	-0.32121453
150	0xbe54f084	-0.20794874
151	0xbe9f56ca	-0.31120902
152	0xbe2d5ba5	-0.16929491
153	0xbecc2649	-0.3987296
154	0x3eb85f96	0.36010426
155	0xbe6a1925	-0.22861154
156	0x3eb83065	0.35974422
157	0x3eabed09	0.3357928
158	0xbecc91d8	-0.3995502
159	0xbc885f4c	-0.016647004
160	0x3d8e7481	0.06955815
161	0xbdb3c888	-0.08778483
162	0xbe999ba1	-0.30001548
163	0xbea139f0	-0.31489515
164	0x3e22b456	0.15889105
165	0x3d9070f9	0.07052798
166	0xbdf3e28b	-0.11908444
167	0xbe6fe90d	-0.23428746
168	0x3ea835c3	0.32853517
169	0x3ea71fe9	0.32641533
170	0x3ea83ec7	0.32860395
171	0x3e497f1c	0.19677395
172	0xbe4f9dce	-0.20275041
173	0x3e0b38cc	0.13595885
174	0xbe0c8ae4	-0.13724858
175	0xbd8052ab	-0.06265768
176	0x3eac5601	0.33659366
177	0x3e1e5173	0.15460758
178	0x3e66ac2e	0.22526619
179	0xbe5a2eb8	-0.21306884
180	0xbdf2208b	-0.11822613
181	0x3e326477	0.17421137
182	0x3cbee281	0.023301365
183	0x3e561f5d	0.20910402
184	0x3da0f764	0.07859686
185	0xbe8ab5ce	-0.2709183
186	0xbe846e66	-0.25865477
187	0x3ec5371f	0.38518617
188	0xbe64d037	-0.22345053
189	0x3e6e3711	0.23263194
190	0xbe68c0f9	-0.22729863
191	0xbdf65e95	-0.12029759
192	0xbec5a29b	-0.3860062
193	0xbe2bc0cb	-0.16772763
194	0x3e0cdb18	0.13755453
195	0x3ed72cc4	0.4202634
196	0xbe88e704	-0.2673875
197	0xbe92bdbd	-0.28660384
198	0x3d343fd4	0.044006184
199	0x3e2bb01c	0.16766399
200	0xbe9cfae4	-0.30660164
201	0x3da0be1c	0.078487605
202	0x3daf89b5	0.085711874
203	0x3ed0d890	0.40790224
204	0xbea1b05a	-0.31579858
205	0x3eaff63a	0.34367543
206	0x3e09268f	0.13393615
207	0x3ebe4653	0.37163028
208	0x3eb39ab5	0.3507897
209	0x3e5b3f37	0.21410833
210	0xbdeae7bc	-0.11469981
211	0x3edb1246	0.4278738
212	0x3e04c35e	0.12965152
213	0xbeb88acd	-0.36043397
214	0x3e6c2363	0.23060374
215	0xbe5a697e	-0.21329305
216	0xbdccc230	-0.09997976
217	0x3c2d1980	0.010565162
218	0xbe15aabc	-0.14615911
219	0xbce60ee0	-0.028083265
220	0x3dfd1b39	0.12358708
221	0x3ebadc8b	0.36496386
222	0x3eb9a5b7	0.36259243
223	0xbe9909eb	-0.2989038
224	0x3c1cc41c	0.0095682405
225	0x3e9d670f	0.3074269
226	0x3ea709c2	0.32624632
227	0xbdf784fb	-0.12085911
228	0x3ca50542	0.020144109
229	0x3e9b4b9b	0.3033112
230	0x3e8b148e	0.2716412
231	0xbea80430	-0.32815695
232	0x3ea9f55d	0.3319501
233	0xbdd259a7	-0.10271006
234	0x3cf19e74	0.029494502
235	0x3e171391	0.14753558
236	0xbe6887f1	-0.22708108
237	0x3e580942	0.21097282
238	0x3ed10a6f	0.40828273
239	0xbe8dd39e	-0.27700514
240	0xbe85240e	-0.2600407
241	0xbe577ecc	-0.21044463
242	0x3d0b5cbb	0.03402398
243	0x3db3b5c2	0.08774902
244	0x3d926af9	0.0714931
245	0x3e923859	0.28558615
246	0x3d064753	0.032782864
247	0xbe6fc624	-0.23415428
248	0xbea69722	-0.3253718
249	0xbe39f8e2	-0.18161348
250	0xbe1d4178	-0.15357006
251	0xbda69e4e	-0.08135663
252	0x3e170375	0.14747413
253	0xbea928dd	-0.3303899
254	0x3e9b0075	0.30273786
255	0xbbd6bd19	-0.006553304

kline_transformer.layers.0.linear1.bias f4 [128]
0	0x3d8e36a0	0.06944013
1	0xbd77555f	-0.06038415
2	0x3c777d89	0.0151056135
3	0x3db591d3	0.088657044
4	0x3db59484	0.08866218
5	0x3e97ffb9	0.29687288
6	0x3dda779d	0.10667346
7	0x3e8ccb83	0.27499017
8	0x3edde2fd	0.4333724
9	0x3e31f5e6	0.17378959
10	0x3c8a6771	0.016895028
11	0x3e118e40	0.1421442
12	0xbdefa090	-0.11700547
13	0xbead6e48	-0.338732
14	0x3eb69697	0.35661766
15	0xbe0da181	-0.1383114
16	0x3d75f759	0.060050342
17	0x3e7e2343	0.24818139
18	0x3eb85869	0.36004952
19	0x3e089b23	0.1334043
20	0x3e4d771a	0.20064965
21	0x3db409f0	0.08790958
22	0x3ec42eaf	0.38316867
23	0xbe72ae33	-0.23699264
24	0xbdcd4667	-0.10023194
25	0x3e42c314	0.19019729
26	0xbec0515b	-0.3756207
27	0xbe1a689d	-0.1507897
28	0xbea05e76	-0.31322068
29	0xbeb70e8d	-0.3575329
30	0xbeed585d	-0.46356478
31	0x3df9d4ae	0.121987686
32	0x3df681da	0.12036486
33	0x3dcc9bde	0.09990667
34	0xbd821412	-0.06351484
35	0xbe8888b5	-0.266668
36	0xbeb37434	-0.35049593
37	0xbee11cf9	-0.43967417
38	0x3e8f1f78	0.27953696
39	0x3daed433	0.085365675
40	0x3de8752b	0.11350473
41	0xbe159716	-0.14608416
42	0xbd82fc78	-0.06395811
43	0xbedd98f4	-0.43280756
44	0x3d4dcee3	0.05024613
45	0x3edaff4d	0.42772904
46	0xbd17bcac	-0.037045166
47	0x3e7b4808	0.24539196
48	0x3ece22cb	0.4026092
49	0xbd70554a	-0.058675088
50	0xbdd92f02	-0.10604669
51	0xbe8d494a	-0.27594978
52	0xbea14bc1	-0.31503108
53	0x3dd466be	0.10371159
54	0x3ee0605c	0.43823516
55	0xbdd7b331	-0.10532225
56	0xbe84d41c	-0.25943077
57	0xbe11ee5f	-0.14251088
58	0xbe271809	-0.16317762
59	0xbd3ad614	-0.045614317
60	0xbe9e42bb	-0.30910286
61	0x3ee884cf	0.45413825
62	0x3e5cd58f	0.21565841
63	0x3d985216	0.07437532
64	0xbdfd26f2	-0.12360944
65	0x3e0dee19	0.13860358
66	0xbd8b6f06	-0.068082854
67	0x3e4faecc	0.20281523
68	0x3dcd32d2	0.10019459
69	0x3e9f3304	0.3109361
70	0x3e5b703a	0.2142953
71	0x3e84bb46	0.25924128
72	0x3e18c1fd	0.1491775
73	0x3eaa8b47	0.33309385
74	0x3e5d4e7b	0.21611969
75	0x3db13eaa	0.0865453
76	0xbee11409	-0.43960598
77	0x3daec9c3	0.08534577
78	0x3ea1c58b	0.31596026
79	0xbeb33f32	-0.35009152
80	0xbe22735c	-0.15864319
81	0xbec1043f	-0.37698552
82	0xbe480e0f	-0.19536613
83	0xbdb8617c	-0.09002969
84	0x3e898376	0.2685811
85	0x3bc624d7	0.006046872
86	0x3e2c5ce6	0.16832313
87	0x3e4fae10	0.20281243
88	0x3eaed20b	0.34144625
89	0x3e6820a8	0.22668707
90	0x3d09a96a	0.03360883
91	0xbd701a7a	-0.058619
92	0x3e9ef8e1	0.31049255
93	0x3e2a9acf	0.16660617
94	0xbe873ef7	-0.26415226
95	0x3d442565	0.047887225
96	0x3e915cad	0.28391019
97	0xbeb0a051	-0.34497312
98	0xbdf9ffc3	-0.12206986
99	0x3d8a378a	0.067488745
100	0xbe4afa12	-0.19821957
101	0x3eb9b258	0.36268878
102	0x3e5528d8	0.20816362
103	0xbed4e978	-0.41584373
104	0xbe33b598	-0.17549741
105	0xbec34f52	-0.38146454
106	0x3e7047a6	0.23464832
107	0x3eb26e2a	0.34849674
108	0x3d143f50	0.036193192
109	0x3eaa3308	0.3324206
110	0xbed4cb76	-0.41561478
111	0x3e1ae60a	0.15126815
112	0xbe5f9fae	-0.21838257
113	0xbec98ce2	-0.39365298
114	0x3ed2be19	0.41160658
115	0x3e1181e9	0.14209713
116	0x3edc6b5e	0.43050665
117	0x3e8b96d6	0.27263516
118	0xbe85dac0	-0.26143456
119	0x3ea25239	0.31703356
120	0xbe8b4eb1	-0.27208474
121	0xbdf1e4a6	-0.11811189
122	0xbcdf14e7	-0.027231647
123	0xbbd34bfb	-0.0064482666
124	0x3ebeaa89	0.37239483
125	0x3da8ed67	0.08248406
126	0xbecb67db	-0.39727673
127	0x3ec56442	0.38553053

kline_transformer.layers.0.linear2.weight f4 [5, 128]
0	0x3d09e42b	0.033664864
1	0x3caea6de	0.021319803
2	0xbda73cfe	-0.0816593
3	0x3d7e93b3	0.062152576
4	0xbd3cc218	-0.04608354
5	0xbd9515a4	-0.07279518
6	0x3ca498bc	0.02009236
7	0xbcaef235	-0.021355728
8	0x3d4e1804	0.05031587
9	0x3c9cf2e3	0.019158786
10	0x3becbcbe	0.0072246483
11	0xbd54ebf2	-0.051982827
12	0xbd64a9b1	-0.055825893
13	0xbcfff32b	-0.031243881
14	0x3d395db3	0.045255374
15	0x3d847621	0.06467844
16	0x3d8fcd8c	0.07021627
17	0x3c17cd81	0.009265305
18	0xbd8eb18f	-0.0696746
19	0xbd551681	-0.052023415
20	0xbdb5d418	-0.08878344
21	0xbc23b1ff	-0.009991168
22	0x3d511e45	0.051054258
23	0xbd2ee6fb	-0.04270075
24	0xbd706d4d	-0.058697987
25	0xbd447b11	-0.047968928
26	0xbd7351e6	-0.059404276
27	0x3d7a4966	0.061105154
28	0x3d6f1c62	0.058376677
29	0x3cc9f7e7	0.024654342
30	0x3d3dd08d	0.046341468
31	0xbd933450	-0.07187712
32	0x3d6a7865	0.057243723
33	0xbd3dbd86	-0.04632332
34	0x3d2e4beb	0.04255287
35	0x3d1a337e	0.037646763
36	0xbd1956da	-0.037436344
37	0x3cd2d65d	0.025736982
38	0xbcd638c9	-0.026150124
39	0xbbae6b63	-0.00532286
40	0xbbff93c7	-0.007799599
41	0xbc534abb	-0.012896235
42	0x3c286b04	0.010279421
43	0x3d6b4236	0.05743619
44	0xbd12b046	-0.03581264
45	0x3d8ce379	0.068793245
46	0xbd47b832	-0.048759647
47	0x3d8d54c5	0.06900934
48	0x3d411617	0.047140207
49	0x3d80f177	0.06296056
50	0x3d9a518c	0.07535085
51	0xbd8a85ed	-0.067638256
52	0xbd960d47	-0.07326751
53	0x3d81cf8d	0.06338415
54	0x3cdc83c0	0.026918292
55	0x3c6d4b28	0.014483251
56	0x3ca6f871	0.020382138
57	0xbb888309	-0.0041660112
58	0x3d49023e	0.049074404
59	0xbd7d1c84	-0.061794773
60	0xbd1e7274	-0.03868337
61	0xbd802da3	-0.062587045
62	0x3cad47af	0.021152345
63	0xbda2518a	-0.079257086
64	0x3d50b84b	0.050957005
65	0xbd467919	-0.04845533
66	0xbd9d45df	-0.076793425
67	0x3c831bfe	0.016004559
68	0x3d5874a5	0.052845616
69	0xbcb96ca9	-0.022634821
70	0xbd626809	-0.055274997
71	0x3da8d741	0.082441814
72	0xbda053bb	-0.0782847
73	0x3d2644a6	0.040592812
74	0xbd63c595	-0.05560835
75	0xbd909cba	-0.07061143
76	0xbd1e0a2d	-0.038583923
77	0xbcc41da4	-0.023939915
78	0x3d2a797a	0.041619755
79	0xbd445bd9	-0.047939155
80	0x3d86524d	0.065586664
81	0x39b52fd0	0.00034558633
82	0x3c46707b	0.012111778
83	0x3da6e3ef	0.08148944
84	0x3d2cd326	0.042193554
85	0x3d301aba	0.04299424
86	0xbb08092c	-0.002075742
87	0xbbb1aa9a	-0.0054219486
88	0x3d946164	0.07245138
89	0xbc787c4f	-0.015166356
90	0x3c929c0b	0.017896673
91	0xbd5cb6b9	-0.053885195
92	0xbda313d6	-0.07962768
93	0xbd8dc957	-0.06923168
94	0xbda5e1c2	-0.080997005
95	0x3d701ca0	0.05862105
96	0x3c0435e5	0.00806949
97	0xbcdaa973	-0.026692128
98	0xbd667d57	-0.056271877
99	0x3c98d388	0.018655553
100	0xbdcd21c7	-0.10016208
101	0x3d8442db	0.06458064
102	0x3c2cd642	0.01054913
103	0xbd088e76	-0.033338986
104	0xbd9ac96d	-0.0755795
105	0xbcdab153	-0.026695883
106	0x3d906cb3	0.07051983
107	0x3d5f3709	0.054495845
108	0xbd6f136d	-0.058368135
109	0x3c30c876	0.010789981
110	0xbcb6c083	-0.022308594
111	0xbdb822e1	-0.089910276
112	0x3d4c5361	0.049884204
113	0xbc49b8ee	-0.012312157
114	0xbd71138f	-0.058856543
115	0x3d648a05	0.05579569
116	0xbd6fe99b	-0.058572393
117	0xbcc7beda	-0.024382997
118	0xb9285271	-0.0001605244
119	0xbd4823c9	-0.048862252
120	0xbc537fe1	-0.012908907
121	0xbd73cbbe	-0.059520476
122	0xbcdf61bc	-0.027268283
123	0xbd878870	-0.0661782
124	0xbd0c2811	-0.034217898
125	0xbc55e5cd	-0.013055277
126	0xbd627409	-0.05528644
127	0x3c6ce0b9	0.014457875
128	0xbd69ce5b	-0.05708156
129	0xbbddf1a6	-0.0067731915
130	0x3d8e7a1e	0.06956886
131	0xbd2f6f32	-0.042830653
132	0x3d99c388	0.07507998
133	0x3d9ce381	0.076605804
134	0x3b976422	0.004620091
135	0x3da3fe45	0.080074824
136	0x3c6d9e6a	0.014503101
137	0x3bbb68a5	0.0057192617
138	0x3d82f5c6	0.06394534
139	0xbb83c968	-0.004021812
140	0x3c34d9bd	0.011038241
141	0xbb08b064	-0.002085709
142	0xbcad0f5f	-0.021125494
143	0xbd90ea6f	-0.07075965
144	0xbd4dcde5	-0.050245184
145	0xbc0b3404	-0.008496288
146	0x3db3afe7	0.08773785
147	0xbcbf139a	-0.023324776
148	0x3d95dd8f	0.073176496
149	0xbc92a5fe	-0.017901417
150	0xbc044c57	-0.008074841
151	0xbd51e960	-0.051247954
152	0xbcbcc79f	-0.023044406
153	0x3db82d04	0.08992961
154	0x3c2201f1	0.009888158
155	0xbd04d8e4	-0.032433406
156	0xbcf0beeb	-0.029387912
157	0x3c6ebb5a	0.014571035
158	0xbc0de511	-0.008660571
159	0x3c96aa9a	0.018391896
160	0xbda0852c	-0.078379005
161	0x3d548cb3	0.051891994
162	0xbbfe7991	-0.0077659567
163	0xbd1f792c	-0.038933918
164	0x3cb55b2f	0.022138206
165	0x3cfac5b6	0.030611854
166	0xbcbc5e8d	-0.022994304
167	0xbc4a0a5f	-0.012331574
168	0xbd53e4d7	-0.05173191
169	0x3d971a76	0.07378094
170	0x3d69aa2d	0.057047058
171	0x3d295b5a	0.041346885
172	0xbcc24ff0	-0.023719758
173	0xbda6fb6d	-0.081534244
174	0xbd9a7584	-0.075419456
175	0x3be42530	0.006962441
176	0x3da86da5	0.08224038
177	0xbc03eb87	-0.00805176
178	0xbc83645b	-0.016039064
179	0xbd4010db	-0.046891075
180	0xbd783152	-0.06059391
181	0x3ca5d676	0.020243865
182	0xbbf455cb	-0.0074565164
183	0xbd89d847	-0.06730705
184	0xbcb2a498	-0.021807
185	0xbd8c35a1	-0.068461664
186	0xbabc55a8	-0.0014368789
187	0xbdb1341d	-0.08652518
188	0x3c1f78de	0.009733407
189	0xbb6853f6	-0.0035450435
190	0x3c044250	0.008072451
191	0xbda1c4f6	-0.078988954
192	0xbd9166fc	-0.07099721
193	0xbd29d508	-0.041462928
194	0xbd8e5d15	-0.06951348
195	0xbce7ee59	-0.028311895
196	0xbd1cd811	-0.038291994
197	0x3d01da4a	0.031702317
198	0xbd875666	-0.06608276
199	0x3d50cf47	0.050978925
200	0xbd86f435	-0.065895475
201	0x3d116a68	0.035501868
202	0xbc890393	-0.016725337
203	0xbd691fc8	-0.056915075
204	0xbd69ab4f	-0.05704814
205	0xbccf7757	-0.02532546
206	0x3c05987d	0.008154032
207	0x3c76a11e	0.015053062
208	0xbd9678f4	-0.07347289
209	0xbd1726d5	-0.036902267
210	0x3d910de6	0.07082729
211	0x3d9e79b0	0.07738054
212	0xbc632db1	-0.013865874
213	0x3d1a599f	0.037683126
214	0xbd8e26cf	-0.06940996
215	0x3d9245fe	0.07142256
216	0x3c177996	0.009245297
217	0xbd1bcf6d	-0.038039614
218	0xbd73a3c4	-0.05948235
219	0xbd6e28e1	-0.058144454
220	0xbda5ccd4	-0.080957085
221	0x3da4268a	0.08015163
222	0x3d1a4147	0.03765991
223	0xbd9c8b7f	-0.07643794
224	0xbcdb4961	-0.026768388
225	0x3cfd859d	0.0309475
226	0xbca39ff5	-0.019973734
227	0xba968bf4	-0.0011485801
228	0x3d400c86	0.046886943
229	0x3dad7e54	0.08471361
230	0x3db7bff1	0.08972157
231	0xbcbd051a	-0.023073722
232	0x3da7f3ee	0.08200823
233	0x3da2a3ec	0.07941422
234	0x3d4f442e	0.05060213
235	0x3d0fbe2a	0.035093464
236	0xbd5dbac2	-0.054133184
237	0xbd964aad	-0.07338462
238	0x3d09b5fe	0.033620827
239	0x3d708f40	0.058730364
240	0x3c6fe18b	0.014641176
241	0xbd42c359	-0.04754958
242	0xbd2dfe75	-0.042478997
243	0xbd87ff55	-0.066404976
244	0xbd488806	-0.048957847
245	0xbc094426	-0.008378064
246	0xbd76cea1	-0.06025565
247	0x3d8ef468	0.069802105
248	0x3d85d2d2	0.065343514
249	0x3bf85538	0.0075785182
250	0xbdb10ed7	-0.086454086
251	0x3cbd8a3d	0.023137206
252	0xbcb16bd7	-0.021657867
253	0x3d4db64d	0.050222684
254	0x3d7e84b8	0.06213829
255	0x3c043d8a	0.008071313

kline_transformer.layers.0.linear2.bias f4 [5]
0	0xbc34ea07	-0.011042125
1	0xbd326710	-0.04355532
2	0xb91f8f9e	-0.00015216923
3	0x3d9b65d7	0.07587784
4	0x3cc0a0c7	0.023514165

kline_transformer.layers.0.norm1.weight f4 [5]
0	0x3f80676a	1.003156
1	0x3f806eb2	1.0033782
2	0x3f800195	1.0000483
3	0x3f7cce0e	0.98751915
4	0x3f805de4	1.0028653

kline_transformer.layers.0.norm1.bias f4 [5]
0	0xbae14901	-0.0017187895
1	0x3aaefd1e	0.0013350581
2	0x39ec3051	0.00045049426
3	0xbb16b3e8	-0.0022995416
4	0xbb1b24e4	-0.0023673112

kline_transformer.layers.0.norm2.weight f4 [5]
0	0x3f801459	1.000621
1	0x3f7f49c4	0.9972193
2	0x3f8085b5	1.0040804
3	0x3f7daea5	0.9909461
4	0x3f804a21	1.0022622

kline_transformer.layers.0.norm2.bias f4 [5]
0	0xbada26d8	-0.0016643656
1	0x3a7ec9f1	0.00097194227
2	0x3a463cb4	0.0007562146
3	0xbaae89da	-0.001331623
4	0xba964870	-0.001146568

kline_transformer.layers.1.self_attn.in_proj_weight f4 [15, 5]
0	0xbe862fac	-0.26208246
1	0x3e9ec1dd	0.3100728
2	0x3e33779e	0.17526099
3	0xbec54fef	-0.38537547
4	0xbe998df6	-0.2999112
5	0xbe77ae9a	-0.24187699
6	0xbed00be1	-0.40634063
7	0x3e9456ab	0.28972372
8	0x3eda9c9d	0.4269761
9	0xbeab04c9	-0.33402088
10	0x3f01ac10	0.5065317
11	0xbe8f6322	-0.2800532
12	0x3c2f05f5	0.010682573
13	0x3d9fc91d	0.07802031
14	0x3e364b7c	0.17802233
15	0x3caec4d8	0.021334097
16	0xbe73921e	-0.23786208
17	0x3eb0ad01	0.34506992
18	0xbeb0fb99	-0.34566954
19	0x3e861f3a	0.261957
20	0xbe9fb287	-0.31190893
21	0xbdb2819e	-0.08716129
22	0x3d90dd73	0.07073488
23	0xbf01a00e	-0.5063485
24	0xbe71ffd3	-0.23632745
25	0xbe9f50fc	-0.31116474
26	0x3e8f07f6	0.2793576
27	0xbe9e8d3c	-0.30967128
28	0x3f08607c	0.53272223
29	0xbedc7708	-0.43059564
30	0xbf0a7c4e	-0.54095924
31	0xbc484c40	-0.012225211
32	0xbde258b8	-0.11052078
33	0xbec6c1e6	-0.38819808
34	0x3e3e76c8	0.18599999
35	0xbe69d863	-0.22836451
36	0xbe4c4db1	-0.19951512
37	0xbef8c729	-0.48589447
38	0xbcff65b7	-0.031176431
39	0x3f01698a	0.50551665
40	0x3e2dd6d4	0.16976482
41	0x3ef81c28	0.48458982
42	0xbd085e49	-0.033293042
43	0x3e3af3f2	0.1825712
44	0x3e2d6ad7	0.16935287
45	0x3d810501	0.062997825
46	0x3ecd425c	0.4008969
47	0x3ed46ce0	0.41489315
48	0x3c90cee7	0.017676784
49	0xbeba8696	-0.36430806
50	0x3e89234f	0.2678475
51	0x3e927534	0.28605044
52	0xbd679186	-0.056535266
53	0x3ec74fb3	0.38927993
54	0x3d475362	0.048663504
55	0xbd49662b	-0.0491697
56	0xbe7ddaf5	-0.24790557
57	0xbccecf5d	-0.025245363
58	0xbdb4e575	-0.08832828
59	0xbedcdec6	-0.43138713
60	0xbed96e44	-0.42466938
61	0xbea2dd7f	-0.31809613
62	0xbd957db3	-0.07299366
63	0x3e8aa514	0.2707907
64	0xbf04920d	-0.51785356
65	0x3f02b603	0.5105898
66	0x3c400d59	0.011721932
67	0xbed4fd38	-0.4159944
68	0x3f08c2cd	0.5342224
69	0x3e9d445e	0.30716223
70	0xbedb788c	-0.42865407
71	0x3ecd2cc1	0.40073207
72	0x3f020b50	0.5079851
73	0x3d0bf4c9	0.034168992
74	0x3e5c9f1e	0.21545073

kline_transformer.layers.1.self_attn.in_proj_bias f4 [15]
0	0x3a962963	0.0011456426
1	0xba642c20	-0.0008704085
2	0xba824dd0	-0.0009941403
3	0xba6cbaca	-0.0009030519
4	0x3a958c3a	0.0011409589
5	0x35b550ae	1.3509032e-06
6	0xb6230f6c	-2.429787e-06
7	0x35de1bdb	1.6548396e-06
8	0xb5b30bb7	-1.3339949e-06
9	0xb476c91c	-2.2983698e-07
10	0xb934e1f8	-0.00017250318
11	0x39218fd6	0.0001540774
12	0x39ac10bd	0.00032818867
13	0xb9bb82b0	-0.0003576479
14	0xb9e68f95	-0.00043975996

kline_transformer.layers.1.self_attn.out_proj.weight f4 [5, 5]
0	0x3a1807ac	0.0005799483
1	0xbe97ae9f	-0.29625413
2	0xbea2f363	-0.31826314
3	0x3d018b18	0.03162679
4	0x3e325acb	0.17417447
5	0xbcb6e61e	-0.022326525
6	0xbe37771a	-0.17916527
7	0xbdabf2ac	-0.08395895
8	0xbe82d005	-0.2554933
9	0xbdafcc27	-0.08583861
10	0xbed51ca9	-0.41623428
11	0x3eaaba81	0.33345416
12	0x3e097b57	0.13425957
13	0x3e8e9021	0.27844337
14	0x3e87cd47	0.26523802
15	0xbe7339cc	-0.23752517
16	0xbe3216c0	-0.17391491
17	0x3cb8289a	0.022480298
18	0xbec87be1	-0.39157012
19	0x3e41f24e	0.18940088
20	0xbe48a97e	-0.19595906
21	0xbe887e5b	-0.26658902
22	0x3e10f408	0.1415559
23	0x3c7156c1	0.014730156
24	0xbe63a727	-0.22231732

kline_transformer.layers.1.self_attn.out_proj.bias f4 [5]
0	0xba6dd9ab	-0.00090732676
1	0x3b2cf0c0	0.0026388615
2	0x38dece92	0.000106242616
3	0xb8d8eac6	-0.000103434126
4	0xba8639c8	-0.0010240609

kline_transformer.layers.1.linear1.weight f4 [128, 5]
0	0xbed79edb	-0.42113385
1	0xbec0c270	-0.37648344
2	0x3e917619	0.28410414
3	0xbed0135f	-0.4063978
4	0xbd9941a2	-0.074832216
5	0x3cf4252b	0.02980288
6	0xbe8f6387	-0.2800562
7	0xbec98f76	-0.39367265
8	0xbee7b96d	-0.45258656
9	0xbec0fb71	-0.37691835
10	0x3e961667	0.29313967
11	0xbc316c4a	-0.010829041
12	0xbe6e2641	-0.2325678
13	0xbd1e4b2b	-0.038645905
14	0x3e8ed3f8	0.27896094
15	0xbe88b9ff	-0.26704404
16	0xbe022744	-0.12710291
17	0x3d9b76c5	0.07591013
18	0xbe7b499d	-0.245398
19	0xbe38411d	-0.17993589
20	0xbe8ffdf0	-0.28123426
21	0xbe7fca60	-0.24979544
22	0x3e7990a1	0.24371578
23	0x3eddb2be	0.43300432
24	0xbd8eb7b7	-0.069686346
25	0x3ea9b986	0.33149356
26	0xbe45b3d1	-0.19306876
27	0x3ec5a313	0.38600978
28	0xbbcade4b	-0.00619105
29	0x3eaf25eb	0.34208617
30	0x3dd5bc7d	0.10436342
31	0xbee6a3e5	-0.45046917
32	0x3e4076c6	0.18795308
33	0x3e89334a	0.26796943
34	0x3d2fb7be	0.04289984
35	0x3d8e1f7e	0.069396004
36	0xbe9e9038	-0.30969405
37	0x3eb7003b	0.35742363
38	0x3dd9e33a	0.10639043
39	0x3e6e0efd	0.23247905
40	0x3e98a7b1	0.29815438
41	0x3e7e6c38	0.2484597
42	0x3e995afd	0.2995223
43	0xbeca7152	-0.39539582
44	0xbe2ffdbf	-0.1718664
45	0x3df2d4ab	0.118569694
46	0xbe9e9fba	-0.30981237
47	0x3ebce4aa	0.36893207
48	0xbc8e07b4	-0.017337658
49	0xbb246c0e	-0.002508882
50	0xbdc2af65	-0.0950611
51	0x3e859581	0.26090625
52	0xbe32a6d7	-0.17446457
53	0xbea7fa61	-0.3280821
54	0xbb35643c	-0.0027678153
55	0x3d45dd31	0.048306648
56	0xbebf18da	-0.37323648
57	0xbe8c54ab	-0.27408347
58	0x3d80b945	0.06285337
59	0xbc838f22	-0.016059462
60	0x3ea0b4f9	0.3138807
61	0xbe0b4a93	-0.13602667
62	0xbec77d5b	-0.38962826
63	0x3ec81e4e	0.3908562
64	0xbeb73c08	-0.35787988
65	0xbe58596f	-0.21127866
66	0x3ea5135c	0.32241333
67	0x3e3ac375	0.18238623
68	0xbdafaa68	-0.08577424
69	0x3e382161	0.17981483
70	0xbe5a8ab6	-0.21341977
71	0xbe24f871	-0.16110398
72	0xbe709ccc	-0.23497313
73	0xbedbe02f	-0.42944476
74	0x3e67a97f	0.22623251
75	0xbebc5fbe	-0.36791795
76	0xbd27fe32	-0.041013904
77	0xbdfe0ee9	-0.12405188
78	0x3eb9f4d9	0.36319616
79	0x3e424933	0.18973236
80	0x3ed39f29	0.41332367
81	0x3dadcd50	0.08486426
82	0xbcaacd4c	-0.020849846
83	0xbd597d05	-0.053097744
84	0xbe89da3e	-0.26924318
85	0x3e9a9712	0.30193383
86	0x3e95f009	0.29284695
87	0x3cd63df3	0.026152587
88	0xbec57359	-0.38564566
89	0x3eaf1b26	0.342004
90	0x3ec79eb3	0.38988265
91	0x3d42bb48	0.047541887
92	0x3d024908	0.03180793
93	0xbe260b8e	-0.16215345
94	0x3e5c3aa9	0.21506752
95	0x3eb9be10	0.3627782
96	0x3e805c53	0.25070438
97	0xbe0e64a0	-0.13905573
98	0xbe669ca6	-0.22520694
99	0xbeb916aa	-0.36150104
100	0x3e3bb4ec	0.18330735
101	0xbca4a4ac	-0.020098053
102	0x3e6c5106	0.23077783
103	0xbe89daa5	-0.26924625
104	0xbd7e0e3d	-0.062025297
105	0x3ec00907	0.37506887
106	0x3d2ae175	0.04171892
107	0x3e86255e	0.26200384
108	0xbe97bf61	-0.29638198
109	0x3e8fa232	0.28053433
110	0x3ed54c3d	0.41659728
111	0xbd1f93e8	-0.038959414
112	0xbdd12347	-0.10211807
113	0xbee0df51	-0.43920377
114	0x3e9e8dc9	0.30967548
115	0xbe5855f5	-0.2112654
116	0x3df3cb87	0.11904054
117	0xbdbd27e6	-0.09236126
118	0x3cfebcb5	0.031095842
119	0x3cf2ab80	0.029622793
120	0xbdd3c74e	-0.10340749
121	0xbd9a454a	-0.07532747
122	0xbe9fd171	-0.3121448
123	0x3df756bb	0.120770894
124	0x3e319dbc	0.17345327
125	0x3d26c0dd	0.040711273
126	0xbea603cc	-0.32424772
127	0xbe483690	-0.19552064
128	0xbe58d0d7	-0.21173416
129	0x3cdc41fd	0.026886934
130	0xbe7e28fa	-0.24820319
131	0x3e845f08	0.25853753
132	0xbd60add0	-0.05485326
133	0xbea03b85	-0.3129541
134	0xbe7c2a2d	-0.24625464
135	0xbc717cf2	-0.014739262
136	0x3e729885	0.23690994
137	0x3ecb18b9	0.396673
138	0x3be443fc	0.006966112
139	0xbed9aa6c	-0.42512834
140	0x3ecf4ae6	0.4048683
141	0x3d91e924	0.07124546
142	0xbd95a0ac	-0.07306036
143	0x3e727161	0.23676063
144	0xbd897adf	-0.06712889
145	0x3e90cca4	0.28281128
146	0x3ead6a6b	0.33870253
147	0x3e25b14a	0.16180912
148	0xbe9f36f1	-0.31096604
149	0xbea396f6	-0.31951112
150	0xbe537ef9	-0.20653905
151	0xbea7593c	-0.32685268
152	0xbe43ca2d	-0.19120093
153	0xbed5f967	-0.4179184
154	0x3ec4f27c	0.3846625
155	0xbe677adc	-0.22605461
156	0x3ebdd79e	0.37078565
157	0x3ea6bcf5	0.32566038
158	0xbecb4469	-0.3970063
159	0xbcac482b	-0.021030506
160	0x3d84e860	0.064896345
161	0xbd90c391	-0.07068551
162	0xbe9e446d	-0.3091158
163	0xbea09e9f	-0.31371018
164	0x3e2e0b5e	0.16996524
165	0x3d8bd2eb	0.06827339
166	0xbdf3745e	-0.1188743
167	0xbe69a594	-0.2281707
168	0x3ea8c738	0.32964492
169	0x3ea54e0f	0.32286116
170	0x3ead887f	0.338932
171	0x3e581029	0.21099915
172	0xbe44d650	-0.19222379
173	0x3e15c7db	0.1462702
174	0xbe0f8ff3	-0.14019756
175	0xbd8768c5	-0.0661178
176	0x3ea42e60	0.3206663
177	0x3e1db3ec	0.15400666
178	0x3e65f46d	0.22456522
179	0xbe576c73	-0.21037464
180	0xbddb9d43	-0.10723355
181	0x3e31e791	0.17373492
182	0x3cc3a046	0.023880135
183	0x3e56ad64	0.20964581
184	0x3da0ca03	0.07851031
185	0xbe8a7590	-0.27042818
186	0xbe852665	-0.26005855
187	0x3ec81f24	0.39086258
188	0xbe6f43e8	-0.23365748
189	0x3e6e3a91	0.23264529
190	0xbe652cf0	-0.22380424
191	0xbe001f68	-0.1251198
192	0xbec63967	-0.3871567
193	0xbe30aae5	-0.17252691
194	0x3e100d77	0.14067636
195	0x3ed75719	0.42058638
196	0xbe88793f	-0.26655003
197	0xbe926ec6	-0.28600138
198	0x3d4820a2	0.048859246
199	0x3e21bbce	0.15794298
200	0xbea082ee	-0.3134989
201	0x3d95abcf	0.073081605
202	0x3db0cb4d	0.086325265
203	0x3ed1127d	0.40834418
204	0xbea11ab2	-0.3146568
205	0x3eb19ee3	0.34691533
206	0x3e052d03	0.13005452
207	0x3ebe1501	0.371254
208	0x3eb2f20c	0.34950292
209	0x3e5b83f0	0.21437049
210	0xbdc64142	-0.09680416
211	0x3eda2c43	0.42611894
212	0x3dfcf58d	0.123515226
213	0xbebde351	-0.3708749
214	0x3e70b922	0.23508123
215	0xbe5a697e	-0.21329305
216	0xbdccc230	-0.09997976
217	0x3c2d1980	0.010565162
218	0xbe15aabc	-0.14615911
219	0xbce60ee0	-0.028083265
220	0x3df3d2b6	0.11905424
221	0x3eb852b4	0.36000597
222	0x3eb8d98b	0.36103472
223	0xbe94c012	-0.29052788
224	0x3c2b5425	0.010457073
225	0x3e98b002	0.29821783
226	0x3ea2cb08	0.31795526
227	0xbdf24cda	-0.118310645
228	0x3ca305d2	0.019900236
229	0x3e9c753f	0.30558202
230	0x3e89e050	0.2692895
231	0xbea301f5	-0.3183743
232	0x3eace703	0.33769998
233	0xbdc09d66	-0.09405021
234	0x3cb0bf75	0.021575669
235	0x3e1712cf	0.14753269
236	0xbe6ec5d0	-0.23317647
237	0x3e5c4510	0.2151072
238	0x3ed0e732	0.40801388
239	0xbe8e9177	-0.27845356
240	0xbe85b001	-0.26110843
241	0xbe5e25dd	-0.21694131
242	0x3d09b42c	0.03361909
243	0x3dab77de	0.08372472
244	0x3d91e0d1	0.071229585
245	0x3e916fb1	0.28405526
246	0x3cda101f	0.026619015
247	0xbe68cdb2	-0.22734717
248	0xbea2b48d	-0.31778374
249	0xbe3e4f63	-0.18584971
250	0xbe25ba0e	-0.16184255
251	0xbdd159f5	-0.10222236
252	0x3e0a01af	0.13477205
253	0xbeab4197	-0.3344848
254	0x3ea86d73	0.32896003
255	0xbc49b5a9	-0.012311378

kline_transformer.layers.1.linear1.bias f4 [128]
0	0x3d95bb7a	0.07311149
1	0xbd7fe326	-0.062472485
2	0x3ae92bc2	0.001778953
3	0x3db2e59a	0.08735199
4	0x3db2f507	0.087381415
5	0x3e967aa4	0.29390442
6	0x3de1847c	0.110115975
7	0x3e8a1f95	0.2697722
8	0x3edd8a52	0.43269593
9	0x3e336aec	0.17521256
10	0x3c8a3ea9	0.016875582
11	0x3e168446	0.14698896
12	0xbdf117c2	-0.117721096
13	0xbeb11243	-0.34584245
14	0x3ebd50df	0.36975762
15	0xbe0c8fe4	-0.13726765
16	0x3d80e0ac	0.06292853
17	0x3e80f139	0.25184038
18	0x3eb5bcda	0.35495645
19	0x3e053229	0.13007416
20	0x3e4db862	0.20089868
21	0x3dad8486	0.084725425
22	0x3ec37296	0.3817336
23	0xbe754fd4	-0.23956233
24	0xbddee3f5	-0.10883323
25	0x3e437972	0.19089296
26	0xbeb9b095	-0.36267534
27	0xbe1d43e9	-0.15357937
28	0xbea19338	-0.31557631
29	0xbeb7f13f	-0.35926244
30	0xbee1d52c	-0.4410795
31	0x3df5d734	0.12003937
32	0x3e09adbe	0.13445184
33	0x3dc33914	0.09532371
34	0xbd6813ef	-0.056659635
35	0xbe8a1ab3	-0.26973495
36	0xbeb5632a	-0.3542722
37	0xbedf8838	-0.43658614
38	0x3e907f21	0.28221992
39	0x3da70c43	0.081566356
40	0x3de5b00e	0.112152204
41	0xbe15949d	-0.14607473
42	0xbd60e048	-0.05490139
43	0xbedd98f4	-0.43280756
44	0x3d3f67e7	0.04672995
45	0x3ed3c132	0.41358334
46	0xbd1eab7c	-0.03873776
47	0x3e7d04bb	0.24708836
48	0x3ecf426f	0.40480372
49	0xbd6e0e03	-0.05811883
50	0xbdbc6c0a	-0.09200294
51	0xbe8c67ea	-0.2742303
52	0xbea10a22	-0.31453043
53	0x3dd20904	0.10255626
54	0x3ee04eb2	0.4381004
55	0xbde08d45	-0.10964445
56	0xbe8e4921	-0.27790168
57	0xbe10439f	-0.14088295
58	0xbe27191d	-0.16318174
59	0xbd41246b	-0.04715387
60	0xbe9dbd3c	-0.30808437
61	0x3edeb05f	0.43493935
62	0x3e5d88f4	0.21634275
63	0x3d95c7c2	0.073134914
64	0xbdd91d4c	-0.10601291
65	0x3e0c17a5	0.13680895
66	0xbd904c95	-0.07045857
67	0x3e4fb274	0.20282918
68	0x3ddc329c	0.107518405
69	0x3e9d1267	0.30678102
70	0x3e56fe47	0.20995437
71	0x3e84d597	0.25944206
72	0x3e0a27ef	0.13491796
73	0x3eacadf5	0.3372647
74	0x3e637e4f	0.22216152
75	0x3dad0af4	0.08449355
76	0xbedf548a	-0.43619186
77	0x3db245ec	0.08704743
78	0x3ea0928a	0.313618
79	0xbeb7a24c	-0.3586601
80	0xbe26ef26	-0.16302165
81	0xbec76aed	-0.38948765
82	0xbe5014a4	-0.20320374
83	0xbdb8d002	-0.09024049
84	0x3e8ee62f	0.2790999
85	0x3be5cfb3	0.007013285
86	0x3e2fe38d	0.17176647
87	0x3e533618	0.20626104
88	0x3eb1bf66	0.34716338
89	0x3e6910d8	0.22760332
90	0x3d1bcf99	0.038039777
91	0xbd79c94a	-0.06098298
92	0x3e9fa170	0.31177855
93	0x3e2c15d3	0.168052
94	0xbe88eadb	-0.2674168
95	0x3d310934	0.043221667
96	0x3e919740	0.28435707
97	0xbeb11825	-0.34588733
98	0xbe00cb57	-0.12577568
99	0x3d8f9991	0.07011712
100	0xbe62e974	-0.22159368
101	0x3eba6ab1	0.36409524
102	0x3e5a8f78	0.21343791
103	0xbed30dda	-0.41221505
104	0xbe26208c	-0.16223353
105	0xbec54374	-0.38528025
106	0x3e6fc413	0.2341464
107	0x3eb24b7c	0.34823215
108	0x3d0f0e7c	0.034925923
109	0x3eaa54b3	0.33267745
110	0xbedab0b3	-0.42712936
111	0x3e15e7ce	0.14639208
112	0xbe64282e	-0.22280952
113	0xbecb51f5	-0.39710966
114	0x3ed32d9a	0.4124573
115	0x3e0fc9c6	0.14041814
116	0x3ed87a72	0.42280918
117	0x3e877ac7	0.2646086
118	0xbe849430	-0.25894308
119	0x3ea264d2	0.31717545
120	0xbe92d640	-0.28679085
121	0xbdf214ff	-0.11820411
122	0xbcf42756	-0.029803913
123	0xbc4d95ae	-0.012547893
124	0x3ebeef37	0.3729188
125	0x3da5ad2d	0.08089671
126	0xbecce084	-0.40015042
127	0x3ec76d81	0.38950732

kline_transformer.layers.1.linear2.weight f4 [5, 128]
0	0x3d09c771	0.033637468
1	0x3c8ea378	0.017411932
2	0xbd90fd92	-0.07079615
3	0x3d7ab7e5	0.06121053
4	0xbd2efa6a	-0.042719282
5	0xbd871a00	-0.06596756
6	0x3cd0e087	0.025497688
7	0xbc6e3dfe	-0.014541147
8	0x3d530a94	0.05152376
9	0x3cb72122	0.022354666
10	0x3c6ee595	0.014581104
11	0xbd37706d	-0.044784952
12	0xbd6d0d2f	-0.0578739
13	0xbd578967	-0.05262127
14	0x3d5ae337	0.053439345
15	0x3d81d172	0.06338777
16	0x3d86c67a	0.06580825
17	0x3c58759d	0.013211635
18	0xbd84ff23	-0.06493976
19	0xbd54c383	-0.051944267
20	0xbdb41406	-0.08792882
21	0xbc0062cd	-0.007836056
22	0x3d54eb81	0.051982407
23	0xbd62a548	-0.055333406
24	0xbd4a952b	-0.049458664
25	0xbd16a7a3	-0.036780965
26	0xbd89046b	-0.06690296
27	0x3d76b012	0.060226507
28	0x3d634e2e	0.05549448
29	0x3cd06530	0.025438875
30	0x3d531c89	0.051540885
31	0xbd93cb94	-0.07216564
32	0x3d867f03	0.06567194
33	0xbd22265e	-0.03958737
34	0x3d1c9ada	0.038233615
35	0x3d1d5af5	0.03841682
36	0xbccce9c8	-0.02501382
37	0x3d08cba6	0.03339734
38	0xbc9d666e	-0.019213881
39	0x3b6763e9	0.0035307354
40	0xbbf60249	-0.0075075966
41	0xbc29cbe0	-0.010363549
42	0x3c56af3c	0.013103303
43	0x3d6b4236	0.05743619
44	0xbd0ee2b6	-0.034884177
45	0x3d99e267	0.07513886
46	0xbd658e7c	-0.056044087
47	0x3d8d53fa	0.06900783
48	0x3d5429ec	0.051797792
49	0x3d80350b	0.06260117
50	0x3da03600	0.078228
51	0xbd9f41bf	-0.07776212
52	0xbd92a9c6	-0.07161288
53	0x3d931814	0.07182327
54	0x3cde00b0	0.027099937
55	0x3c6646e1	0.014054985
56	0x3d03ef87	0.032210853
57	0x3b08bb8a	0.0020863735
58	0x3d4639c2	0.048394926
59	0xbd69184e	-0.056907944
60	0xbd086034	-0.03329487
61	0xbd5bb7ca	-0.05364207
62	0x3cb86292	0.02250794
63	0xbd9d2b75	-0.076743044
64	0x3d7bada3	0.06144489
65	0xbd4380a9	-0.04773012
66	0xbd9ff95e	-0.07811235
67	0x3c8b9c3c	0.017042272
68	0x3d698d18	0.057019323
69	0xbc83d4ee	-0.016092744
70	0xbd64a19b	-0.05581818
71	0x3da9fe28	0.083004296
72	0xbd9fb19c	-0.07797548
73	0x3d3d61bd	0.04623579
74	0xbd551e30	-0.052030742
75	0xbd851256	-0.06497638
76	0xbcdf759a	-0.027277756
77	0xbcee4fee	-0.029090848
78	0x3d4a900e	0.049453788
79	0xbd2ffc5c	-0.042965278
80	0x3d8831d5	0.0665013
81	0x3a8c015f	0.0010681561
82	0x3bbe3d42	0.0058056423
83	0x3da45cc5	0.08025507
84	0x3d5d27db	0.053993087
85	0x3d334f06	0.043776534
86	0xba8f7615	-0.0010945225
87	0xbb91a4fb	-0.004444716
88	0x3d95bd76	0.073115274
89	0xbc164d6c	-0.009173732
90	0x3c96db86	0.018415224
91	0xbd49b5c7	-0.049245622
92	0xbda9e05e	-0.08294748
93	0xbd8a0042	-0.067383304
94	0xbdaca532	-0.08429946
95	0x3d7733e7	0.060352232
96	0x3c0bb5c7	0.008527226
97	0xbcb7697c	-0.022389166
98	0xbd5d32ea	-0.054003634
99	0x3cc217d5	0.023693005
100	0xbdc657fa	-0.09684749
101	0x3d87f104	0.06637767
102	0x3c7c3e94	0.015395779
103	0xbcafa360	-0.021440208
104	0xbd97d44b	-0.074135385
105	0xbc99b920	-0.018765032
106	0x3d9f7fc8	0.07788044
107	0x3d5fba1a	0.05462084
108	0xbd6c78c6	-0.057732366
109	0x3c715488	0.0147296265
110	0xbcd9b670	-0.02657625
111	0xbdaa5391	-0.0831672
112	0x3d2ecf72	0.042678304
113	0xbc82c955	-0.015965143
114	0xbd6ddb1c	-0.058070287
115	0x3d6bd8e6	0.057579897
116	0xbd664a88	-0.056223422
117	0xbc9281d7	-0.017884178
118	0x3be763ca	0.0070614563
119	0xbd4562fc	-0.048190102
120	0xbbd9ff4e	-0.006652749
121	0xbd80e6c6	-0.062940165
122	0xbcb5aac7	-0.02217616
123	0xbd7c9b6e	-0.061671667
124	0xbd039aec	-0.032130167
125	0xbc58826d	-0.01321469
126	0xbd8ec4e1	-0.069711454
127	0x3c5cb310	0.013470426
128	0xbd6b5d8c	-0.05746226
129	0xbc137d02	-0.009001972
130	0x3d8a16d1	0.06742633
131	0xbd3208f8	-0.043465585
132	0x3d9e6de8	0.07735807
133	0x3d9cc04a	0.07653864
134	0x3bb9c8f6	0.0056697084
135	0x3da2bc14	0.07946029
136	0x3c92ca3e	0.017918702
137	0x3be4f967	0.006987739
138	0x3d828f92	0.0637504
139	0xbb6d2e93	-0.003619109
140	0x3c46e39d	0.012139228
141	0xbc4f9103	-0.012668851
142	0xbcb99506	-0.022654068
143	0xbd8d7ec2	-0.06908943
144	0xbd4c1464	-0.049824134
145	0xbc3c8eb9	-0.011508637
146	0x3dae1685	0.08500389
147	0xbcc16f17	-0.023612542
148	0x3d959d05	0.0730534
149	0xbca03596	-0.019556802
150	0xbc193fcc	-0.009353589
151	0xbd8a1660	-0.06742549
152	0xbcd1c609	-0.025607126
153	0x3db9aeda	0.090665534
154	0xb9cb53be	-0.0003878157
155	0xbcf2bc5f	-0.029630838
156	0xbcd9c981	-0.026585342
157	0x3c9c4e11	0.019080194
158	0xbc243dde	-0.010024516
159	0x3ca34980	0.019932508
160	0xbda493f0	-0.08036029
161	0x3d42dc0a	0.047573127
162	0xbc223ab3	-0.00990169
163	0xbd0d1cfc	-0.03445147
164	0x3cd9cacf	0.026585964
165	0x3d05b1d6	0.0326403
166	0xbcc61097	-0.024177833
167	0xbc52528b	-0.012837063
168	0xbd42835c	-0.047488555
169	0x3d9f9571	0.077921756
170	0x3d5dbe7f	0.05413675
171	0x3d295b5a	0.041346885
172	0xbcbcff35	-0.023070911
173	0xbdadde67	-0.084896855
174	0xbd9ba4a7	-0.07599764
175	0x3c29d181	0.010364891
176	0x3da9535a	0.08267851
177	0xbc2fe26b	-0.010735135
178	0xbc91ded0	-0.01780644
179	0xbd459ae7	-0.04824343
180	0xbd641bd1	-0.05569059
181	0x3c8b1d60	0.01698178
182	0xbc0abde3	-0.008468124
183	0xbd91b4e9	-0.07114584
184	0xbcb0132c	-0.021493517
185	0xbd932455	-0.07184664
186	0xbb568c80	-0.0032737553
187	0xbdb750dc	-0.089509696
188	0x3becb09a	0.007223201
189	0xbbbad7ed	-0.00570201
190	0x3c512d22	0.012767108
191	0xbd99d13e	-0.07510613
192	0xbd959c87	-0.07305246
193	0xbd24ffb9	-0.04028294
194	0xbd884ebd	-0.06655643
195	0xbcd7648e	-0.026293065
196	0xbd22ffc2	-0.03979469
197	0x3cff7e7e	0.031188246
198	0xbd84c41c	-0.064827174
199	0x3d55a379	0.052157853
200	0xbd8999a1	-0.067187555
201	0x3d05ff80	0.032714367
202	0xbc8bb858	-0.017055675
203	0xbd753433	-0.059864234
204	0xbd785177	-0.060624566
205	0xbcc5c06b	-0.024139604
206	0x3bdbee99	0.0067117927
207	0x3c4223fd	0.011849401
208	0xbd8dbf91	-0.06921304
209	0xbcf5be10	-0.029997855
210	0x3d85a004	0.06524661
211	0x3da30bc6	0.0796123
212	0xbc8b9750	-0.017039925
213	0x3d1ff37b	0.03905056
214	0xbd94f91f	-0.072740786
215	0x3d99926e	0.07498632
216	0x3c5281ca	0.012848327
217	0xbd24805b	-0.04016147
218	0xbd811d4a	-0.063044146
219	0xbd63b0bb	-0.055588465
220	0xbda285e0	-0.07935691
221	0x3dad948e	0.084756
222	0x3d05f4b8	0.032704085
223	0xbd9f82a3	-0.07788589
224	0xbcbe8ce5	-0.023260543
225	0x3cf0f8df	0.029415546
226	0xbc545823	-0.012960467
227	0xbaa5306e	-0.0012602934
228	0x3d3abdd5	0.045591194
229	0x3daee0ae	0.08538948
230	0x3db5ccdc	0.088769644
231	0xbccd7375	-0.025079468
232	0x3d9b62fa	0.07587238
233	0x3da030bc	0.07821795
234	0x3d47af2b	0.048751038
235	0x3d14a8c9	0.03629378
236	0xbd4d352e	-0.050099544
237	0xbd89ca7b	-0.06728073
238	0x3cd87b1f	0.026425896
239	0x3d65f759	0.056144092
240	0x3c75c12b	0.014999668
241	0xbd431f08	-0.047637016
242	0xbd358bec	-0.044322893
243	0xbd7d3621	-0.0618192
244	0xbd53484c	-0.05158262
245	0xbc0bad75	-0.008525242
246	0xbd777b66	-0.060420416
247	0x3d8eac64	0.06966475
248	0x3d8bfe34	0.06835595
249	0x3bc36561	0.005963013
250	0xbdb462a0	-0.08807874
251	0x3cb68db4	0.022284366
252	0xbcd27aaa	-0.025693256
253	0x3d5ad8c0	0.053429365
254	0x3d8aed30	0.06783521
255	0x3c40a51f	0.011758118

kline_transformer.layers.1.linear2.bias f4 [5]
0	0xbc1ee17b	-0.009697313
1	0xbd34717f	-0.04405355
2	0xb8a086b8	-7.654488e-05
3	0x3da132f2	0.07871045
4	0x3cac824a	0.02105822

kline_transformer.layers.1.norm1.weight f4 [5]
0	0x3f7fe4a6	0.99958265
1	0x3f7b34b8	0.9812732
2	0x3f80cc51	1.0062352
3	0x3f7b9967	0.9828095
4	0x3f806986	1.0032203

kline_transformer.layers.1.norm1.bias f4 [5]
0	0xbb124a37	-0.0022322068
1	0x3a8ffb04	0.0010984843
2	0x39560671	0.0002041103
3	0xba5404d2	-0.00080878765
4	0xbb8afe70	-0.004241757

kline_transformer.layers.1.norm2.weight f4 [5]
0	0x3f8048fa	1.0022271
1	0x3f7e8180	0.9941635
2	0x3f80f7dc	1.0075641
3	0x3f79e234	0.97610784
4	0x3f8167dd	1.0109822

kline_transformer.layers.1.norm2.bias f4 [5]
0	0x39b0964f	0.00033681325
1	0x3a152eb0	0.0005690856
2	0xb9b05a22	-0.0003363649
3	0x39de8650	0.0004244321
4	0x3a1eefd6	0.000606296

report_fc.weight f4 [128, 768]
0	0x3bf5c5a6	0.007500368
1	0xbd151b71	-0.036403123
2	0xbd18375f	-0.03716218
3	0x3c9dd932	0.019268606
4	0x3cbf6e18	0.023367926
5	0xbc4d6c05	-0.012537961
6	0x3be2fa50	0.006926812
7	0x3cf3b215	0.029748002
8	0x3ce303ae	0.027711716
9	0xbc9bd454	-0.019022144
10	0x3cfc4202	0.030793194
11	0xbcaaa647	-0.02083124
12	0xbcb91789	-0.02259423
13	0xbc8488da	-0.016178537
14	0xb9ca48d8	-0.00038582715
15	0xbd0ea3ac	-0.03482406
16	0x3cd19d2c	0.02558764
17	0x3c53de84	0.01293147
18	0x3d1494a2	0.03627456
19	0xbbcaf1ce	-0.006193376
20	0xbc828d28	-0.01593645
21	0xbbd30098	-0.0064392798
22	0xbcfaf70a	-0.030635376
23	0x3c07a4f1	0.008279071
24	0x3cfc4803	0.030796057
25	0xb9ec20ec	-0.00045037956
26	0xbccd2e6c	-0.02504655
27	0x3c859bbf	0.016309617
28	0x3cab2d12	0.020895515
29	0xbd0e27c0	-0.034705877
30	0x3c37624e	0.011192871
31	0x3cc1ccad	0.023657167
32	0xbc612a17	-0.013742945
33	0xbc914428	-0.017732695
34	0x3b4c1d67	0.0031145455
35	0xbcbeae7b	-0.023276558
36	0xbce1ba63	-0.027554696
37	0xbd15b35e	-0.03654801
38	0x3afecace	0.0019439103
39	0xbd02081a	-0.031746008
40	0xbc91a07d	-0.017776722
41	0xbd060b86	-0.032725833
42	0xbd11d44e	-0.03560286
43	0x3baa70bc	0.0052014273
44	0xbc433042	-0.011913361
45	0x3cb9fd4c	0.02270379
46	0x3cdcea5f	0.026967226
47	0xba5374ad	-0.0008066397
48	0xbcdf9784	-0.027293928
49	0x3b84ba48	0.004050527
50	0xbcb0c163	-0.021576589
51	0xbc198ffc	-0.009372707
52	0x3c190c0e	0.009341253
53	0x3d15c5fc	0.036565766
54	0xbb1e39e0	-0.0024143383
55	0xbb5e70ee	-0.0033941823
56	0x3ca1d9ed	0.019757235
57	0x3cf846b4	0.030307151
58	0x3cf59612	0.029978786
59	0x3be926e4	0.007115232
60	0xbc9453c9	-0.018106358
61	0xbcfd91b8	-0.030953273
62	0xbd1bf837	-0.038078513
63	0x3a350559	0.0006905399
64	0xbb0ef3f7	-0.0021812895
65	0x3ca6e05f	0.02037066
66	0xbbd05e63	-0.006358908
67	0x3cc1b16e	0.023644175
68	0xbc81a821	-0.01582724
69	0x39fd1d83	0.00048277908
70	0xbc0426ed	-0.008065921
71	0xbc80a783	-0.015704876
72	0x3bab21ab	0.0052225194
73	0x3a7e1b6c	0.0009693417
74	0x3c83fb22	0.01611096
75	0xbc57c83d	-0.013170299
76	0x3ce925e9	0.02846046
77	0xbd028216	-0.03186234
78	0x3cd0a7c2	0.025470618
79	0xbb77d6b0	-0.0037817173
80	0xbb029373	-0.0019924312
81	0xbcfa678f	-0.030566959
82	0xbcb974ff	-0.022638796
83	0xbc423c6b	-0.011855225
84	0xbb9422e9	-0.004520763
85	0xbd324b94	-0.04352911
86	0x3cb77f34	0.022399522
87	0xbcea17d0	-0.028575808
88	0xba938f00	-0.0011257827
89	0xbd5be448	-0.053684503
90	0x3c3c3ad6	0.011488637
91	0xbc8e0b0f	-0.017339258
92	0xbd0cbd84	-0.034360424
93	0xbc972bf7	-0.018453581
94	0x3c8f29e7	0.017476035
95	0xbc9d7517	-0.019220872
96	0x3ce4b4c3	0.027918225
97	0x3a51c02f	0.0008001355
98	0x3c59b86d	0.013288599
99	0xbcbb51cd	-0.022866154
100	0xbd1e285e	-0.038612716
101	0xbc0cfa68	-0.008604623
102	0xbc51fde8	-0.012816884
103	0x3c107977	0.008818022
104	0xbae7964e	-0.0017668696
105	0x3be7b28e	0.007070846
106	0xbcdb4082	-0.026764158
107	0xbcf5c605	-0.03000165
108	0xbd0f57ba	-0.034995772
109	0x3d00dba9	0.031459484
110	0xbc1d4273	-0.009598362
111	0xbca8df15	-0.020614186
112	0x3cace2de	0.021104272
113	0xbcc6fdc6	-0.02429093
114	0x3cf588b2	0.029972408
115	0x3c9494fc	0.018137448
116	0xba7edd11	-0.00097222725
117	0x3ba8074e	0.005127824
118	0x3c01a50a	0.007912884
119	0x3c22d337	0.009938053
120	0x3cdc1d79	0.026869522
121	0xba50f56b	-0.00079711404
122	0xbc8f7459	-0.017511534
123	0x3ccf269f	0.02528697
124	0xbc53d3cf	-0.012928917
125	0xbcbd738c	-0.023126386
126	0xbcc27d74	-0.023741461
127	0x3d14d4fb	0.036335927
128	0xbcc5e0df	-0.024155078
129	0xbafe50ff	-0.0019402801
130	0x3b81fb34	0.0039667133
131	0x3b6452ef	0.0034839471
132	0xbc601146	-0.013675993
133	0xbb754da8	-0.003743032
134	0x3d08695f	0.033303615
135	0x3c9a2b0d	0.018819356
136	0xbc6ebccb	-0.014571379
137	0xbd08db22	-0.033412106
138	0xb7051e36	-7.934452e-06
139	0xbc9e0b29	-0.019292431
140	0x3d050b69	0.032481585
141	0xbcb1199e	-0.02161866
142	0x3bfb63ab	0.0076717935
143	0x3aae3aa8	0.0013292627
144	0xbd1408ea	-0.036141314
145	0xbcdd3339	-0.027001964
146	0x3c1269b0	0.008936331
147	0xbbd679cf	-0.0065452824
148	0xbcdd9e18	-0.027052924
149	0x3cd64220	0.026154578
150	0x3c58ec6e	0.013239963
151	0xbc0a3968	-0.008436538
152	0x3c1a5d6e	0.009421689
153	0xbae2f269	-0.0017314675
154	0x3c40d33a	0.01176911
155	0x3c87c536	0.01657353
156	0xbbf8b4d4	-0.007589916
157	0xbc1db23c	-0.009625014
158	0xbd0e9aa7	-0.034815457
159	0x3cd09e6b	0.025466165
160	0xbceed9b6	-0.029156547
161	0x3bd3b3dd	0.0064606504
162	0x3b837b45	0.0040124976
163	0x3cfd0c08	0.030889526
164	0xbc9452cb	-0.018105885
165	0xbb88e57e	-0.004177748
166	0x3d05775f	0.032584544
167	0xbc774466	-0.015091991
168	0xbbac573b	-0.005259422
169	0xbcfe7aaf	-0.03106436
170	0x3d0f1911	0.034936015
171	0x3cd70090	0.026245385
172	0x3ce122a1	0.027482333
173	0x3c673392	0.014111416
174	0x3c8edce5	0.017439315
175	0x3c9beb52	0.019033108
176	0xbb1bdf8e	-0.0023784372
177	0xb9703c67	-0.00022910685
178	0x3cd41b75	0.025891999
179	0x3cfca380	0.030839682
180	0xbb6e8ce3	-0.0036399893
181	0xbc3ac711	-0.0114
182	0xbcd6c9a3	-0.026219195
183	0xbcf64117	-0.030060334
184	0xbca817ff	-0.020519255
185	0x3d0a74c0	0.033802748
186	0x3d0a6e49	0.033796582
187	0x3cee3bdb	0.029081276
188	0xbbd4dda2	-0.0064961473
189	0x3b1122d8	0.0022146013
190	0xbc1ea137	-0.009681991
191	0x3c9de793	0.019275462
192	0xbc2d22c8	-0.0105673745
193	0x3c9ee474	0.019396044
194	0x3be4cdc0	0.006982535
195	0x3cf79eee	0.03022715
196	0x3cde6149	0.027145999
197	0xbc9f0080	-0.019409418
198	0xbd09716b	-0.03355543
199	0xbca337ae	-0.019924011
200	0xbcc88d0e	-0.024481323
201	0xbcd76f7e	-0.02629828
202	0x3cbaac91	0.022787364
203	0xbc94cf13	-0.018165147
204	0x3cec7707	0.02886535
205	0xbb03915d	-0.0020075657
206	0x3c33883a	0.010957772
207	0xbb568fb8	-0.0032739472
208	0xba5dca3b	-0.00084606156
209	0x3cc8b3fc	0.024499886
210	0xbcfba55b	-0.030718496
211	0xbcc3a790	-0.023883611
212	0xbb955bba	-0.004558054
213	0x39cba588	0.00038842508
214	0x3d10fa6f	0.035395082
215	0xbb59e0e1	-0.003324561
216	0xbd074c46	-0.033031724
217	0x3c9a2e9e	0.018821057
218	0xbcac09d0	-0.021000773
219	0x3ccc09d1	0.024907025
220	0xbcabe907	-0.02098514
221	0x3cec30c8	0.028831854
222	0x3c2386d9	0.009980881
223	0xbca63658	-0.020289585
224	0x3cffa6f6	0.031207543
225	0xbc0c1f9c	-0.008552458
226	0xbd0b1e49	-0.03396443
227	0x3d803beb	0.062614284
228	0x3d4172f6	0.047228776
229	0x3c16867c	0.009187337
230	0xb9949adb	-0.00028344136
231	0xbcb5ffec	-0.02221676
232	0x3cda73fd	0.026666636
233	0x3c222a2b	0.009897749
234	0xbb3f20c5	-0.002916382
235	0xbc6892d7	-0.014195166
236	0xbd0c41d2	-0.03424246
237	0xbc9b071a	-0.018924285
238	0x3ceddac8	0.029034987
239	0xbb251ef0	-0.0025195442
240	0xbb80595c	-0.0039169025
241	0xbacaf7cf	-0.001548523
242	0xbd002edc	-0.03129469
243	0x3c7e4f76	0.015521875
244	0xbcce74cc	-0.025202177
245	0xbcf97af5	-0.030454138
246	0xbd05cab2	-0.03266401
247	0x3d03e180	0.032197475
248	0x3bddb363	0.0067657693
249	0xbc2b6861	-0.010461898
250	0xba9a5be0	-0.0011776648
251	0xbd00b024	-0.03141798
252	0xbcd8d73f	-0.026469825
253	0xbcb2fdd4	-0.02184955
254	0x3c5a7ba5	0.013335143
255	0x3c7f1798	0.01556959
