models/googl_model.pth (torch, 416578 bytes, 27 tensors)

kline_transformer.layers.0.self_attn.in_proj_weight f4 [15, 5]
00000000: c63e dc3e 2e53 8fbc 420c ae3e 2e1f fc3e
00000010: 12c6 7dbe de10 07bf 76dd d9be 83f2 82be
00000020: a9a5 c1be ad59 e3be dfbe 0c3f ba51 803e
00000030: 2837 663e a159 1c3d 2e9a fabe 1bd2 66be
00000040: a4cb d93e ede7 84be 7026 9d3e 02c5 de3b
00000050: 886c a73e 9330 00bf cd47 603e c370 12be
00000060: e117 c03e 8183 99bd b783 373d 3287 973e
00000070: c73d df3d 93d2 d2be 2de5 fbbe 26e1 33be
00000080: f352 bbbd 4d1a 033f a799 e7be fb33 28bd
00000090: 3e0e c2bd c883 d0bc 43fa 983e 4e8a f03c
000000a0: 00c3 573e 5d80 e0be afc0 c2bb 7d46 403e
000000b0: 0c06 d43e df63 bebe 11bb 6dbe 1739 993e
000000c0: 39f3 923d f616 263e b7b6 c53e bbc1 c83e
000000d0: b7db 41bd e1d7 c8be 6b37 8c3e e269 04bf
000000e0: 56b7 73be 093e 94be c02d 01bf d1fe 1f3e
000000f0: 6c84 1e3e 6bd5 b0be f28a 65be 5beb c13e
00000100: 6e13 61bd 7749 04bf 5930 873e 8054 bf3d
00000110: e588 5abd 8c67 393e 1290 803e bb9f c5be
00000120: 8530 f83c d2a3 c2be 04ef 09bf
0.43016642 -0.017495718 0.33993727 0.49242538 -0.24782589 -0.5276011 -0.42551774 -0.25575647
-0.378217 -0.44404355 0.54978746 0.25062352 0.22481978 0.038171414 -0.48945755 -0.22541086
0.42538178 -0.25958195 0.30693388 0.0067983875 0.3269999 -0.5007412 0.2190239 -0.14300828
0.37518218 -0.074957855 0.044803347 0.29595333 0.10900455 -0.4117628 -0.49198285 -0.17566356
-0.09146681 0.51212007 -0.45234415 -0.041065197 -0.09475373 -0.025453463 0.29878435 0.029362824
0.2107048 -0.43847933 -0.00594338 0.18776889 0.41410863 -0.3718557 -0.23215891 0.2992637
0.07175297 0.16219696 0.38615963 0.39210305 -0.047328677 -0.39227203 0.2738603 -0.51724064
-0.23800406 -0.2895358 -0.50460434 0.15624548 0.15480202 -0.34537825 -0.22416285 0.37874874
-0.05495017 -0.516746 0.26404074 0.09342289 -0.05335321 0.18105906 0.25109917 -0.38598427
0.030296573 -0.3801561 -0.53880334

kline_transformer.layers.0.self_attn.in_proj_bias f4 [15]
00000000: 205e f0bb df49 223c f298 1cbc ebc5 b73b
00000010: 42ea e63b ed18 8b38 7566 72b6 6a18 ea37
00000020: c023 6d36 8652 62b7 c30b 773b cbf1 ee3b
00000030: 33d0 53bc e089 18bc dc02 0c3c
-0.0073354393 0.009905308 -0.009557949 0.0056083105 0.0070469687 6.632679e-05 -3.6120448e-06 2.7906342e-05
3.5336561e-06 -1.3489864e-05 0.003769622 0.0072920076 -0.0129280565 -0.009310216 0.008545604

kline_transformer.layers.0.self_attn.out_proj.weight f4 [5, 5]
00000000: 762d 5bbe cd56 6e3d 3e3e 1e3d da79 9bbe
00000010: 6e91 843e 3c5b c03e f9e6 ae3e 037b c5be
00000020: 9a15 eabd b5f7 553d 0195 d43d 593b 9abe
00000030: e7bf 133d b8a5 9d3e 04f3 8abe 8163 4fbe
00000040: f6fc 09be f589 823e b60e d8bd 0456 613e
00000050: b198 0a3e 1f38 51be fd14 9ebe e151 cebd
00000060: 17e1 6c3e
-0.2140406 0.05818825 0.038633578 -0.30366403 0.25892204 0.37569606 0.34160593 -0.38570413
-0.114299014 0.052238185 0.10379983 -0.30123404 0.036071684 0.30790496 -0.2713853 -0.20252801
-0.13475403 0.25495878 -0.10549681 0.22005469 0.1353481 -0.20431565 -0.30875388 -0.10074211
0.2313274

kline_transformer.layers.0.self_attn.out_proj.bias f4 [5]
00000000: b85c 17ba 82e4 b23b 3bcb e1bb 29bc 323b
00000010: 2073 7a3b
-0.0005774009 0.005459369 -0.006890682 0.0027272797 0.0038215593

kline_transformer.layers.0.linear1.weight f4 [128, 5]
00000000: b777 b8be 0343 72be 06c8 283c 3836 e3be
00000010: 07d6 90be 4850 9a3e a982 76be d7e8 e13d
00000020: e953 9abe 328a aabe e4be 2abe d21b 11be
00000030: cd68 633e 5e26 aa3e ae7f 3a3e 0b04 92bd
00000040: 5ff6 a9be 0744 a2be be79 c8bd 7682 1cbe
00000050: ea25 313e 4a10 bebd 5bd0 c83e b792 60be
00000060: 04b0 93bd 2198 ee3e 955f d2be 7857 c2be
00000070: 9877 913e 0d4d 053e b23e d1be e913 8a3e
00000080: 0761 ab3e 48f1 353d d15e 903e 7f7f 37be
00000090: ccf1 723c 6efc 053e 14fd 33be 8b4c 773e
000000a0: 4dcd f8bd defe c13e 0f56 d4be c3cf a63e
000000b0: c3aa d6be 6915 7f3e fb93 e03e 6fa6 93be
000000c0: 37f8 d6be a6c6 0e3d 12cb 7cbe 8b4c 4ebe
000000d0: 36ff c1be c1df fe3d f00a 7e3e d20e db3e
000000e0: 335e 80be 9ffe 31be d71a c43d a7ee f9bc
000000f0: 6ab5 563e 1f01 cf3e 2251 45be 240f b4be
00000100: 2a03 5cbe 35ed 623e f8ed c3be a1a3 3abe
00000110: 5e38 cb3d c1e8 c5be 4ffb 9ebe 6b8d bfbe
00000120: 383a df3e 3d7a 203e 27ed 6f3e 2d97 efbe
00000130: 4992 8abe a4c1 223e 738e fe3c 1c3f 1b3c
00000140: dd8e dfbe fdf7 e1be 9ea3 c9be abaa 0f3e
00000150: 5bbd 003d 4d81 353d bf32 883e cfbd e5be
00000160: 9f48 15be 1022 b3be 1c06 3f3d 844e 2bbe
00000170: 8842 8b3e f05a 673e 1340 153e 4e6e 9d3d
00000180: 09d5 c73d ba68 bebc 6715 8c3e 9253 36bd
00000190: 650b 243d 0752 afbd 4ddb 4dbc bff4 833e
000001a0: 13b6 a63d e58d 163d 5609 bbbd 0839 bebe
000001b0: 10c1 14be 48ec 2f3e ff27 92be 482c c3be
000001c0: 325d f1bd ffdb 433e 20cb 333e ff54 bfbe
000001d0: dffb bb3e 8bb4 d9bc 02d1 803e 3d05 6dbe
000001e0: dc4d 78be 1d1e d1be 0198 f7bd 6e46 72be
000001f0: b3c7 93be dcff dcbd 15c5 9f3e bf47 463d
00000200: ce5c 6e3e ccd3 4c3d 275b bcbe c5cc b73d
00000210: ca9b 233c f137 94be 3a8c 68be 74d7 933e
00000220: cb11 6f3e b339 9bbe b945 e4be b141 2ebd
00000230: 1951 b3bb 75b8 dabe 16c7 f73a 55f2 b33e
00000240: 1514 933e f8ce 82be b02c 183e 6406 3dbe
00000250: 9e3d 65be b52e 9c3e cfc6 b9bd 2b90 553e
00000260: d4be 33be 6e27 b83e a578 9dbe 38ea 3cbe
00000270: 87c0 c63e 9c51 a53e 09b7 293e d29f 733e
00000280: 0bf2 823e b50b 953e 1a6e 823e 0f2c dfbe
00000290: 4aa1 dcbe 1383 b83e 0b4f 073e c1da a33e
000002a0: 6b7f 5d3d d8de 57be c40b b5bd 7159 223d
000002b0: 4a73 033e f64a c0be 14f3 c33d 1b5b 673e
000002c0: 6340 4cbe 9b06 cbbe 54d8 993d d51d 9bbd
000002d0: 06b3 483e 6d23 d93b 147a 933e 6a51 173e
000002e0: ca76 21be 4976 e9bd 76fc ff3c e216 15bd
000002f0: d8d1 c4be b0c7 863e 5e23 d7be 25c0 663d
00000300: cb89 8cbe 6aab 36be 2a4d b13e a44e 83be
00000310: 71be 93be cc40 ac3e 66c2 a43e 6ebf c13e
00000320: ceb6 d53d d06b 093e e204 dabe a0f6 64be
00000330: 5c98 7a3e 0127 07be 21e7 66be 62a6 fdbd
00000340: d305 293d 8afe a93e 7ba4 c6be 1f7b 853e
00000350: db35 babe f4df 183e 304e d63e dcf4 debe
00000360: ddad f13d 5a9b 75be 63b2 d33d b64a dabe
00000370: 0e1d cb3e f51a 423e 8007 4fbd 84ee 40be
00000380: 62c9 123a 4203 b53e 5917 a6bd 087e 45be
00000390: ca51 d2bd f48a b1bc 3108 c63e 1229 93be
000003a0: a2a9 c3be c9f3 9cbe 5528 733e 5877 b4bd
000003b0: 1ff5 0cbe dfba 71bd 9549 583d db7d 87be
000003c0: 0571 423e 9ac3 71b9 b46f 24be d219 853d
000003d0: 6b20 cfbe 7251 28be dd7b 473e ada4 76be
000003e0: 3aea b23e 1b84 a23e 95c9 b83e a0a3 f4bd
000003f0: f368 c8be 9aec 913e b386 a8be 7339 493e
-0.36028835 -0.23658375 0.010301596 -0.44377303 -0.2828829 0.30139375 -0.2407328 0.11030739
-0.30142143 -0.3330856 -0.16674381 -0.14170769 0.22207947 0.33232397 0.18212768 -0.071296774
-0.3319578 -0.31692526 -0.097888455 -0.15284142 0.1729962 -0.09280451 0.39221463 -0.21930967
-0.07211307 0.4660044 -0.41088548 -0.37957358 0.28411555 0.13017674 -0.40868145 0.26968315
0.33472463 0.044419557 0.2819734 -0.1791973 0.014828157 0.13084576 -0.1757701 0.24150293
-0.12148533 0.3788976 -0.41471907 0.32580385 -0.41927156 0.24910511 0.438629 -0.28837916
-0.41986248 0.034857415 -0.2468684 -0.20146386 -0.37890023 0.124450214 0.2480886 0.42784745
-0.25071868 -0.17382286 0.09575432 -0.030509306 0.20967641 0.40430543 -0.19269231 -0.351678
-0.21485582 0.221608 -0.38267493 -0.18226482 0.099228606 -0.3865414 -0.31051108 -0.3741258
0.43599105 0.1567163 0.2343031 -0.46795025 -0.27064732 0.1589418 0.031073784 0.009475496
-0.43663684 -0.44134513 -0.39382643 0.14029948 0.031430583 0.044312764 0.26601216 -0.44871375
-0.14578484 -0.34986925 0.046636686 -0.1672917 0.27199197 0.22593284 0.14575224 0.076870546
0.0975743 -0.023243297 0.2736008 -0.044513293 0.04004993 -0.08560567 -0.012564492 0.25772664
0.08140197 0.036756415 -0.0913264 -0.37152886 -0.14526772 0.17179978 -0.2854614 -0.3811972
-0.11785354 0.1912689 0.17557955 -0.37369534 0.367156 -0.026575347 0.2515946 -0.2314653
-0.24248451 -0.40843287 -0.12089539 -0.2365968 -0.28863296 -0.10790989 0.3120505 0.048408266
0.2327759 0.050006673 -0.36788294 0.089746036 0.0099858735 -0.2894893 -0.22709742 0.28875315
0.23346631 -0.3031746 -0.44584444 -0.042543117 -0.005472314 -0.42718855 0.0018903937 0.35145822
0.2872626 -0.2554853 0.14860797 -0.18459469 -0.22386786 0.30504385 -0.09071123 0.20855777
-0.17553264 0.35967582 -0.30756107 -0.18448722 0.38818762 0.32288826 0.16573729 0.23791435
0.2557529 0.29110494 0.25474626 -0.43588302 -0.43091804 0.36037502 0.13213746 0.32002833
0.054076593 -0.21081102 -0.08840135 0.03963608 0.12836948 -0.3755719 0.09567848 0.22593348
-0.19946437 -0.39653477 0.075119644 -0.075740494 0.19599542 0.0066265375 0.28804076 0.14777151
-0.1576797 -0.11399514 0.031248312 -0.036398776 -0.38441348 0.26324224 -0.4201917 0.056335587
-0.27448878 -0.17838827 0.34629184 -0.25645936 -0.28856233 0.33643186 0.32179564 0.37841362
0.10435258 0.13420033 -0.4258185 -0.22359705 0.24472183 -0.13198473 -0.22549106 -0.12385251
0.04126532 0.3320201 -0.38797364 0.26070496 -0.36369213 0.14929181 0.41856527 -0.43546188
0.1180074 -0.23985043 0.10336759 -0.42635125 0.39670604 0.18955596 -0.050544262 -0.18840986
0.00055994664 0.35354048 -0.08109922 -0.19286358 -0.10269506 -0.021672703 0.38678125 -0.28742272
-0.38215357 -0.30654743 0.23745854 -0.088118255 -0.13765381 -0.059016105 0.05280455 -0.26463208
0.18988426 -0.00023056418 -0.16058236 0.064990655 -0.4045442 -0.16437319 0.19480844 -0.24086256
0.34944326 0.31741413 0.36091295 -0.119452715 -0.3914257 0.28500825 -0.32915267 0.19650821

kline_transformer.layers.0.linear1.bias f4 [128]
00000000: ceb7 6cbd e357 1bbe 0fb4 423e d0b6 ff3d
00000010: 68d7 11be 37f4 d3be 7609 a0be 3d6e dd3e
00000020: 4f06 8ebe d9bc 88be e542 9b3e ab79 a6be
00000030: c1a6 9cbe 1077 92be 96bf 583e 1cd4 6b3e
00000040: dce6 28be 00b2 03be 8b49 8abd c97d 903e
00000050: 6cc5 1e3d 7719 863e 5235 2e3e a7db 13be
00000060: 0758 b13e ec4a 67be 38b7 47be 6f36 91bc
00000070: 5539 58bd 0d1c 6a3e 05f6 953e f1ed 3b3e
00000080: 84d1 a2be e711 9ebe 3f5b ddbe 9241 33be
00000090: 20b3 1a3e 5bb1 fcbd e794 633e 30d7 92bd
000000a0: fc67 a2bc ca39 dbbe 444b 763e 955b 21be
000000b0: 4314 8ebe 5f32 a73e cfbe d73d f802 c43e
000000c0: c8e0 d83e 41e3 90be d60b 2abe d867 0abc
000000d0: a935 2f3e 2cd8 fa3d 0a27 173d 37df 6c3e
000000e0: 334c 12be 5487 4fbd a94d aa3e 4887 c73e
000000f0: fea6 b03d 203e c7be 610b e1bd dedb 943e
00000100: 2a3b b7be 6ce3 c23e ba79 ba3e 8d8c 4d3d
00000110: 9ba0 b4be c3a1 95be 7e23 633e 44a8 983e
00000120: b4de dcbe c51e c9be 8f09 373e 1266 62be
00000130: 4571 593d 69bf 8a3e 3288 a73e da52 0bbd
00000140: 6519 1ebe 9361 17bb b6e8 223e 489b 6a3e
00000150: cd53 42bd c8e7 d03e e48f c33e 56be c3be
00000160: 650c 51be 9478 f3bd 109b 8abe 02f1 523e
00000170: 38c2 b1be bc4a 00be 1d11 85bc 71c3 d53e
00000180: c499 af3d bdb1 92be d948 df3e b802 f0bd
00000190: 74c1 0e3d 2ded aabe 8024 82be 2b2e a73e
000001a0: 3ee5 b53d 3a44 883e 3a06 813e b061 2f3e
000001b0: 5d98 c9bc 41c6 813d ac25 ce3e 117f 82be
000001c0: 050c dd3e 9cca 933d 9a8c 7abd 423b 693e
000001d0: fa24 c2be 80d3 a03e de51 94be a04f 8e3d
000001e0: 8fbf d43e 401c bebd 15eb 703e 4ac5 af3e
000001f0: e9ed e5bd f54f a1bd e888 95be a374 3f3e
-0.057792477 -0.15170245 0.19014 0.124860406 -0.14242327 -0.4139726 -0.31257218 0.43248168
-0.27739188 -0.2670658 0.30324474 -0.325147 -0.30595973 -0.28606462 0.21166834 0.23030132
-0.16494316 -0.1286087 -0.067523085 0.28220966 0.038762495 0.26191303 0.17012528 -0.1443926
0.34637472 -0.22587174 -0.19503486 -0.017726151 -0.05278905 0.22862263 0.2928926 0.18352486
-0.31800473 -0.30873033 -0.43233678 -0.17505482 0.15107393 -0.12338515 0.2222477 -0.0716995
-0.019824974 -0.42817527 0.24052149 -0.15757592 -0.27749833 0.32655618 0.10534441 0.38283515
0.42358994 -0.2829838 -0.16606078 -0.00844761 0.17110313 0.12248263 0.036902465 0.23132025
-0.1428688 -0.05066617 0.33262375 0.389704 0.08625601 -0.38914585 -0.109884985 0.29073995
-0.35787326 0.38064134 0.36420995 0.050182868 -0.35278782 -0.29224977 0.22181508 0.29815876
-0.4313866 -0.39281288 0.1787474 -0.22109249 0.053086538 0.2709916 0.32721096 -0.03401456
-0.15439375 -0.002309893 0.15909085 0.22910798 -0.0474432 0.40801835 0.38195717 -0.38231152
-0.20414884 -0.11888233 -0.27071428 0.2059975 -0.3471849 -0.12528509 -0.016243512 0.41750672
0.0857425 -0.2865123 0.43610266 -0.117192686 0.03485246 -0.33384076 -0.25418472 0.3265241
0.08881615 0.26614553 0.25200063 0.17127109 -0.024608785 0.06336642 0.40263116 -0.2548757
0.43173233 0.07216379 -0.061169244 0.22776511 -0.37918836 0.31411362 -0.2896871 0.06948781
0.41552398 -0.09282732 0.23527177 0.34330207 -0.112270184 -0.07876579 -0.29206014 0.18696837

kline_transformer.layers.0.linear2.weight f4 [5, 128]
00000000: 6038 e23d 99d5 b83b c85b afbd a92f 293d
00000010: ce5b 51bc 1203 023d bd7a d63d 1618 06bd
00000020: 28c0 2d3b 039a 823d 3b02 a83d 5892 58bd
00000030: 9d07 523c 9c8a f4bc f3df 953c 0998 b13c
00000040: a8e5 aa3d 94c2 3d3d d64c 183d b13c e8bc
00000050: d12b b3bd 2c4d 75bc 6069 92bc e337 283d
00000060: 0803 2bbd 663a 573c fe2f bf3d a923 78bd
00000070: 8293 a2bc d932 1b3c 9672 2f3d b127 86bd
00000080: afd0 3a3a c765 c33d aeaf 243d abd0 46bd
00000090: 4a1a de3b 0970 e3bc d93d 2c3d daf1 a63d
000000a0: 2c9a 39bd f12a 15bd ad87 5dbd de9f 403d
000000b0: dd0b 89bc 4940 13bd fdad 74bd acf5 43bd
000000c0: 7a23 883c fccb fcba da02 54bd 0a86 af3d
000000d0: 913d 463d 4dd9 243d 7ca2 903d 5348 ab3d
000000e0: 5cd4 b23c da10 7a3d 5cb1 6b3d d975 bc3d
000000f0: 4dbb c7bc fcbf 27bd a2d6 1dbd 188b 39bd
00000100: 4121 7abd bcdb 8f3d 1692 873d 8bed 873d
00000110: ffdb 71bb cfd1 1ebd 8484 ea3c 19bf 973d
00000120: d53c 60bd 516e 263d 2818 5fbc 54be 4cbd
00000130: 980d 6dbc 3975 95bd 957e 8bbb 016c 9abd
00000140: 6e26 a7bb 4505 aa3d decd 943d 3dc3 5c3b
00000150: 2657 b3bd 3506 803d 4dd3 9e3d 9d92 a83d
00000160: f402 73bd fc52 5e3c c2ee ad3d c1c3 8d3d
00000170: a814 82bd feee 4a3d 8f00 69bc 0825 09bd
00000180: 59f9 193c d998 91bd a080 9e3d 2353 21bc
00000190: a5d2 6c38 9162 c53d 8b8f 9c3d 9134 403d
000001a0: 0051 7fbd b9fc 9c3d b5e9 883c 55db 743c
000001b0: 3ee0 04bd 6aaa cfbc 6283 b03c 998b 13bd
000001c0: 2637 bd3d 34b6 cd3c 742a f03c eb47 3c3d
000001d0: 9fc6 483d 5b23 4ebd 0025 333d d65f 843d
000001e0: 1c4b bc3c 771c 833d 7ddd 24bc 6457 88bd
000001f0: 6154 98bc 73ce 9bbc 8ade 083d 40b1 11bd
00000200: 42dc 9e3d f383 34bd 5bcd 2f3d 64b2 8ebd
00000210: 93c1 a3bc b266 c03d e771 863d 35c5 873d
00000220: a1ce 3abd cbae 283c 0b1f 8d3d c545 98bd
00000230: 57dc f0bb f4fb 023d a1cc 213d 5904 633d
00000240: a866 84bd 2f25 9a3d d45c 8bbd 08ce ba3c
00000250: c53d b3ba b7c0 74bd 9a54 a3bd 2520 113d
00000260: 2f2e 193d d8da 26bc b8b3 343d 0aeb 7d3c
00000270: 5add e9bc 0e08 473d 8d5c 1a3c bf62 aebd
00000280: 5602 62bc e215 583d 489b c0bd 11c3 063d
00000290: f115 aa3d f406 793d 019f 8c3d e815 993d
000002a0: 211b 97bd 0e8a 383d c3ab dd39 bd9d 48bd
000002b0: 147d 1abd 6ebe 8e3c f045 303d 4921 96bd
000002c0: c37f 68bd eb66 54bd f4c1 6cbd 7087 a03d
000002d0: 6fc2 e83a 683c 6d3d 54c9 21bd ce0a 1bba
000002e0: e441 793d 2986 933c cd64 673d fbe8 dcbc
000002f0: fc11 a7bd c44e b33c 5edb 893d db20 10bd
00000300: 0820 3dbd 7986 b23d b9a0 88bd 61a6 983d
00000310: 9b09 953c 8a98 39bd 83a9 b33d c465 913d
00000320: 04b2 73bd 67f5 b63d 0204 8a3d bf21 0abd
00000330: e626 1a3c 48cb 6c3d c1c1 a3bd d39a 2dbd
00000340: 2b19 913b decc a13d 74ff 86bd 3382 de3c
00000350: cf38 8c3d 6861 acbd 1b42 e6bc 3bf3 d33c
00000360: 6db5 88bd daf8 adbb 26dc cc3c 941e 8f3d
00000370: c6d5 7dbc 0976 39bb dc34 dbbb 5935 1c3b
00000380: 7696 083d 3b63 733d 3733 04bb dff7 8fbc
00000390: 2cbb 92bd e20a c1bc 824f 9a3d ee15 4abd
000003a0: 40bf a43d 28cb 81bd 966d 1dbd a539 76bd
000003b0: 4c0e 72bd 94ee 4ebc c483 c8bc 7f45 5f3d
000003c0: 2761 a63d bb91 09bc 3680 98bc 2c58 3abd
000003d0: bab4 d6ba 1743 83bd 1fdc 81bd 6e39 0e3d
000003e0: b60f 203d 3114 14bc ff4e 8b3d 89d6 aa3d
000003f0: c709 323c d9e9 6d3d 86be e63c 1e02 8cbc
0.11045909 0.005640697 -0.08562428 0.041305218 -0.012778236 0.03174121 0.10472629 -0.032737814
0.002651224 0.06377032 0.082035504 -0.05287394 0.012819198 -0.02985125 0.018295264 0.021678941
0.08344585 0.046328142 0.03718265 -0.028349252 -0.08748592 -0.0149720125 -0.017872512 0.041068923
-0.041750938 0.013136482 0.09335326 -0.060580883 -0.019845728 0.009472572 0.042833887 -0.06550539
0.0007126433 0.09540897 0.040206604 -0.048538845 0.0067780362 -0.027763383 0.04205117 0.08151598
-0.045313045 -0.036417905 -0.05408447 0.04702746 -0.01672929 -0.03594998 -0.05973624 -0.047841713
0.016618479 -0.0019286866 -0.051760532 0.08570488 0.048398558 0.040246297 0.070622414 0.08363404
0.021829776 0.061051227 0.05754219 0.09202165 -0.024381304 -0.040954575 -0.038534768 -0.045298666
-0.06106687 0.07024333 0.066196606 0.066371046 -0.003690481 -0.038774308 0.028627641 0.07409496
-0.054745514 0.04063255 -0.013616599 -0.0499862 -0.014468573 -0.07297749 -0.004257033 -0.07540131
-0.0051010167 0.08301786 0.072658285 0.0033685707 -0.087568566 0.06251184 0.07755146 0.08231089
-0.05932899 0.01356959 0.08492805 0.06922103 -0.06351596 0.049544327 -0.014221325 -0.03348258
0.009397828 -0.071092315 0.07739377 -0.0098464815 5.6462963e-05 0.09637941 0.07644566 0.04692513
-0.062333107 0.076653905 0.016713003 0.014944871 -0.032440417 -0.025349814 0.021547023 -0.036021803
0.09239034 0.025111295 0.029317118 0.045967024 0.049017545 -0.050326686 0.043736458 0.06463592
0.022985034 0.064019136 -0.010062573 -0.066572934 -0.018594922 -0.019019341 0.033415355 -0.03556943
0.077568546 -0.04407115 0.04292045 -0.06967619 -0.019989764 0.093945876 0.06564694 0.06629411
-0.045607213 0.01029558 0.068906866 -0.074351825 -0.0073504853 0.031978562 0.03950179 0.055424068
-0.064648926 0.075266235 -0.06804815 0.022803321 -0.0013675025 -0.0597541 -0.07975121 0.035431046
0.03739756 -0.010184012 0.044116706 0.015497932 -0.028547931 0.048591666 0.00942148 -0.08514928
-0.013794502 0.052755244 -0.094046175 0.032900874 0.08304966 0.060797647 0.06866265 0.074748814
-0.07378221 0.045053534 0.00042280377 -0.048978556 -0.03771694 0.017424788 0.043035448 -0.073305674
-0.056762468 -0.051855963 -0.057802156 0.07838333 0.0017758141 0.057918936 -0.039498642 -0.0005914391
0.060853854 0.018008308 0.056492615 -0.026966562 -0.08157727 0.021888144 0.06731294 -0.035187583
-0.046173126 0.08717055 -0.066712804 0.07453609 0.018193057 -0.04531149 0.08772566 0.070994884
-0.05949594 0.089335255 0.06739046 -0.03372359 0.009408688 0.05781105 -0.0799594 -0.04238398
0.004428049 0.079004034 -0.065916926 0.027161693 0.06846773 -0.08417016 -0.028107693 0.025872817
-0.06675229 -0.0053092064 0.025007319 0.06988254 -0.015492862 -0.0028299114 -0.006689651 0.0023835509
0.033346616 0.059420805 -0.0020172128 -0.017574249 -0.071646065 -0.02356476 0.07534696 -0.04933732
0.080442905 -0.06337577 -0.038434587 -0.060113568 -0.059095666 -0.012630124 -0.024476893 0.054509636
0.08123999 -0.008396561 -0.018615823 -0.045494244 -0.0016380765 -0.06409281 -0.06340813 0.034722738
0.039077483 -0.009038017 0.06802177 0.083417006 0.010866589 0.058084343 0.02816702 -0.017090853

kline_transformer.layers.0.linear2.bias f4 [5]
00000000: d487 7ebb c841 143d 5a28 5c3d 8f8b afbd
00000010: 88d2 7c3c
-0.0038838284 0.036195546 0.05374942 -0.085715406 0.015431054

kline_transformer.layers.0.norm1.weight f4 [5]
00000000: dac8 793f 37b7 7e3f 97e7 813f ab5d 7f3f
00000010: bcfb 803f
0.975721 0.99498314 1.0148801 0.997523 1.0076823

kline_transformer.layers.0.norm1.bias f4 [5]
00000000: 6d4a 4e3b ba9d 0f39 ad9c c7ba d883 0cb9
00000010: 0eff e8bb
0.0031477467 0.000136963 -0.0015229188 -0.00013400556 -0.007110483

kline_transformer.layers.0.norm2.weight f4 [5]
00000000: a0b4 7e3f 8260 7d3f 25b7 823f d608 7e3f
00000010: d7d5 803f
0.9949436 0.98975384 1.0212141 0.9923223 1.0065259

kline_transformer.layers.0.norm2.bias f4 [5]
00000000: 9ca0 273b 4625 4aba 66ed 4fba a8a0 d0b8
00000010: 00da 9eba
0.0025577908 -0.00077112427 -0.00079317985 -9.9481374e-05 -0.0012119412

kline_transformer.layers.1.self_attn.in_proj_weight f4 [15, 5]
00000000: cbb7 d33e 6c6a 06bd 8f79 a53e cfbd f63e
00000010: 4681 8cbe 059a 01bf e5a6 cabe 7462 69be
00000020: 4fcd adbe 9b41 e2be 11ba 043f 38c8 713e
00000030: 347b 523e 9683 ca3c 5465 03bf 36c9 55be
00000040: e644 e03e fe3d 7cbe 3e66 a33e 233a 023d
00000050: 7696 ae3e 83bd f7be 0057 713e d30c 01be
00000060: 7ccd cb3e 6b76 b8bd 0a7b 973c 7c2a 913e
00000070: 2fd3 c73d 8d71 cfbe bf26 f0be 4b15 22be
00000080: 57b5 86bd b447 0a3f 3fa1 f4be b3b0 62bd
00000090: bae0 f3bd a4db 18bd 2609 933e 4ad5 f13c
000000a0: c109 3c3e 400e eabe fca8 d2bc 64e6 343e
000000b0: 5eda dc3e f8bd c5be 0c92 80be cfd4 8d3e
000000c0: bd9b 433d 7ec9 3c3e b577 c33e 9e03 c83e
000000d0: f003 5bbd 8a65 cebe a1a9 953e bc4c 05bf
000000e0: c1b5 78be 23c5 94be 42ee 02bf acff 283e
000000f0: 4ad9 2e3e 1ca4 a8be 6ebe 50be 7883 d03e
00000100: fa03 a2bd 2b76 03bf b7e4 893e 94ef bf3d
00000110: 526e 40bd 29cd 2f3e bca6 7f3e 9204 c7be
00000120: 3e5c 013d 891a c5be be6d 07bf
0.4135116 -0.032816336 0.32319304 0.48191687 -0.27442378 -0.5062564 -0.39580455 -0.22791463
-0.339457 -0.44190678 0.51846415 0.23611534 0.20554811 0.024720948 -0.5132649 -0.20877537
0.43802565 -0.24633023 0.31913942 0.031793725 0.34099168 -0.48386773 0.23568344 -0.12602548
0.3980521 -0.090069614 0.018491287 0.28352726 0.09757077 -0.4051632 -0.4690456 -0.15828435
-0.065775566 0.5401566 -0.4777927 -0.055344295 -0.119080976 -0.03731884 0.28717917 0.02952065
0.18363096 -0.45713997 -0.025715344 0.17666012 0.4313535 -0.38621497 -0.25111425 0.27701423
0.047755945 0.18436238 0.38177267 0.3906526 -0.053470552 -0.40311843 0.2923098 -0.5207021
-0.24288084 -0.29056653 -0.511448 0.16503781 0.17075077 -0.32937706 -0.20385143 0.40725303
-0.07910915 -0.51352185 0.26932308 0.09371868 -0.04698021 0.17168106 0.24965948 -0.38870674
0.03158211 -0.38496807 -0.5290183

kline_transformer.layers.1.self_attn.in_proj_bias f4 [15]
00000000: 1d46 19b9 c7fb 6bb9 2d17 b23a 8155 293a
00000010: 4690 4a39 381c 9d36 c1d4 0236 c44f e536
00000020: 16b6 0ab7 6b78 6a37 bca5 c4ba f726 a339
00000030: b6c1 81ba d04e 2fba 0332 af39
-0.00014617336 -0.00022505141 0.0013587229 0.00064595795 0.00019317967 4.6822497e-06 1.9495349e-06 6.8340178e-06
-8.267836e-06 1.3975524e-05 -0.0015003006 0.00031118814 -0.0009899649 -0.0006687464 0.00033415863

kline_transformer.layers.1.self_attn.out_proj.weight f4 [5, 5]
00000000: 459f 78be a05b 6a3d 80f5 3d3d 5523 9cbe
00000010: 71b7 8c3e 59e0 cc3e c321 b13e 00bd c9be
00000020: 8af9 debd e38c 1b3d 7ed9 9e3d 1104 9cbe
00000030: 0567 2f3d c304 9b3e 1809 83be 3489 2dbe
00000040: 8796 0bbe 59b0 7d3e 0bef d4bd 6f73 503e
00000050: bfe5 113e 2840 4fbe da1c 9fbe 9a16 cabd
00000060: c7dc 633e
-0.24279507 0.057216287 0.046376705 -0.30495706 0.27483705 0.40014914 0.3459607 -0.39402008
-0.108874395 0.037976157 0.07756327 -0.30471852 0.042822856 0.3027707 -0.25592875 -0.1694687
-0.1363164 0.24774303 -0.10397156 0.20356534 0.14247797 -0.20239317 -0.310767 -0.09867592
0.22252189

kline_transformer.layers.1.self_attn.out_proj.bias f4 [5]
00000000: c00e ad3a f2bd 4aba c424 20ba efa2 76ba
00000010: 9ae8 29b9
0.0013203248 -0.00077339925 -0.0006108994 -0.0009408434 -0.00016203747

kline_transformer.layers.1.linear1.weight f4 [128, 5]
00000000: 706e b6be ffed 72be b2f7 733c 8cc5 debe
00000010: 0e7e 92be 12b8 a23e fa01 89be 108b fe3d
00000020: 69bd 91be 2d4c b0be 3c00 3dbe 07e8 0bbe
00000030: 668c 6c3e bffe aa3e a88c 353e fa34 bdbd
00000040: 82c9 acbe 9360 a3be 77b1 bebd dcc3 13be
00000050: 347b 383e f191 d3bd c3bf c83e a840 60be
00000060: f281 92bd 98b8 e33e 6a36 d3be 7a45 c3be
00000070: a10f 913e 68e0 083e 04ac d1be 8b1b 883e
00000080: b15f ad3e 1c0a 363d 779b 8f3e e0f7 2abe
00000090: dfd4 923c 3ec2 0f3e ff07 2fbe 6df7 723e
000000a0: 9386 f2bd 3434 b93e 12a3 d6be d2fe a43e
000000b0: dc3b d5be fd0b 6a3e 241e df3e 0c2a 99be
000000c0: bd28 d9be 5a4b 383d f77b 7ebe caac 55be
000000d0: ff06 c5be 79c0 093e 799d 813e 5ffe d43e
000000e0: 9c5e 75be c1b6 33be ce2a a23d 2f4c bcbc
000000f0: c351 603e 2755 c73e c960 39be 7175 adbe
00000100: 22a9 69be 83eb 593e c80c bbbe ed6e 3dbe
00000110: 8f4b c63d 1f00 c5be 3651 a6be d8b0 c0be
00000120: 1bb4 e43e 4c98 263e 9ad1 613e 564e e9be
00000130: 779b 82be 1dd7 2f3e 3d9f 243d f64e 2fbc
00000140: 3d73 e1be 3c84 e5be e225 c9be 6ef8 1a3e
00000150: a9d2 f93c fa39 5c3d e541 853e 8c55 e9be
00000160: 5bee 10be 7ee5 b3be 2092 ad3d 71ca 2bbe
00000170: 1a11 883e 520b 683e 72c8 123e 8bad c13d
00000180: 0a23 c33d d9b4 87bc 38a5 8c3e b987 47bd
00000190: ee77 5b3c fc67 a6bd 95a6 48bc d299 833e
000001a0: 26b9 983d 53aa f93c 39f6 babd cef0 c1be
000001b0: 3103 1bbe deb9 303e 97aa 8cbe 50f2 c3be
000001c0: 0024 e1bd 75d0 533e 95d0 333e 1f77 bcbe
000001d0: 57f6 a93e 70c2 97bc f274 833e 817c 71be
000001e0: 5eb1 88be fa2b cfbe 2a1f e4bd a8a2 70be
000001f0: ee58 96be 34dc 01be a06d 963e 9df4 5e3d
00000200: 7304 803e f5b0 433d 872f bcbe 3165 a73d
00000210: a6bb da3b e4aa 97be 53eb 5fbe 3dde 983e
00000220: eaf8 683e 51fc 99be 5c80 e7be 3e10 25bd
00000230: 0acf 9f3c 4a63 dcbe 90fa 9d3b d2f3 bc3e
00000240: 17df 8e3e 3607 81be 00fd 1e3e 65ec 34be
00000250: ac6b 5ebe 1616 963e 7d7b b2bd 0ba8 473e
00000260: f26a 31be d207 b93e d069 9dbe 94b5 43be
00000270: 3fa9 c03e fe3b a93e eae2 323e 78e8 743e
00000280: 17b4 803e d339 a53e c71a 823e 4ffe dfbe
00000290: 8364 dcbe 2d20 bc3e 2b1f ef3d 59d3 a13e
000002a0: 675e 643d 8084 55be 3320 bbbd 5a99 0b3d
000002b0: 9865 d13d f134 ccbe 11db f03d f39a 683e
000002c0: 7ace 47be c0dc cdbe 6cf1 933d b675 8fbd
000002d0: 803f 4c3e 3fa7 b93c 997d 963e 7e81 133e
000002e0: 2498 25be e0a4 c5bd a57d 003d 5ba0 01bd
000002f0: 2d67 c5be c097 863e 1467 cebe 21a5 623d
00000300: fb75 88be 9b1a 31be ec57 b03e a161 87be
00000310: fa9a 93be 62b4 ae3e ca57 a23e 7c75 c13e
00000320: ed1c f23d af26 0b3e 904a d7be e8d6 65be
00000330: e2df 783e ee71 e5bd b12f 65be 29a0 efbd
00000340: 0f5b 1e3d 589d a93e 2e53 bfbe 35a4 853e
00000350: 103e b5be 8ba4 193e 482b d63e c13b dbbe
00000360: 83ba ae3d 36f4 76be a9b8 d93d 9ce3 d9be
00000370: bd2d c93e e704 4a3e a63b afbc 85ab 2cbe
00000380: 967a 90bc e416 bf3e 99c0 a8bd cb94 36be
00000390: c7c9 c7bd 1c7e fdbc 14c6 ca3e ef9b 8fbe
000003a0: ab7b c5be e545 9dbe bbf1 713e 3f21 b4bd
000003b0: 5f4a 0ebe 1225 80bd 7310 4c3d 0594 83be
000003c0: 5d6a 473e 46cf 7ebc 3f5d 18be 0f39 913d
000003d0: 9efd d3be 910b 3abe 7c1a 463e 18b6 79be
000003e0: 0870 ae3e 8ac7 a23e 4a5b bb3e dec6 0abe
000003f0: a77b c7be cf47 933e bead a8be b3c0 4e3e
-0.35631132 -0.23723601 0.014890598 -0.4351009 -0.28611797 0.3178106 -0.2675932 0.12428868
-0.2846482 -0.34433118 -0.1845712 -0.1366273 0.23100433 0.3339748 0.17729437 -0.0923862
-0.33747488 -0.31909618 -0.093111925 -0.14430183 0.18015748 -0.103305705 0.39208803 -0.21899664
-0.07153691 0.4447677 -0.41252452 -0.38138944 0.28332236 0.13366854 -0.4095155 0.26583514
0.3386207 0.044443235 0.28048298 -0.1669612 0.01792377 0.14038941 -0.17092894 0.23727198
-0.11842074 0.3617264 -0.41921288 0.32225662 -0.41647232 0.22856136 0.43577683 -0.29914892
-0.42413893 0.044993736 -0.24851976 -0.20866695 -0.384819 0.13452329 0.25315455 0.4160032
-0.23961872 -0.17550184 0.079183206 -0.022985546 0.2190619 0.38932154 -0.18103327 -0.33878663
-0.22818425 0.21281247 -0.3653319 -0.18499346 0.096823804 -0.38476655 -0.32483834 -0.3763492
0.4466866 0.16269034 0.22052613 -0.45567578 -0.25509235 0.17171903 0.040190924 -0.010699978
-0.44033232 -0.4482745 -0.39286715 0.15133831 0.030495958 0.05376623 0.26026836 -0.4557308
-0.14153425 -0.35136026 0.08475137 -0.16776444 0.26575547 0.22660568 0.14334276 0.09456929
0.095281675 -0.016565727 0.27469802 -0.04871342 0.013395293 -0.08125302 -0.0122467475 0.25703293
0.07457189 0.030476725 -0.091289945 -0.37879032 -0.15137936 0.17258403 -0.274739 -0.38270807
-0.109931946 0.20684989 0.17560036 -0.36809632 0.33195755 -0.018525332 0.2567516 -0.2358265
-0.2669782 -0.4046324 -0.111387566 -0.23499548 -0.29364723 -0.12681657 0.29380512 0.0544325
0.25003394 0.04777618 -0.3675501 0.081735976 0.0066752015 -0.29622567 -0.21867113 0.29857054
0.22751203 -0.30075315 -0.45215118 -0.040298693 0.019507904 -0.43044502 0.004821129 0.3690477
0.2790458 -0.25200814 0.155262 -0.17668302 -0.21720761 0.29313725 -0.0871496 0.19497697
-0.17325953 0.3613878 -0.3074479 -0.19112235 0.37629125 0.33053583 0.17469373 0.23916805
0.25137398 0.3227068 0.25411054 -0.4374871 -0.43045434 0.36743298 0.11675867 0.31606558
0.05575409 -0.20851326 -0.09137001 0.034081794 0.102244556 -0.3988414 0.117605336 0.22715358
-0.19512358 -0.4020748 0.07223782 -0.070048735 0.19946098 0.022662757 0.29392698 0.14404866
-0.16171318 -0.09650588 0.031369824 -0.031647068 -0.3855528 0.2628765 -0.40313017 0.05533326
-0.26652512 -0.17295305 0.3444208 -0.26441672 -0.28829175 0.34121996 0.31707603 0.37784946
0.118219234 0.13588975 -0.42049074 -0.22445261 0.24304155 -0.11203371 -0.22381474 -0.1170047
0.03866106 0.33127856 -0.3736815 0.26101843 -0.35398912 0.15004174 0.41829896 -0.42819026
0.08531668 -0.24116597 0.10630924 -0.42556465 0.39292708 0.19728433 -0.021390747 -0.16862305
-0.017636579 0.37322152 -0.0823986 -0.17830198 -0.09755283 -0.030943923 0.39604247 -0.28048655
-0.38570914 -0.30717388 0.23627369 -0.08795404 -0.13895558 -0.062570706 0.049820375 -0.25698867
0.19474168 -0.0155523475 -0.1487932 0.07090961 -0.41404432 -0.18168475 0.1934604 -0.2438587
0.34069848 0.3179286 0.36593086 -0.13552424 -0.38961527 0.28765723 -0.32945055 0.20190696

kline_transformer.layers.1.linear1.bias f4 [128]
00000000: 5709 66bd b846 09be b17d 423e 33f6 033e
00000010: 7a9a 11be ddbc d3be da45 9fbe 52f5 db3e
00000020: 5f71 8fbe 79f6 84be 4f8b 9e3e 9126 acbe
00000030: 17a6 98be 70d6 93be 6ff6 5a3e 3bfd 673e
00000040: 0698 28be 8854 f4bd dcca 8abd 9e8d 903e
00000050: 57a5 1b3d 940c 853e 71ed 313e fddd 0dbe
00000060: 2909 b13e 9bce 59be acda 47be 9262 7dbc
00000070: 8693 44bd d9d9 5d3e 41c8 963e e7fb 373e
00000080: 3450 a3be 4424 9fbe b0f6 d2be f7b1 30be
00000090: 91b7 173e 2118 fcbd fab7 623e f8eb 97bd
000000a0: 928f b1bc 1462 dbbe eb91 763e 71ee 20be
000000b0: 57b9 8fbe a298 a63e d345 e03d d70e c43e
000000c0: bd83 dc3e 2148 91be d8f8 28be bb51 e9bb
000000d0: a3f4 2f3e 000e e83d bd14 c93c 34be 683e
000000e0: 6526 0ebe 65fd 40bd ff20 ae3e 0b6c c23e
000000f0: 6d1e b53d 2968 c6be a28c d1bd f9bb 953e
00000100: 80c9 b7be b532 c23e d9de b93e 4ee3 3e3d
00000110: e616 b3be 42c9 9dbe 0ef5 673e c812 993e
00000120: ab9a dbbe fbac c7be 8f5b 3a3e a606 56be
00000130: dac9 463d 8916 8c3e 4ca7 a63e e99d 1dbd
00000140: f814 17be 1c77 bc3a a107 283e 23a6 6c3e
00000150: 1957 4fbd 5c0c d13e fe1e c23e a441 c6be
00000160: 5f5f 48be ba0f fabd e734 87be c021 583e
00000170: f4d6 adbe 1f25 f9bd 76ed 71bc b1f5 d73e
00000180: 994d ba3d 6b6b 94be da5c df3e 97f7 eebd
00000190: 8ea1 0f3d 76ab a6be d618 83be beaf a73e
000001a0: 88b2 ad3d 3fc2 8e3e 4a4c 7e3e 31de 2e3e
000001b0: 8137 b8bc d92e 7e3d 45b0 cd3e c542 83be
000001c0: 4aed da3e 0920 923d 4fd9 6bbd fc3a 783e
000001d0: f67f c8be 945a a13e 9b8b 93be 33e1 8e3d
000001e0: e7a3 d53e e54a c7bd 733c 733e d63d af3e
000001f0: 57bc e1bd dff4 a4bd b046 98be 8d2a 403e
-0.05616125 -0.13405883 0.1899326 0.12886886 -0.14219084 -0.4135503 -0.3110798 0.42960602
-0.28016183 -0.25969294 0.3096566 -0.33623174 -0.29814216 -0.2887454 0.2138307 0.22655194
-0.16464242 -0.119301856 -0.067769736 0.28233045 0.037999477 0.2598616 0.17375733 -0.13854213
0.345773 -0.2127022 -0.1951701 -0.0154653955 -0.04799225 0.21665134 0.29449657 0.17967187
-0.31897128 -0.31082356 -0.41203833 -0.17255388 0.14816119 -0.1230929 0.22140494 -0.07418054
-0.021674905 -0.42848265 0.24079101 -0.15715958 -0.2807109 0.32538325 0.10950818 0.38292572
0.43069258 -0.28375342 -0.16501176 -0.0071203387 0.17183165 0.11330795 0.024546022 0.22728807
-0.13881834 -0.047116656 0.3400955 0.37973055 0.08843694 -0.38751343 -0.10231902 0.29244974
-0.3589592 0.3792931 0.36302832 0.046603493 -0.34978408 -0.3081761 0.22652075 0.2989714
-0.4289144 -0.3899916 0.1819899 -0.20900974 0.048532344 0.27360943 0.32549512 -0.038480673
-0.14754093 0.0014378759 0.1640916 0.23110251 -0.050620172 0.40829742 0.3791427 -0.38721955
-0.19567631 -0.12210031 -0.2640755 0.21106625 -0.3395306 -0.121652834 -0.014766088 0.42179635
0.09096832 -0.28988203 0.43625528 -0.11668318 0.03506618 -0.3255269 -0.25604886 0.32751268
0.08481318 0.27882573 0.2483379 0.17076947 -0.022487404 0.062056396 0.40173545 -0.2563688
0.42759162 0.071350165 -0.05758029 0.24241251 -0.39160126 0.31514418 -0.28817448 0.06976547
0.4172661 -0.09731082 0.23753528 0.34226865 -0.11022251 -0.08054518 -0.2974143 0.18766232

kline_transformer.layers.1.linear2.weight f4 [5, 128]
00000000: a920 c53d 7190 073c 9273 a7bd b506 3a3d
00000010: dc22 78bc ecd0 343d be72 db3d d89b febc
00000020: 7e05 a1bb 6bc5 503d 51b1 af3d f4cd 35bd
00000030: 0206 893c 8be5 ecbc ccd7 9e3c 88b3 bf3c
00000040: 0d55 b43d 6687 383d e3ce 223d cf2e edbc
00000050: ac45 a7bd 4316 72bc 74f2 48bc 814a 223d
00000060: 4d99 31bd e6ba 883c 1098 cf3d 9a34 94bd
00000070: d92d 7bbc 8ac3 ff3b 7664 1d3d 5125 92bd
00000080: 7cc4 22bb f3e3 b83d 13db 113d 7f30 09bd
00000090: 8044 1d3b 0dfc edbc 7ff9 303d c711 b93d
000000a0: fa1f 36bd cc14 0fbd fc32 56bd c512 413d
000000b0: 8c45 98bc bc2c 0abd 643b 68bd c5a1 45bd
000000c0: f16c 433c 93f6 e03a da4b 5cbd b2c0 ab3d
000000d0: d357 343d 9ad6 113d bf00 553d 185a 9b3d
000000e0: 4a19 7e3c 6fcc 7b3d 087d 713d cb1c b03d
000000f0: 1f4d debc 4bdb 1cbd b989 38bd 9bb7 3dbd
00000100: ea54 79bd 0a7f 8f3d 2362 853d 3e16 8a3d
00000110: fc7b 87bb e9b0 31bd 4c85 f03c 7893 8f3d
00000120: 6c2b 78bd 1c52 723c f1c5 31bc 50f4 5dbd
00000130: 57ed 9ebc 571f a0bd 92bb 20bc 6776 a2bd
00000140: 3b56 d53b 24ec a23d 364b 963d a15c 963b
00000150: d1c5 b0bd 85b8 7c3d 0ff9 9f3d 81ab 953d
00000160: 69ad 8bbd 4f48 393c 0bab 983d 7cac 8a3d
00000170: bd31 82bd 61dc 4b3d 92e6 a3bc 052a 1cbd
00000180: d519 463c 5574 94bd a8fd 9b3d 2b80 d3bb
00000190: b1bc a9ba cd8a d53d 0462 ad3d c719 2c3d
000001a0: 9a9b 66bd 3d85 993d 1463 953c 7f11 703c
000001b0: ae55 11bd d174 efbc b1d0 963c 7ebc ffbc
000001c0: 9a5a b73d e464 d23c 33ee 043d b660 433d
000001d0: 7a9d 083d a061 4bbd a72f 283d 6f3b 843d
000001e0: 79c3 bd3c 0d49 763d 2d9e 80bc f6d9 85bd
000001f0: 8344 abbc 3a36 98bc fd02 3b3d 403e 19bd
00000200: e949 a83d 4ebc 42bd 0be7 1e3d 6068 92bd
00000210: c929 aabc ba06 ba3d 654d 813d 414e 813d
00000220: 2322 38bd 8cf9 673c e4ce 883d a9dc a7bd
00000230: e5e6 0bbc 2999 ed3c 8fa0 213d 4db6 563d
00000240: efcf 87bd f026 993d ff7a 8abd 63cc af3c
00000250: d5bd e1bb ddcd 78bd a925 adbd d7dd 0f3d
00000260: c430 193d 01ce d5bb cdf1 513d 9c12 323c
00000270: f064 fbbc 034c 443d 6c55 203c 4b9b a6bd
00000280: 5847 44bc eb03 5f3d 832d c3bd 3dfb c23c
00000290: 6d8d ac3d d563 773d 449b 873d efaa 8d3d
000002a0: 4c09 9bbd a54e 2c3d 3c11 0bbb 3e4d 63bd
000002b0: e09c f1bc 7ba8 823c 507e 2c3d 4ce3 96bd
000002c0: 9e53 67bd d28b 61bd 9ddc 6cbd 2109 9d3d
000002d0: 0660 283b 5a16 5f3d bd6b babc 3c18 503b
000002e0: 9235 923d c63c 803c 4a94 6c3d 40d3 c9bc
000002f0: 1e26 aabd 7114 863c 4c37 973d 9559 1fbd
00000300: 815b 25bd f021 b03d 4447 87bd 87f3 913d
00000310: d82b 693c fb18 19bd 9379 b13d 6def 923d
00000320: 90e3 7abd 685d d53d 9f57 883d c65c 10bd
00000330: 3ed9 513c 77dd 6e3d 8427 9fbd 21e2 27bd
00000340: a622 26bb f516 a23d 2ec6 89bd 30ce d83c
00000350: 295d 863d e0ec aebd b662 02bd 59d7 c33c
00000360: 8577 96bd f7ee adbb 413e 1e3d faf7 8a3d
00000370: f700 92bc c3ce b9bb de24 92bb 2f48 f03a
00000380: 84c2 063d 6abc 673d a0e4 5cbb 5647 04bd
00000390: d53e 94bd 2574 cabc 7112 893d df99 4cbd
000003a0: 707d 993d ecb9 82bd b039 28bd f439 7bbd
000003b0: 82d1 75bd 0f9e 50bc f67f cebc 2f7c 433d
000003c0: be85 a43d e695 29bc 890f b6bc d1e8 41bd
000003d0: f809 363c c772 84bd 155f 80bd 1d6b 033d
000003e0: 6e72 233d a4fa 00bc 474d 903d 0d1d a73d
000003f0: bf30 283c 9414 633d 174f 013d 9626 90bc
0.0962537 0.008274184 -0.0817634 0.045416553 -0.01514503 0.044144556 0.10715245 -0.031080171
-0.004913985 0.050969522 0.08578742 -0.044385865 0.016726498 -0.028918048 0.01939001 0.023401037
0.08805285 0.045051 0.039748084 -0.028952984 -0.08167586 -0.014775815 -0.012264837 0.039621834
-0.04335909 0.016690683 0.101364255 -0.072365955 -0.015330755 0.0078052925 0.038425885 -0.07136024
-0.0024836352 0.09027853 0.035609316 -0.033493515 0.0023997128 -0.029050851 0.043206688 0.09036594
-0.04446409 -0.034931943 -0.052294716 0.04713704 -0.01858785 -0.03373407 -0.056697264 -0.04824998
0.011927829 0.0017163329 -0.053783275 0.08386363 0.04402907 0.03560505 0.052002665 0.075855434
0.015508959 0.06147426 0.05895713 0.08599242 -0.027136384 -0.03829507 -0.045053218 -0.046317678
-0.060871996 0.07006653 0.06512859 0.067425236 -0.004134653 -0.043381605 0.029360436 0.07010549
-0.060588285 0.014790084 -0.010850416 -0.054188073 -0.019400282 -0.078184776 -0.009810345 -0.0793274
0.0065105236 0.079551965 0.07338564 0.004588679 -0.086314805 0.06169941 0.07811176 0.073081024
-0.06820185 0.011308744 0.07454499 0.0677118 -0.06357143 0.049770717 -0.020007405 -0.03812601
0.01209112 -0.07248751 0.076167405 -0.006454488 -0.0012949911 0.10426865 0.084659606 0.04201677
-0.056300737 0.07496116 0.01823572 0.014652609 -0.0354821 -0.029230507 0.018410059 -0.03121781
0.08952828 0.025682874 0.032453727 0.047699653 0.033353306 -0.04965365 0.04106107 0.064566486
0.023164498 0.06012826 -0.015700424 -0.065357134 -0.020906692 -0.018580545 0.045657147 -0.03741288
0.08217222 -0.047542863 0.03879456 -0.07148814 -0.020771878 0.09083314 0.0631359 0.06313754
-0.04495443 0.014158618 0.06680086 -0.081963845 -0.008538936 0.029003697 0.03945976 0.05241995
-0.06631457 0.0747813 -0.06761741 0.021459764 -0.006889085 -0.0607432 -0.08454449 0.035123672
0.037400022 -0.0065248017 0.05125599 0.010868695 -0.03068778 0.047924053 0.009785991 -0.081350885
-0.0119799 0.054447096 -0.09530165 0.02380144 0.08425412 0.06039794 0.066214114 0.069173686
-0.075701326 0.04206719 -0.002121999 -0.055493586 -0.02949375 0.015949478 0.04211265 -0.07367572
-0.056476228 -0.055064984 -0.05782758 0.07667757 0.0025692 0.054464675 -0.022756452 0.0031752726
0.07139124 0.015653979 0.057758607 -0.024636865 -0.083080515 0.01636717 0.07383594 -0.03890379
-0.040370468 0.08600223 -0.0660539 0.07126527 0.014231645 -0.03737734 0.086657666 0.07174573
-0.061252177 0.104182065 0.066573374 -0.035244726 0.012808142 0.058316674 -0.07771209 -0.040987138
-0.0025350242 0.07914535 -0.06727253 0.026465505 0.06560738 -0.08541274 -0.03183242 0.023906397
-0.07347015 -0.005308028 0.03863359 0.06785579 -0.017822726 -0.0056704 -0.0044599613 0.0018332059
0.03290035 0.05657617 -0.0033705607 -0.032294594 -0.07238547 -0.024713585 0.066929705 -0.04995143
0.074946284 -0.06383118 -0.04107064 -0.061334565 -0.060014255 -0.012732997 -0.0252075 0.047725853
0.08033322 -0.01035068 -0.022224205 -0.04734117 0.011110775 -0.064672045 -0.062681355 0.032084573
0.03990405 -0.007872257 0.070459895 0.08159838 0.010265528 0.055439547 0.031569567 -0.017596524

kline_transformer.layers.1.linear2.bias f4 [5]
00000000: 8b09 93bb 2fbc 113d a488 5a3d 3b0e aebd
00000010: 527b 633c
-0.0044872216 0.035579856 0.053352967 -0.08498808 0.013884382

kline_transformer.layers.1.norm1.weight f4 [5]
00000000: e5cd 7f3f b910 7f3f 253f 823f f51d 7f3f
00000010: 907d 803f
0.99923545 0.9963489 1.017552 0.99655086 1.0038319

kline_transformer.layers.1.norm1.bias f4 [5]
00000000: a290 453b f3e5 43b9 5dd2 99ba ccbb 2339
00000010: 2428 2bba
0.0030146022 -0.00018682312 -0.0011735667 0.00015614851 -0.0006529114

kline_transformer.layers.1.norm2.weight f4 [5]
00000000: df0f 7f3f 1db1 7e3f 4656 813f a5be 7c3f
00000010: 6422 7d3f
0.9963359 0.99489003 1.0104454 0.987284 0.988806

kline_transformer.layers.1.norm2.bias f4 [5]
00000000: 4156 23ba ec69 ff39 2990 83b9 3969 9739
00000010: fc58 20b9
-0.00062308094 0.00048716308 -0.00025093675 0.0002887936 -0.00015291938

report_fc.weight f4 [128, 768]
00000000: 9772 793b 43c2 d13b f84f 3cbb fe5e 0d3c
00000010: 0ec1 e4bc f75d c83c 7593 a63c 7973 573c
00000020: bc2f 023b 4cde ddbc c2bf e4bb 7b0d 143d
00000030: ff44 c83c 4ba4 aa3b b71a dd3c 3b13 71bc
00000040: 5da8 223c 9b55 fcbb f438 25bc 5ecf febc
00000050: bdb4 103d a303 083d 3238 033d 730d e13c
00000060: ee00 bdbc 45de 53bb 4a9c 0d3b 1206 063d
00000070: b78b c43c f74c b3bc 12c2 02bd dada 97bc
00000080: c4aa f4bc 0edb 72bc 5aaf 4ebb 73c2 03ba
00000090: 1c1e 8e3b 5f3a 3d3b 86d1 823c d234 fdbc
000000a0: f72e 453c bbb5 ffbc 1933 75bc edf5 0c3d
000000b0: a4d6 e7bb a32a d83c 6d52 e83b f4af 09bd
000000c0: ba30 013d 741e 01bd 7cdd b03c fedb 6d3c
000000d0: 5a02 3bba da4d 1a39 a135 ddbc b0c4 84bb
000000e0: 9f4d 173d 16ea 9abc 0620 92bc 0885 e4bc
000000f0: 488d 133b 1f85 e3bc 2ab1 153d d319 023d
00000100: 8f57 20bc 45ec e3bb a803 fdbc b0ff 52bc
00000110: a4cc a1bc 87b2 163c b255 8dbc 9c8e 0abc
00000120: 1e99 063d 5262 babc 0b3e c9bc 5407 eabc
00000130: 7c91 93bb f331 0f3d 09b5 9cbc 1da6 05bd
00000140: e0f6 0e3d a33c d1bb 4bd3 af3c 0615 c93b
00000150: 1a9c 05bd f8ff a03b bd86 7d3b 6a1e fd3c
00000160: 023a b1bc f176 dcbb 9669 8dbc d1d6 0ebd
00000170: 1f2a b1bc 1495 233d a0c3 973c 45bb 4cbb
00000180: fe81 c73c 61de 6bbc c271 8fbc 93ee d73b
00000190: 1826 0e3d 9a0e f93b 9c0f a13c 3ec4 db3c
000001a0: 31c5 d33c a301 8f3c e8d6 a1bb 0252 013d
000001b0: 0e52 d8bc bad6 a5bb b647 17bd 2cf4 29bc
000001c0: 92a3 0e3d 274c c63c e2b5 bdbc c3e7 18bb
000001d0: 8b74 113d 6607 eabb 01e8 303b 3d1d 95bc
000001e0: 7d3a f9bc f6aa 53bc f55a 4dbc 82a4 b13c
000001f0: 4b8e a73c e504 b73c 873f d23c ad7f 753c
00000200: cbe6 e33b 2c76 d5bc 6c9d e638 455d 8f3b
00000210: be84 053d bc8e 253c 463f f73c cf8c bd3c
00000220: 60d3 9f3a d3e0 ec3c 8f99 373c 611c dabb
00000230: ade3 823c 2999 973a 9603 5c3c 3774 9ebc
00000240: 6faf 093d dfef 0c3d 15fa 49bc df1f df3b
00000250: c84e 2a3b 1710 d23b 7556 15bd f3c7 2bbc
00000260: 8412 49bc c810 943c 0efe 16bd e6db 0abd
00000270: 48b3 543c fb08 0b3d 4229 59bc f07f c3bc
00000280: 8fdd f33c 0648 dfbc 0ca9 cf3c 6409 193d
00000290: 4ea3 80bb b3d8 e03c 1e97 073d 3d42 dfbc
000002a0: 5ea1 51bc b7b3 863b 4cd2 c5bc 5903 643b
000002b0: d3d2 96bb e3a7 87bc cf82 b4ba e606 0a3d
000002c0: 9c2e ffbc 09b3 473c 27f5 c83c 5d16 b13c
000002d0: baad a7bc d0bc 68bc 4dc4 88bc a294 07bd
000002e0: 0284 903b 0660 e73c 4618 f83c da88 a73c
000002f0: d8d1 a9bc f6ac ebbc ef2e 90bc 1e32 863c
00000300: 953c 6d3c 9894 933c 02af dcbb e47c b4bc
00000310: e27f 683c a3e4 433c bb6d 65bc ddb8 0ebd
00000320: 74ce abbb 0561 c3bb 34a5 d23c cfed 993c
00000330: 5720 a43c 9e3a 09bd 6b24 eabc f372 113d
00000340: 6995 f13c bf22 993c 56e3 12bc 1dfb 02bc
00000350: 1699 fa3a 5264 d4bc e4d6 a9bc 42f9 b7bc
00000360: 34b0 b23c d6ed 06bd eebb c23c d1b7 48bb
00000370: 402d b8bb c1f5 723b 6af2 9d3c 4423 fa3c
00000380: b54a 1cbd 3029 bb3c a1ac ff3b 7631 c33c
00000390: 4d6c f13a cf44 d73c 7c02 e4bc 17ac af3c
000003a0: 7e42 4dbb c1aa 8abc 8ecc 11bc 22ff a5bb
000003b0: edf3 82bc a578 95bc 8919 53bc 80c3 ae3c
000003c0: 147a b63c acd6 cf3c 95b9 da3b 1ecf bbba
000003d0: 2e5d bbbc 4088 0ebd aa86 d13b 7fe4 ea3b
000003e0: 9a97 b5bc ce52 623b d18c e4bc a3a1 debb
000003f0: 843a 82bb d19c 5c3c 94dd e6ba 5301 283d
0.0038062686 0.0064013316 -0.0028734189 0.008628605 -0.027924087 0.024458868 0.020333985 0.013150089
0.0019864878 -0.027083538 -0.006980867 0.03614567 0.024446962 0.0052075735 0.026990278 -0.014714058
0.009927836 -0.0077006347 -0.010084379 -0.03110474 0.035328615 0.033206593 0.032036014 0.027472233
-0.023071732 -0.0032328528 0.0021608048 0.032720633 0.023992402 -0.021887286 -0.03192336 -0.018536974
-0.029866584 -0.0148227345 -0.0031537623 -0.00050262286 0.0043370854 0.0028873903 0.01596905 -0.030908976
0.012035123 -0.031214586 -0.014965796 0.03441422 -0.0070751477 0.026387518 0.007089904 -0.033615068
0.03154061 -0.031523183 0.021589987 0.014517782 -0.00071338343 0.00014715586 -0.027003111 -0.0040517673
0.03693926 -0.018910449 -0.017837536 -0.027895465 0.002251463 -0.027773438 0.03654591 0.03176291
-0.009786501 -0.0069556558 -0.030885532 -0.012878343 -0.0197509 0.009197838 -0.017252777 -0.008456852
0.032860868 -0.02275196 -0.024565717 -0.028567947 -0.004503427 0.034959745 -0.019129293 -0.03262912
0.034903407 -0.0063854023 0.021463057 0.0061365394 -0.032619573 0.0049133264 0.0038685047 0.030898292
-0.021634106 -0.006728046 -0.017262261 -0.034872834 -0.02162653 0.039937094 0.018525898 -0.003123955
0.024353977 -0.014396281 -0.017510299 0.0065897196 0.034704298 0.0076006176 0.019660763 0.026826974
0.025850864 0.017456835 -0.004938949 0.03157235 -0.026406314 -0.005060998 -0.036933623 -0.0103731565
0.03482396 0.024206234 -0.023158018 -0.00233315 0.035511535 -0.0071419952 0.0026993754 -0.018202418
-0.030423397 -0.012919178 -0.012533893 0.021684889 0.020453593 0.022341201 0.025665058 0.014984054
0.006955003 -0.026057325 0.00010996577 0.0043751323 0.032597296 0.010104831 0.030181538 0.023138432
0.0012193732 0.028915798 0.011206045 -0.006656215 0.015977705 0.0011566031 0.013428589 -0.019342525
0.033614572 0.034408446 -0.012327691 0.0068092193 0.0025986899 0.0064106095 -0.036459405 -0.010484683
-0.012272481 0.018074408 -0.03686338 -0.033901118 0.012982197 0.03394411 -0.013254466 -0.023864716
0.029768733 -0.027256023 0.025349163 0.03736247 -0.0039257174 0.02744708 0.0331031 -0.027253265
-0.012794821 0.004110779 -0.024148129 0.0034792034 -0.004602769 -0.016559547 -0.0013771894 0.033697985
-0.031150155 0.012188681 0.02453096 0.021617109 -0.020468581 -0.014205173 -0.016695166 -0.03310073
0.004410268 0.02824403 0.030285012 0.020450998 -0.020729944 -0.028768998 -0.017600505 0.01638132
0.014479776 0.018015191 -0.0067347297 -0.022032209 0.014190646 0.011956367 -0.014003213 -0.034844268
-0.005243117 -0.0059624934 0.02571354 0.018790154 0.020034952 -0.033503167 -0.028581819 0.035510015
0.02949019 0.018693326 -0.008965334 -0.00799444 0.001911911 -0.025926743 -0.02073235 -0.022457723
0.021812536 -0.03294166 0.023771252 -0.0030627141 -0.0056206286 0.003707275 0.019280631 0.030534394
-0.038157184 0.022846788 0.0078025614 0.023827296 0.0018419117 0.026277928 -0.027833216 0.021444364
-0.003132015 -0.016927125 -0.008898867 -0.0050658146 -0.015985454 -0.018246004 -0.012884506 0.021333456
0.022275008 0.025370918 0.006674955 -0.0014328694 -0.02287158 -0.034797907 0.006394227 0.007168352
-0.022167016 0.0034534219 -0.027899178 -0.006794171 -0.0039742608 0.013465122 -0.0017613643 0.041016888

report_fc.bias f4 [128]
00000000: 966e 73ba 4a69 2b39 8ca8 48bc 58f6 043d
00000010: 3516 d5bc d888 083d 06cc 99bb 63c5 f33c
00000020: 476d 56b9 0e64 31bc 5090 f03c 7540 f5bc
00000030: 6347 8e3c 867c 5a3c 3111 d13b 3f8a a9bc
00000040: fa09 9d3b 04fe 80bb 221c 89bc 7901 fe3c
00000050: 016c e6bc 241c 72bb 1670 423c 936d 4c3c
00000060: 1972 72bb 0e84 303c c2bf 73bc c681 3c3c
00000070: df45 a43c 1cdb c3ba 3950 60bc 40df 663c
00000080: 89e8 e53c 9508 063c 571d 09bd d561 13bd
00000090: 7090 9a3c c19b c93c 42b2 edbc 7801 3cbc
000000a0: 8c5a 61bc b878 d6bc a959 c5bc 1791 b3bc
000000b0: 562c 093d 2c36 44bc bb93 fbbc 9015 dbbc
000000c0: 9102 e8bc 069e e0bb a407 fa3b ee66 bfbb
000000d0: 266f 0fbd 25a9 03bd 5fed 42bc f75e 09bc
000000e0: cdca 43bb ab10 e7bc d4b9 dc3c aa1b dfbc
000000f0: 3895 773b 8bc6 413c 08fa b73c f4be e83c
00000100: a248 9d3c dee0 cdb9 2b5e 3dbc 4e5f bb3c
00000110: d562 003d 8591 843c 79d7 ecbc 379d 63bc
00000120: 77f4 0bbd f4a1 f2bb 6c45 b3bc ee2a 0a3d
00000130: 49f4 c23c 6901 91bc f1c5 8bb9 2547 d43c
00000140: 00e5 54bc 61eb 8e3c d46e 68bc 883b 30bc
00000150: 4cf1 8ebb 77d8 cb3b 3026 0a3d 0c7a e03c
00000160: dc82 ce3c 4848 933c 590a 70bc 6f38 a03c
00000170: 3dd0 eb3c 0e64 8abc 6276 c5bc fba9 babc
00000180: 1bed 683c 7232 223c 4f35 903b 6fb6 0abd
00000190: 703e f43b 8daf 343c d746 943c 9256 87bc
000001a0: d240 8bbc e9b1 f03c 3d91 2f3c 3ab0 ab3c
000001b0: 47d0 283c d0c6 bbbc 5ed1 a5bc cba8 a53c
000001c0: 9065 9c39 a7fc 533b aac7 cbbc 4e3f dd3a
000001d0: 3fb8 e03c f56e 6d3c d977 0e3d 4500 ef3c
000001e0: 9c30 ab3c 4392 0a3c aca4 443a 7bc8 93bc
000001f0: 0b52 69bc 5b24 4e3b 7008 bbbc dc38 dabc
-0.0009286193 0.00016347054 -0.012247216 0.032461494 -0.026011566 0.03333363 -0.004693511 0.029757207
-0.0002044934 -0.010827078 0.029365689 -0.029937962 0.017368024 0.013335353 0.006380223 -0.020695804
0.004792449 -0.003936531 -0.016737048 0.031006562 -0.028127672 -0.0036943043 0.011867544 0.012477296
-0.0036994277 0.010773672 -0.014877262 0.01150555 0.020052848 -0.0014942619 -0.013691002 0.014091313
0.028064983 0.008180757 -0.033475246 -0.03598197 0.018867701 0.024610402 -0.029015664 -0.01147496
-0.013754498 -0.02618061 -0.024090605 -0.02191977 0.033489548 -0.011975806 -0.030710092 -0.02674368
-0.028321536 -0.0068547754 0.0076303054 -0.0058411276 -0.03501811 -0.03214373 -0.011897414 -0.008384458
-0.0029875517 -0.02820619 0.026944079 -0.027234871 0.003777815 0.0118271215 0.022458091 0.028411366
0.019199673 -0.00039268186 -0.011558096 0.022872593 0.031344254 0.01618267 -0.02891134 -0.013892463
-0.034168687 -0.00740456 -0.021883689 0.033732347 0.023798125 -0.017700868 -0.00026659624 0.02591283
-0.012994051 0.017446222 -0.01418658 -0.010756381 -0.004362261 0.006220873 0.033727825 0.027401946
0.025208883 0.017978802 -0.014650905 0.01955816 0.02878582 -0.016893413 -0.0241043 -0.022786131
0.014216687 0.009899722 0.004400886 -0.03386539 0.007453732 0.011028183 0.018100185 -0.016520772
-0.016998682 0.02938171 0.01071578 0.020958055 0.010303563 -0.02292195 -0.020241436 0.020222088
0.0002983031 0.0032346637 -0.02487548 0.0016879828 0.027431605 0.014491786 0.034782264 0.029174933
0.020897202 0.008457723 0.00075013447 -0.018039932 -0.014240752 0.0031454775 -0.022831172 -0.02663844
