models/nvda_model.pth (torch, 416418 bytes, 27 tensors)

kline_transformer.layers.0.self_attn.in_proj_weight f4 [15, 5]
-0.1782431 -0.30907655 -0.005748473 0.5148176 -0.3556961 0.19994444 0.49876416 -0.48281038
0.29188395 0.07262308 0.026769334 0.23620233 -0.18538757 0.3767882 -0.02958398 0.30033568
-0.47585624 -0.14207661 0.34504914 -0.13262354 0.12469326 -0.048430152 -0.27098823 -0.13764682
0.19383979 -0.4859672 0.34323758 0.2264771 0.23779956 -0.40782064 -0.3731455 0.038732834
-0.42325762 0.40455684 0.24975301 -0.3444761 0.32125512 0.34008464 -0.015628332 -0.2878692
0.19412167 -0.038731515 0.1580619 0.52078384 -0.009457353 -0.20897526 -0.50953615 -0.09384256
0.44877595 -0.53695124 -0.22685008 0.11737905 0.04315854 0.20064537 0.04526022 -0.22544624
-0.0032752722 -0.22319315 -0.14737731 0.17820407 -0.1885067 -0.1304984 0.40042445 0.15753095
-0.5278996 -0.36191112 0.09457168 -0.062436745 0.4134548 -0.058069106 -0.25769356 0.0021427742
0.539253 0.16810548 -0.3613214
00000000: 5c85 36be 483f 9ebe b05d bcbb 16cb 033f
00000010: cd1d b6be 3cbe 4c3e 045e ff3e ec32 f7be
00000020: d071 953e 69bb 943d 5d4b db3c 06df 713e
00000030: 3dd6 3dbe 62ea c03e 1a5a f2bc 99c5 993e
00000040: 6ea3 f3be 887c 11be 48aa b03e 77ce 07be
00000050: 2e5f ff3d b25e 46bd f8be 8abe 4af3 0cbe
00000060: f07d 463e b1d0 f8be d6bc af3e 9de9 673e
00000070: ba81 733e decd d0be ed0c bfbe 52a6 1e3d
00000080: 39b5 d8be 1322 cf3e 41bf 7f3e 2c5f b0be
00000090: 8d7b a43e 931f ae3e fd06 80bc 9763 93be
000000a0: d5c7 463e f0a4 1ebd fbda 213e 1752 053f
000000b0: 03f3 1abc 9cfd 55be f670 02bf 8730 c0bd
000000c0: f6c5 e53e a375 09bf 634b 68be 6d64 f03d
000000d0: 02c7 303d fb75 4d3e c862 393d 61db 66be
000000e0: f3a5 56bb bf8c 64be 14ea 16be 217b 363e
000000f0: e607 41be 5fa1 05be 6f04 cd3e cb4f 213e
00000100: 6e24 07bf 6a4c b9be ccae c13d acbd 7fbd
00000110: 59b0 d33e dfd9 6dbd 69f0 83be c96d 0c3b
00000120: 7c0c 0a3f d823 2c3e 1eff b8be

kline_transformer.layers.0.self_attn.in_proj_bias f4 [15]
-0.011197314 0.011445946 -0.010899482 -0.011486221 -0.0086593125 -5.913348e-06 1.2474261e-06 3.3548733e-06
6.44804e-07 -5.8340476e-07 0.006541961 0.006610747 -0.002546129 -0.0007472428 -0.005827657
00000000: f074 37bc c787 3b3c be93 32bc b430 3cbc
00000010: cadf 0dbc 466b c6b6 3c6d a735 4924 6136
00000020: 9816 2d35 459b 1cb5 f25d d63b f79e d83b
00000030: f5dc 26bb 9ee2 43ba eef5 bebb

kline_transformer.layers.0.self_attn.out_proj.weight f4 [5, 5]
0.40241888 -0.051619932 0.38252532 0.2430508 -0.29990077 -0.257972 -0.17547375 0.31030372
-0.40033033 0.35348803 0.24927965 0.28537247 -0.18546948 -0.17541347 -0.3825371 -0.4275987
-0.31666598 0.1013366 0.20614542 0.04090745 0.17738381 0.25686067 -0.07778315 0.20740691
-0.11418323
00000000: d909 ce3e 6c6f 53bd 5cda c33e 4fe2 783e
00000010: 988c 99be e814 84be 64af 33be 21e0 9e3e
00000020: 19f8 ccbe 62fc b43e 2a43 7f3e 571c 923e
00000030: b6eb 3dbe 979f 33be e7db c3be 38ee dabe
00000040: 0b22 a2be 9089 cf3d c917 533e 928e 273d
00000050: 1aa4 353e 3e83 833e c64c 9fbd 7a62 543e
00000060: e6d8 e9bd

kline_transformer.layers.0.self_attn.out_proj.bias f4 [5]
0.0005519589 -0.0042936965 0.017317884 -0.0064025754 0.00093693705
00000000: 56b1 103a 23b2 8cbb 3cde 8d3c b2cc d1bb
00000010: c89c 753a

kline_transformer.layers.0.linear1.weight f4 [128, 5]
0.10092077 0.05657186 -0.44693527 0.026942294 -0.2718312 -0.061746255 0.3355695 0.36464414
0.005183858 -0.38642487 0.21847132 0.30685988 0.39613637 -0.070806235 -0.15807457 0.45711493
0.061645795 0.15700531 0.30626076 0.36151108 -0.044725448 0.17196383 0.0399621 -0.05285851
0.073198475 -0.009453416 0.046283912 -0.2386774 -0.25732502 0.4159286 -0.09296385 -0.13598338
-0.12707826 -0.2928616 0.30467674 -0.14869368 0.22211856 -0.27850196 -0.046446357 -0.026797181
0.02551653 0.052520312 0.27909014 -0.16815494 0.1442436 0.021314654 0.19314682 0.26320356
0.14505777 0.050345775 0.21081115 0.1542912 -0.3841896 0.24907805 0.44549757 0.45083714
0.2715331 0.11635326 -0.085812405 -0.32372868 -0.1403201 -0.22706418 0.2725162 -0.25445506
0.44191977 -0.24131654 -0.40947747 0.15876235 0.4542262 -0.38235185 -0.03788928 0.24485686
0.20274973 0.024551839 0.3041722 -0.0962597 0.33593807 -0.08669807 0.39318427 -0.112234615
-0.08733193 -0.2151432 0.18004066 0.053444806 0.31718808 0.31767976 -0.17837904 -0.21121788
-0.09784752 0.2475351 -0.12016488 -0.33646232 0.25855806 0.2671018 0.12927875 -0.36049116
-0.4051801 0.2647453 -0.2696395 -0.23520602 -0.1308029 0.45205408 -0.16805664 0.08032485
0.059864186 0.23223497 0.11042315 -0.20428418 0.38719353 0.18068261 0.21872266 -0.31714025
-0.26769033 0.3713252 -0.17531237 0.2803773 -0.12585677 -0.23647143 0.14913568 0.3947312
0.3509487 0.07257625 0.45254412 -0.18035246 0.23546776 -0.030955516 0.30379152 -0.0035166373
0.0625633 -0.040313683 -0.31757715 0.44067967 -0.30013764 0.19570877 0.3154896 -0.077018864
-0.2812668 -0.09980779 0.14131236 -0.22907922 -0.19444475 0.022298407 -0.3440577 -0.42625475
-0.31553647 -0.24569258 0.15541805 0.13527448 0.1281895 0.003882349 -0.13401522 0.04543603
-0.20883875 -0.3594635 -0.011233712 0.066986315 0.30502337 -0.15675987 -0.23482408 0.4540286
-0.13037905 0.028408615 0.40554285 -0.21054493 0.36854202 0.4032428 0.3386849 -0.45669067
0.08196817 -0.24502243 -0.1589225 -0.13227782 -0.2836019 0.22590527 0.32385436 -0.057625268
0.20691144 0.032332312 -0.27756503 0.010857292 0.12982324 -0.27426952 0.06716807 0.12511383
0.34796777 0.10952147 0.3358762 0.14790191 -0.12415668 0.33341357 0.2592528 0.45465052
0.2157473 0.07596845 -0.038244125 -0.23562473 0.047138304 0.087228976 0.02460678 0.41411203
0.16157475 0.12972236 -0.16934021 0.2697496 -0.26691824 0.28780976 -0.28241998 -0.04589293
0.4327127 -0.45515874 0.1968746 0.40901908 -0.32358238 0.1961496 0.043815974 0.37165132
0.27148396 0.08638111 0.010842168 -0.21338187 0.36640805 -0.23411272 0.30101082 -0.21921305
-0.1693981 0.3199029 0.08232064 0.18507397 0.36604556 0.2100281 -0.28003356 0.09815267
0.11185902 -0.32909006 0.16127874 0.29162455 0.4411809 -0.20575261 0.33277455 -0.0936968
-0.06038958 -0.28735152 -0.35034657 0.11436276 0.18600635 -0.10678802 0.44796184 0.43195772
-0.28831133 0.3747715 -0.21253026 -0.308786 -0.032415196 0.41511682 0.43600425 0.4102861
00000000: 8caf ce3d e5b7 673d b3d4 e4be 16b6 dc3c
00000010: 762d 8bbe a4e9 7cbd c4cf ab3e a3b2 ba3e
00000020: 5add a93b 7bd9 c5be f2b6 5f3e bd1c 9d3e
00000030: 63d2 ca3e dc02 91bd 4dde 21be f80a ea3e
00000040: 4d80 7c3d 00c6 203e 36ce 9c3e fb17 b93e
00000050: 0832 37bd 4917 303e 4daf 233d 2a82 58bd
00000060: 15e9 953d 80e2 1abc 3394 3d3d d967 74be
00000070: 1bc0 83be 98f4 d43e d563 bebd 3a3f 0bbe
00000080: ce20 02be f5f1 95be 97fe 9b3e 2843 18be
00000090: 0c73 633e cf97 8ebe 893e 3ebd c385 dbbc
000000a0: 0b08 d13c 8a1f 573d e7e4 8e3e cf30 2cbe
000000b0: 98b4 133e 129c ae3c 48c8 453e 9ec2 863e
000000c0: 068a 143e 5f37 4e3d e1de 573e 83fe 1d3e
000000d0: 80b4 c4be 510e 7f3e 4218 e43e 20d4 e63e
000000e0: 6306 8b3e 9e4a ee3d 6abe afbd c4bf a5be
000000f0: 13b0 0fbe 8383 68be 3e87 8b3e ef47 82be
00000100: 4f43 e23e af1b 77be 08a7 d1be 9992 223e
00000110: 5690 e83e 9fc3 c3be ca31 1bbd c2bb 7a3e
00000120: a09d 4f3e f020 c93c 75bc 9b3e ce23 c5bd
00000130: 1300 ac3e c28e b1bd 734f c93e 43db e5bd
00000140: 15db b2bd 804e 5cbe 945c 383e f1e8 5a3d
00000150: 7a66 a23e eca6 a23e ffa8 36be 8049 58be
00000160: 4864 c8bd d779 7d3e 0119 f6bd ca44 acbe
00000170: b961 843e 91c1 883e a661 043e 4c92 b8be
00000180: c473 cfbe b28c 873e 300e 8abe d9d9 70be
00000190: 32f1 05be a273 e73e 0a17 2cbe 5b81 a43d
000001a0: 2634 753d 01cf 6d3e 8825 e23d df2f 51be
000001b0: 3b3e c63e dd04 393e d5f8 5f3e 3560 a2be
000001c0: b50e 89be 561e be3e 1685 33be 9d8d 8f3e
000001d0: 99e0 00be 9125 72be 06b7 183e 351a ca3e
000001e0: 8caf b33e dba2 943d ddb3 e73e 51ae 38be
000001f0: 761e 713e 6c96 fdbc 908a 9b3e 6277 66bb
00000200: 3021 803d f61f 25bd 7999 a2be c4a0 e13e
00000210: a4ab 99be e167 483e da87 a13e 11bc 9dbd
00000220: 3402 90be 0768 ccbd 30b4 103e be93 6abe
00000230: 861c 47be 26ab b63c 5528 b0be 103e dabe
00000240: ff8d a1be d696 7bbe e925 1f3e 6585 0a3e
00000250: 1c44 033e 026f 7e3b 493b 09be 211b 3a3d
00000260: d3d9 55be 9a0b b8be 9a0d 38bc 1f30 893d
00000270: 062c 9c3e a985 20be b975 70be 7076 e83e
00000280: 1682 05be 2fb9 e83c 50a3 cf3e 1799 57be
00000290: 8ab1 bc3e d775 ce3e 1b68 ad3e 5cd3 e9be
000002a0: eede a73d 29e7 7abe 94bc 22be d673 07be
000002b0: 4534 91be b653 673e 3dd0 a53e 7908 6cbd
000002c0: 98e0 533e e36e 043d 011d 8ebe c9e2 313c
000002d0: 62f0 043e 0e6d 8cbe 6a8f 893d d71d 003e
000002e0: d528 b23e cb4c e03d f7f7 ab3e 9973 173e
000002f0: dc45 febd 2fb5 aa3e c8bc 843e f4c7 e83e
00000300: dcec 5c3e 5995 9b3d dfa5 1cbd 9c47 71be
00000310: 1814 413d 1ba5 b23d 2894 c93c 7e06 d43e
00000320: da73 253e f0d5 043e 8567 2dbe 9f1c 8a3e
00000330: 82a9 88be cd5b 933e 5a99 90be 3afa 3bbd
00000340: 858c dd3e 910a e9be 7f99 493e f36a d13e
00000350: 97ac a5be 71db 483e 6178 333d 1549 be3e
00000360: f2ff 8a3e 94e8 b03d 59a3 313c c780 5abe
00000370: d699 bb3e 3fbb 6fbe 171e 9a3e 6379 60be
00000380: b276 2dbe 50ca a33e b997 a83d 0884 3d3e
00000390: 536a bb3e 9b11 573e 8f60 8fbe 4404 c93d
000003a0: 5816 e53d 7e7e a8be 4126 253e d04f 953e
000003b0: 77e2 e13e d0b0 52be 6d61 aa3e 1ce4 bfbd
000003c0: 105b 77bd bd1f 93be a060 b3be 0637 ea3d
000003d0: 7378 3e3e adb3 dabd 415b e53e 9029 dd3e
000003e0: 8b9d 93be 0de2 bf3e 88a1 59be 3319 9ebe
000003f0: ccc5 04bd 318a d43e f33b df3e 0511 d23e

kline_transformer.layers.0.linear1.bias f4 [128]
-0.31044617 0.010825503 -0.25011814 0.13442133 -0.024810977 0.20819898 -0.09185675 -0.34052756
-0.114383996 0.4402632 -0.2827336 -0.039821282 0.37233084 -0.056175105 0.40589532 0.39400446
0.40579894 0.3536739 -0.35958555 0.37334308 0.41592944 0.3337948 0.14823595 -0.25583866
-0.21996653 -0.3903694 0.009809 -0.3779021 0.1529164 0.07731331 0.13613257 0.4402861
0.3863931 -0.34493244 -0.42604458 -0.36280596 0.19446425 -0.2545051 -0.22547328 -0.17910141
-0.22219683 0.048944883 0.37257943 -0.07452983 -0.09734963 0.4399532 0.2671591 0.31841174
0.44096038 0.10012048 -0.010969809 -0.06405273 0.27672628 0.3291991 0.36945978 -0.1413689
0.051549513 0.35193786 -0.09339773 0.40775102 0.2994005 0.28948876 0.22981405 -0.3131828
-0.04582433 -0.381655 0.30293715 0.37494913 -0.011571886 -0.13887063 0.3572696 -0.2030785
0.32870835 -0.058469854 0.1945411 0.38206294 -0.037545178 0.4152979 -0.114247456 0.11188983
0.2802447 0.26628584 0.3501523 0.3674619 0.025114749 0.080250606 -0.10051924 0.022533027
-0.29098633 0.11912036 -0.025294565 0.21015134 -0.38147572 -0.21073462 0.33312023 0.11592337
0.23192929 -0.25081062 0.18354869 -0.39149097 -0.12870134 0.36485532 -0.18979348 0.07253241
0.22975147 0.089972176 0.11967687 0.15825343 0.021652646 0.124494776 0.3739307 0.42239437
-0.27333114 0.03198484 -0.15974987 -0.3972553 -0.14624044 0.41568062 -0.12822586 0.15225773
0.3906346 -0.42279473 0.20051293 -0.3776428 -0.032242805 0.13299845 -0.32664704 0.08558767
00000000: cdf2 9ebe 735d 313c 7c0f 80be bfa5 093e
00000010: 6440 cbbc 1d32 553e 641f bcbd a159 aebe
00000020: 2842 eabd 2e6a e13e 75c2 90be a41b 23bd
00000030: 26a2 be3e de17 66bd 83d1 cf3e f4ba c93e
00000040: e1c4 cf3e bf14 b53e 991b b8be d326 bf3e
00000050: b4f4 d43e 27e7 aa3e 2acb 173e 49fd 82be
00000060: e83e 61be 7fde c7be eeb5 203c 627c c1be
00000070: 1e96 1c3e 7156 9e3d 5666 0b3e 2e6d e13e
00000080: 51d5 c53e fc9a b0be 8422 dabe b4c1 b9be
00000090: a321 473e 7e4e 82be 78e2 66be 5c66 37be
000000a0: 9187 63be 6e7a 483d bbc2 be3e 18a3 98bd
000000b0: 3e5f c7bd 8c41 e13e 14c9 883e dd06 a33e
000000c0: 8fc5 e13e f70b cd3d b7ba 33bc 142e 83bd
000000d0: 11af 8d3e c98c a83e d529 bd3e 02c3 10be
000000e0: 9525 533d 3331 b43e 4f47 bfbd bec4 d03e
000000f0: 064b 993e df37 943e 6054 6b3e 7f59 a0be
00000100: 4bb2 3bbd 4968 c3be 941a 9b3e 55f9 bf3e
00000110: 0298 3dbc 1a34 0ebe 0aec b63e cff3 4fbe
00000120: 764c a83e 167e 6fbd c835 473e c19d c33e
00000130: f9c8 19bd eda1 d43e 92fa e9bd 7f26 e53d
00000140: 3c7c 8f3e 9e56 883e 2a47 b33e f723 bc3e
00000150: 72bd cd3c 6e5a a43d 08dd cdbd 2f97 b83c
00000160: 29fc 94be 60f5 f33d 8c36 cfbc ea31 573e
00000170: c950 c3be d1ca 57be bc8e aa3e 3b69 ed3d
00000180: df7e 6d3e 406a 80be 30f4 3b3e 8171 c8be
00000190: 49ca 03be 51ce ba3e 3959 42be df8b 943d
000001a0: f843 6b3e 5543 b83d 2619 f53d 300d 223e
000001b0: e460 b13c 1ef7 fe3d d873 bf3e 1344 d83e
000001c0: 0ff2 8bbe 8902 033d 7895 23be 0c65 cbbe
000001d0: 0ec0 15be 17d4 d43e a44d 03be 73e9 1b3e
000001e0: 4201 c83e 8d78 d8be 4353 4d3e 665a c1be
000001f0: 0811 04bd bf30 083e 483e a7be 9748 af3d

kline_transformer.layers.0.linear2.weight f4 [5, 128]
0.09137234 0.013090686 0.05495674 -0.073742166 0.043346822 -0.014063978 -0.043210503 0.033122476
0.055484474 -0.06243726 -0.054839503 -0.007453687 0.016865512 -0.019724716 -0.034228865 0.025777651
0.059871726 0.058941834 0.0819402 -0.01653494 0.088898964 0.05951629 0.04829022 -0.008812766
-0.02841386 -0.05937343 0.0721341 -0.059716757 -0.040532164 -0.027681245 0.023064027 0.036256038
0.04251468 0.025003467 -0.001785668 -0.025068868 -0.043810267 -0.08410062 -0.024425501 -0.08695366
0.053128034 -0.03315972 -0.006143819 -0.0067347893 -0.05912184 0.022530245 0.039797287 -0.05874612
0.009166631 0.04148684 -0.017110268 -0.046236522 0.0013470761 0.030337643 -0.07830957 0.054187726
-0.08472331 -0.06422349 -0.017481329 0.06831812 -0.07010319 0.049328517 -0.01674655 -0.010787148
0.06092133 -0.06322809 -0.0065796226 0.06337795 0.05470279 0.03449461 0.06159958 0.015337851
0.050952677 -0.04316907 0.084143415 -0.0343019 0.0071513252 0.008227864 0.07101804 -0.012966513
-0.0763875 -0.07745911 0.053914793 0.04505546 -0.058277484 -0.09736251 0.044402666 -0.02551353
-0.060508717 -0.01164347 -0.07310053 -0.06940465 0.059088603 0.017930718 0.08730406 0.019083675
-0.008730697 -0.053090252 0.0451806 -0.06659361 -0.03026726 -0.07293088 0.05638004 0.05730882
0.027678106 -0.07179951 0.07505748 -0.039142847 -0.011741293 -0.051149253 0.07313746 -0.033770338
0.08507008 0.03729108 -0.07851854 -0.07910268 0.0685176 -0.055594873 -0.05653271 0.07422317
0.025154356 -0.013995723 -0.060621075 0.06683513 -0.030693334 -0.0582191 0.014842706 -0.07226746
0.0059814374 0.034145474 -0.0017145313 -0.0055321683 0.04795623 -0.038764298 0.091529295 -0.045893464
0.016453266 -0.03652348 -0.0043089017 0.0352194 0.06800714 -0.05135756 0.055624455 0.07010335
-0.055087395 0.08930841 0.105045944 0.022215428 -0.012977175 -0.0145327365 0.06339748 0.0021937808
-0.08175512 0.06130109 0.04351412 0.07638561 -0.07801887 0.060865358 0.06728466 -0.067173965
-0.0342936 0.020869358 0.0793269 -0.06875424 -0.0476544 0.034076918 -0.031972013 0.08529227
-0.040464867 -0.07839848 -0.032009073 0.078540385 0.0059319497 -0.055266973 0.036172666 0.00402003
-0.029831814 0.059587345 -0.019567855 0.054104514 -0.024381183 -0.036094002 -0.0821633 0.07355856
0.045242835 -0.006459687 0.08154978 0.055056926 -0.07865085 -0.07714482 0.0048685065 0.007694714
-0.020242153 -0.07719658 0.02669466 -0.02279272 -0.034788273 0.04599735 0.060302906 0.03354217
-0.03505842 -0.0044408124 -0.005529976 -0.08053311 0.016814437 0.025417402 -0.004240755 -0.086064205
0.034840368 -0.028664738 0.04975075 -0.009996462 -0.008203922 0.050811596 0.055871572 0.08513542
0.025852032 -0.0040056496 -0.02203648 -0.0018135824 0.08228127 -0.0055173035 0.0862785 -0.041648615
0.0048039597 -0.07146588 0.0336232 -0.023114212 0.0722705 0.0663827 0.078073196 0.025137717
0.057836156 -0.012654809 0.059360415 0.0211314 -0.023350475 0.08075692 -0.0758185 0.03248286
-3.0059833e-05 -0.013617578 -0.046669696 0.057512872 0.016290437 0.035218235 0.037710734 -0.035667583
-0.03813176 -0.0436651 -0.05994691 0.06689904 0.08889664 -0.07248362 -0.06154812 0.008227453
00000000: 6c21 bb3d 517a 563c 521a 613d 2206 97bd
00000010: 708c 313d 996c 66bc 7ffd 30bd 6fab 073d
00000020: b043 633d 36be 7fbd 639f 60bd 0f3e f4bb
00000030: 8b29 8a3c ba95 a1bc 9133 0cbd a72b d33c
00000040: 0e3c 753d fe6c 713d 43d0 a73d 4874 87bc
00000050: a910 b63d 5ac7 733d f7cb 453d 6b63 10bc
00000060: 2fc4 e8bc 8e31 73bd 0bbb 933d 8f99 74bd
00000070: 0e05 26bd c7c3 e2bc c5f0 bc3c 3681 143d
00000080: e023 2e3d 12d4 cc3c 130d eaba 3a5d cdbc
00000090: 6572 33bd f23c acbd fd17 c8bc c314 b2bd
000000a0: c89c 593d 7dd2 07bd 1752 c9bb 82af dcbb
000000b0: be29 72bd 5991 b83c 7b02 233d c69f 70bd
000000c0: a32f 163c 1bee 293d d52a 8cbc 8262 3dbd
000000d0: 6090 b03a a686 f83c c560 a0bd f3f3 5d3d
000000e0: 6a83 adbd 9b87 83bd 0135 8fbc 5fea 8b3d
000000f0: 4392 8fbd b30c 4a3d 1030 89bc 94bc 30bc
00000100: a588 793d bb7d 81bd e099 d7bb 4ccc 813d
00000110: 0810 603d 384a 0d3d d74f 7c3d 9c4b 7b3c
00000120: c1b3 503d 0dd2 30bd 6253 ac3d 2680 0cbd
00000130: aa55 ea3b 2ace 063c e871 913d 7f71 54bc
00000140: 0d71 9cbd e2a2 9ebd c2d5 5c3d 138c 383d
00000150: 5fb4 6ebd ff65 c7bd 92df 353d c001 d1bc
00000160: fdd7 77bd 41c4 3ebc bbb5 95bd 0624 8ebd
00000170: e406 723d 71e3 923c 79cc b23d 5e55 9c3c
00000180: 330b 0fbc 2a75 59bd 4b0f 393d 3b62 88bd
00000190: 0bf3 f7bc c95c 95bd c2ee 663d a7bc 6a3d
000001a0: 32bd e23c 9f0b 93bd bcb7 993d 4054 20bd
000001b0: 8d5e 40bc e181 51bd 18c9 953d c452 0abd
000001c0: 3939 ae3d 88be 183d 54ce a0bd 9600 a2bd
000001d0: f552 8c3d 73b7 63bd d88e 67bd 5102 983d
000001e0: 8210 ce3c 514e 65bc ce4d 78bd dbe0 883d
000001f0: 9670 fbbc 2777 6ebd d22e 733c f600 94bd
00000200: efff c33b 20dc 0b3d 20ba e0ba 3147 b5bb
00000210: c06d 443d 50c7 1ebd b673 bb3d c9fa 3bbd
00000220: 00c9 863c a599 15bd b031 8dbb 3842 103d
00000230: 5447 8b3d 4e5c 52bd 78d6 633d 5892 8f3d
00000240: 52a3 61bd 54e7 b63d 5422 d73d 21fd b53c
00000250: 389e 54bc b71a 6ebc 8ad6 813d 89c5 0f3b
00000260: 3a6f a7bd da16 7b3d dd3b 323d 0f70 9c3d
00000270: 5bc8 9fbd f44d 793d 8acc 893d 8192 89bd
00000280: 7277 0cbd 37f6 aa3c 2476 a23d 06cf 8cbd
00000290: 4331 43bd 3d94 0b3d 16f5 02bd b7ad ae3d
000002a0: 7dbe 25bd 628f a0bd f21b 03bd c8d9 a03d
000002b0: cd60 c23b 9f5f 62bd ca29 143d 75ba 833b
000002c0: d961 f4bc dc11 743d c44c a0bc b29c 5d3d
000002d0: 0cbb c7bc 4ed7 13bd 3b45 a8bd dfa5 963d
000002e0: 8d50 393d c8ab d3bb 9203 a73d 5f83 613d
000002f0: b213 a1bd 1afe 9dbd fe87 9f3b f023 fc3b
00000300: dfd2 a5bc 3e19 9ebd c2ae da3c ccb7 babc
00000310: 267e 0ebd b867 3c3d 2e00 773d 8463 093d
00000320: 6b99 0fbd 3c84 91bb cd34 b5bb 8bee a4bd
00000330: 6ebe 893c 2838 d03c 08f6 8abb 6e42 b0bd
00000340: c6b4 0e3d 50d2 eabc 71c7 4b3d 33c8 23bc
00000350: be69 06bc d21f 503d 97d9 643d 7b5b ae3d
00000360: a4c7 d33c d341 83bb d985 b4bc bab5 edba
00000370: 1583 a83d 7fca b4bb c8b2 b03d bd97 2abd
00000380: 896a 9d3b b45c 92bd 7bb8 093d 045a bdbc
00000390: 8e02 943d a7f3 873d d7e4 9f3d 9ded cd3c
000003a0: 9be5 6c3d 1e56 4fbc e823 733d c21b ad3c
000003b0: 7f49 bfbc e263 a53d bb46 9bbd bf0c 053d
000003c0: 0029 fcb7 431c 5fbc b928 3fbd 9e92 6b3d
000003d0: 8673 853c ff40 103d 9276 1a3d 2c18 12bd
000003e0: 0c30 1cbd 2dda 32bd e48a 75bd 5d02 893d
000003f0: 710f b63d 4b72 94bd e219 7cbd 70cc 063c

kline_transformer.layers.0.linear2.bias f4 [5]
-0.015658699 0.019234238 -0.031001668 -0.07592802 0.06920012
00000000: ac46 80bc 1f91 9d3c 36f7 fdbc 2680 9bbd
00000010: cbb8 8d3d

kline_transformer.layers.0.norm1.weight f4 [5]
0.98624593 0.98835474 0.99581826 1.0056837 1.0329038
00000000: 9d7a 7c3f d104 7d3f f2ed 7e3f 3eba 803f
00000010: 3136 843f

kline_transformer.layers.0.norm1.bias f4 [5]
-0.00071517826 -0.006614656 -0.0030360913 0.008810042 0.007985408
00000000: cd7a 3bba c2bf d8bb 29f9 46bb ff57 103c
00000010: 3bd5 023c

kline_transformer.layers.0.norm2.weight f4 [5]
0.97046435 0.98868114 1.003149 0.9945385 1.018613
00000000: 5a70 783f 351a 7d3f 3067 803f 139a 7e3f
00000010: e961 823f

kline_transformer.layers.0.norm2.bias f4 [5]
-0.00025028296 -0.0059771608 -0.004615735 0.009187488 0.0046039536
00000000: 6938 83b9 0fdc c3bb 973f 97bb 1e87 163c
00000010: c3dc 963b

kline_transformer.layers.1.self_attn.in_proj_weight f4 [15, 5]
-0.18139413 -0.30302212 -0.006097506 0.52706903 -0.34247833 0.20401125 0.4924288 -0.48153782
0.27814886 0.058366247 0.023943424 0.24287955 -0.18542479 0.38994044 -0.015500987 0.2981949
-0.4677828 -0.14091572 0.3597087 -0.11775902 0.102591075 -0.06459469 -0.2925178 -0.14799942
0.1899931 -0.49974895 0.32967353 0.21236244 0.22430454 -0.3982584 -0.34988603 0.059594996
-0.40046942 0.42590308 0.23059104 -0.32979926 0.33388323 0.35464087 -0.0016507765 -0.29837644
0.18071167 -0.050926294 0.14449452 0.50787216 -0.0001287027 -0.21055393 -0.51223624 -0.094940834
0.4461342 -0.53790236 -0.2389526 0.114382386 0.038951017 0.19666204 0.034211848 -0.22168802
-0.008574787 -0.22143501 -0.15209085 0.15994288 -0.19390424 -0.12706351 0.40167454 0.15922937
-0.52186996 -0.3775719 0.0984904 -0.065888666 0.4160782 -0.04410826 -0.23936741 0.00713084
0.54608333 0.17400096 -0.35750887
00000000: 62bf 39be b725 9bbe 96cd c7bb ffed 063f
00000010: 5259 afbe 53e8 503e a11f fc3e 208c f6be
00000020: 8769 8e3e 7211 6f3d 0025 c43c 6bb5 783e
00000030: ffdf 3dbe 46a6 c73e daf7 7dbc 00ad 983e
00000040: 3a81 efbe 364c 10be bd2b b83e a42b f1bd
00000050: 451b d23d 394a 84bd e5c4 95be 298d 17be
00000060: 8d8d 423e 18df ffbe f8ca a83e 8a75 593e
00000070: 17b0 653e 86e8 cbbe 4324 b3be e219 743d
00000080: 540a cdbe f80f da3e 0f20 6c3e 73db a8be
00000090: bef2 aa3e 7d93 b53e de5e d8ba ccc4 98be
000000a0: 7b0c 393e 1798 50bd 5ff6 133e e903 023f
000000b0: 5ef4 06b9 739b 57be ea21 03bf 5770 c2bd
000000c0: b46b e43e f8b3 09bf feaf 74be 5041 ea3d
000000d0: 1a8b 1f3d c661 493e b921 0c3d 2f02 63be
000000e0: 437d 0cbc dcbf 62be b4bd 1bbe 11c8 233e
000000f0: d58e 46be f01c 02be 49a8 cd3e 060d 233e
00000100: 4599 05bf 1b51 c1be 56b5 c93d a3f0 86bd
00000110: 3408 d53e ddaa 34bd bb1c 75be d2a9 e93b
00000120: 1ecc 0b3f 4f2d 323e 670b b7be

kline_transformer.layers.1.self_attn.in_proj_bias f4 [15]
0.0016380766 -0.00026488828 0.0013988521 0.0014668889 0.001496906 -1.5842008e-06 1.3049557e-06 -1.835926e-06
1.5904043e-08 -8.3312244e-07 2.8465463e-05 -0.0068686823 0.0007095663 0.005052879 -0.00028764905
00000000: bbb4 d63a b4e0 8ab9 b059 b73a a044 c03a
00000010: d533 c43a baa0 d4b5 f025 af35 f069 f6b5
00000020: 5c9d 8832 bda3 5fb5 1ec9 ee37 af12 e1bb
00000030: 3002 3a3a 9f92 a53b 9acf 96b9

kline_transformer.layers.1.self_attn.out_proj.weight f4 [5, 5]
0.40774056 -0.04770372 0.3781976 0.2442852 -0.30881295 -0.2621782 -0.19672318 0.32225174
-0.4029356 0.37053213 0.21524638 0.3079881 -0.19311613 -0.21250035 -0.4039504 -0.4237352
-0.31106886 0.06979439 0.19867977 0.016424106 0.18395348 0.2752716 -0.08317988 0.2234855
-0.107525684
00000000: 5fc3 d03e fa64 43bd 1ea3 c13e e625 7a3e
00000010: bb1c 9ebe 393c 86be cd71 49be 2efe a43e
00000020: 934d cebe 63b6 bd3e 8c69 5c3e 9eb0 9d3e
00000030: 3cc0 45be b199 59be 96d2 cebe d2f3 d8be
00000040: 6b44 9fbe 5cf0 8e3d b672 4b3e d98b 863c
00000050: 4d5e 3c3e 66f0 8c3e 375a aabd 62d9 643e
00000060: 6d36 dcbd

kline_transformer.layers.1.self_attn.out_proj.bias f4 [5]
0.0007420444 -0.0042147236 -0.0059194225 0.0026963265 0.009518258
00000000: c285 423a aa1b 8abb b7f7 c1bb dab4 303b
00000010: 78f2 1b3c

kline_transformer.layers.1.linear1.weight f4 [128, 5]
0.09708115 0.05510171 -0.44833544 0.025512306 -0.26984358 -0.07303787 0.33300388 0.35690385
0.009880274 -0.38991374 0.22913595 0.3167064 0.4086647 -0.06114917 -0.17512809 0.4507275
0.06588268 0.1519559 0.307172 0.36090904 -0.0436347 0.16968958 0.05145083 -0.057230633
0.07262125 -0.0027014278 0.0444354 -0.23972182 -0.26216775 0.4176035 -0.09783396 -0.1364688
-0.13204414 -0.29146427 0.30782965 -0.15876114 0.21634397 -0.27485773 -0.04947949 -0.017756466
0.027640505 0.05717146 0.30096406 -0.16192785 0.13473023 0.009752202 0.19578093 0.24432652
0.13671876 0.053478096 0.21005613 0.1528164 -0.38215405 0.24726072 0.4454481 0.44714004
0.26360804 0.11048901 -0.09732999 -0.31649745 -0.14244606 -0.22493319 0.26744583 -0.25616923
0.44500488 -0.2270217 -0.42427385 0.1761076 0.4329313 -0.3725234 -0.036401045 0.24614188
0.20216033 0.02552887 0.30352178 -0.09241802 0.33667418 -0.098553374 0.39833307 -0.11438608
-0.07355649 -0.22065286 0.17921641 0.04139734 0.3208224 0.32181787 -0.17735884 -0.21278986
-0.09427004 0.24711594 -0.11170353 -0.32948807 0.25556675 0.2800924 0.12835123 -0.35935348
-0.4024406 0.2654239 -0.26453897 -0.23864362 -0.13271876 0.45735198 -0.17067689 0.09413023
0.057272736 0.24452472 0.099391 -0.19134352 0.38844657 0.18185553 0.22507556 -0.3144327
-0.2723727 0.37380388 -0.18153197 0.28099847 -0.12525062 -0.23536637 0.14379665 0.39165533
0.36572433 0.0613288 0.46717152 -0.19922258 0.23148668 -0.037294462 0.31463164 -0.02036886
0.08476776 -0.04881065 -0.31789073 0.44174528 -0.3026137 0.20043392 0.31507242 -0.09972756
-0.2856161 -0.09750346 0.14904146 -0.2325218 -0.18999758 0.023508068 -0.34648016 -0.4305951
-0.30287224 -0.24496609 0.15636633 0.13396333 0.13118011 0.0033208737 -0.13022421 0.047494937
-0.20865406 -0.35286194 -0.015473009 0.07170872 0.30162334 -0.16559198 -0.23937553 0.45528975
-0.123001315 0.022252353 0.3980106 -0.2172806 0.37444746 0.3988592 0.339516 -0.44914392
0.090948336 -0.24866617 -0.16029577 -0.12694147 -0.2889338 0.23028308 0.32358408 -0.046111733
0.2156089 0.012499876 -0.26118574 -0.017658195 0.12339211 -0.27164564 0.06600721 0.1252508
0.34728995 0.10656312 0.34960943 0.15640198 -0.10804146 0.3188962 0.2623727 0.44626856
0.20807277 0.07386276 -0.032657325 -0.22814056 0.06099629 0.0772128 0.03261653 0.40274578
0.16064805 0.12834641 -0.17148846 0.26672107 -0.26526335 0.29634994 -0.2848937 -0.03357566
0.43059492 -0.45873594 0.198653 0.41033995 -0.32390064 0.19682543 0.043572225 0.3590884
0.27131045 0.0746635 0.018476637 -0.2062301 0.35998815 -0.22321248 0.29611862 -0.21184434
-0.17215183 0.30750892 0.0938688 0.1633009 0.37002 0.21566774 -0.27662033 0.096418366
0.11047745 -0.33225244 0.16318153 0.29249156 0.44100952 -0.212504 0.33152062 -0.09297475
-0.04751223 -0.29472956 -0.34461942 0.11005168 0.18333584 -0.10022156 0.4422751 0.43874273
-0.2915376 0.3757063 -0.21567163 -0.30862337 -0.028550772 0.41297933 0.4352098 0.41471648
00000000: 7bd2 c63d 55b2 613d 398c e5be 2fff d03c
00000010: f028 8abe e194 95bd 7c7f aa3e 1abc b63e
00000020: dfe0 213c c6a2 c7be 9da2 6a3e 5727 a23e
00000030: 803c d13e 8d77 7abd c754 33be c1c5 e63e
00000040: 80ed 863d 549a 1b3e a645 9d3e 12c9 b83e
00000050: 4dba 32bd 1bc3 2d3e 1bbe 523d ab6a 6abd
00000060: 73ba 943d 700a 31bb e501 363d a379 75be
00000070: da3a 86be 20d0 d53e 2c5d c8bd 7abe 0bbe
00000080: 9436 07be ce3a 95be d99b 9d3e 4892 22be
00000090: 4689 5d3e 27ba 8cbe 01ab 4abd 0276 91bc
000000a0: 576e e23c 9f2c 6a3d f617 9a3e 6ad0 25be
000000b0: b9f6 093e b3c7 1f3c cc7a 483e bb30 7a3e
000000c0: 0100 0c3e d90b 5b3d f418 573e e77b 1c3e
000000d0: b2a9 c3be ea31 7d3e c611 e43e 8aef e43e
000000e0: a2f7 863e 1048 e23d f254 c7bd f40b a2be
000000f0: 61dd 11be e354 66be a9ee 883e 9d28 83be
00000100: aed7 e33e 6078 68be 6c3a d9be 8d55 343e
00000110: 2ca9 dd3e 63bb bebe 4319 15bd 9e0c 7c3e
00000120: 1e03 4f3e ec21 d13c 3567 9b3e a945 bdbd
00000130: 8f60 ac3e 5ad6 c9bd 50f2 cb3e 4043 eabd
00000140: c9a4 96bd d3f2 61be 8284 373e 4290 293d
00000150: d542 a43e 50c5 a43e 8e9d 35be 96e5 59be
00000160: a710 c1bd f60b 7d3e d2c4 e4bd a9b2 a8be
00000170: a5d9 823e 4568 8f3e 816e 033e 2efd b7be
00000180: b20c cebe a4e5 873e a771 87be fe5e 74be
00000190: 6de7 07be 0a2a ea3e ecc5 2ebe 5ac7 c03d
000001a0: d196 6a3d b064 7a3e 828d cb3d 8eef 43be
000001b0: 78e2 c63e 5638 3a3e 357a 663e 53fd a0be
000001c0: 6f74 8bbe 3963 bf3e 84e3 39be 08df 8f3e
000001d0: b341 00be e203 71be 6e3f 133e 0c87 c83e
000001e0: 3840 bb3e e833 7b3d 1b31 ef3e 0101 4cbe
000001f0: d80a 6d3e 14c2 18bd 6617 a13e 98dc a6bc
00000200: b89a ad3d aded 47bd 93c2 a2be 702c e23e
00000210: 2ff0 9abe 8d3e 4d3e 2c51 a13e f73d ccbd
00000220: 463c 92be e5af c7bd 539e 183e 321a 6ebe
00000230: ba8e 42be fe93 c03c d965 b1be f676 dcbe
00000240: 1212 9bbe 64d8 7abe 7f1e 203e af2d 093e
00000250: 1454 063e 04a3 593b 7f59 05be 0d8a 423d
00000260: 69a9 55be 52aa b4be 8182 7dbc 05dc 923d
00000270: 606e 9a3e f290 29be dc1e 75be bd1b e93e
00000280: 1de8 fbbd 914a b63c 0cc8 cb3e ce7e 5ebe
00000290: 94b7 bf3e 4637 cc3e 0bd5 ad3e 31f6 e5be
000002a0: 1f43 ba3d 58a2 7ebe 9324 24be f2fc 01be
000002b0: 22ef 93be 54cf 6b3e d0ac a53e a8df 3cbd
000002c0: 94c8 5c3e 48cc 4c3c 23ba 85be eba7 90bc
000002d0: 01b5 fc3d 2315 8bbe ca2e 873d bf41 003e
000002e0: fdcf b13e c43d da3d 0200 b33e d727 203e
000002f0: d744 ddbd 5d46 a33e b755 863e 507d e43e
00000300: 0711 553e 5c45 973d b0c3 05bd ae9d 69be
00000310: 3fd7 793d bf21 9e3d e998 053d b234 ce3e
00000320: ec80 243e 3e6d 033e ac9a 2fbe aa8f 883e
00000330: 99d0 87be 2ebb 973e 96dd 91be a286 09bd
00000340: f076 dc3e 70df eabe b16b 4b3e 1418 d23e
00000350: 4ed6 a5be 9b8c 493e ca78 323d 6fda b73e
00000360: 34e9 8a3e 2de9 983d 515c 973c fc2d 53be
00000370: 5e50 b83e d091 64be dc9c 973e b9ed 58be
00000380: 9248 30be cf71 9d3e 493e c03d 5a38 273e
00000390: 4373 bd3e 01d8 5c3e 2ea1 8dbe fe76 c53d
000003a0: 0042 e23d fe1c aabe 0f19 273e 74c1 953e
000003b0: 00cc e13e a69a 59be 12bd a93e 8c69 bebd
000003c0: 2f9c 42bd cbe6 96be f571 b0be c662 e13d
000003d0: 64bc 3b3e f640 cdbd e271 e23e e3a2 e03e
000003e0: 6b44 95be 935c c03e 06d9 5cbe e203 9ebe
000003f0: 4fe3 e9bc 0772 d33e d2d3 de3e b855 d43e

kline_transformer.layers.1.linear1.bias f4 [128]
-0.3125275 0.015658421 -0.23321864 0.13205498 -0.02097264 0.21147826 -0.089021504 -0.34429112
-0.11945545 0.4388337 -0.28406712 -0.04500624 0.37490955 -0.056105737 0.40663457 0.40195373
0.4100794 0.35202095 -0.3723872 0.36400473 0.41551346 0.33467773 0.15395719 -0.25936568
-0.19966918 -0.37910232 0.009276913 -0.36722043 0.13958837 0.08232034 0.12929232 0.4487045
0.39000127 -0.34235242 -0.4269084 -0.37756112 0.19084686 -0.26917076 -0.23007432 -0.19216743
-0.22362113 0.05207274 0.3716201 -0.08262797 -0.1007857 0.4365686 0.26891127 0.31893528
0.4454666 0.10374177 -0.011836269 -0.061947946 0.26428294 0.32786915 0.37140998 -0.14734481
0.0466121 0.35069144 -0.117704205 0.41101336 0.29763833 0.28931978 0.239449 -0.32180032
-0.04379472 -0.37794384 0.31064188 0.37669185 -0.008094254 -0.14169118 0.3525639 -0.19826362
0.32561597 -0.06240462 0.20086199 0.37825146 -0.028758597 0.41516796 -0.114433415 0.1043622
0.2793114 0.26551932 0.35343596 0.3645244 0.021308068 0.07650654 -0.10211668 0.024027253
-0.28807965 0.1162616 -0.033046998 0.20890985 -0.38021785 -0.22261389 0.3321664 0.12566319
0.23659606 -0.2603321 0.18020283 -0.38568592 -0.12875554 0.35241148 -0.188059 0.073738046
0.23836033 0.08980885 0.12061996 0.15941685 0.02364561 0.12536773 0.3784259 0.4217898
-0.27333558 0.040291667 -0.16015473 -0.3974077 -0.14470895 0.41885972 -0.12907788 0.14976925
0.3891351 -0.43039644 0.19330084 -0.3776256 -0.04602748 0.12813172 -0.32832485 0.086932145
00000000: 9b03 a0be 1746 803c ded0 6ebe 6c39 073e
00000010: d0ce abbc c28d 583e e850 b6bd ed46 b0be
00000020: 0fa5 f4bd d0ae e03e 3f71 91be 7758 38bd
00000030: 25f4 bf3e 21cf 65bd 6832 d03e e1cc cd3e
00000040: edf5 d13e 173c b43e 89a9 bebe d45e ba3e
00000050: 2ebe d43e e15a ab3e f4a6 1d3e 94cb 84be
00000060: 1476 4cbe b319 c2be 31fe 173c 5104 bcbe
00000070: 41f0 0e3e 9197 a83d 3565 043e 99bc e53e
00000080: 3fae c73e d148 afbe bd93 dabe b14f c1be
00000090: 5c6d 433e c0d0 89be 9a98 6bbe 8ac7 44be
000000a0: f0fc 64be 3a4a 553d fd44 be3e da38 a9bd
000000b0: bc68 cebd eb85 df3e bdae 893e 7c4b a33e
000000c0: 3314 e43e 9176 d43d e9ec 41bc 21bd 7dbd
000000d0: 1850 873e 77de a73e 7329 be3e 8fe1 16be
000000e0: 54ec 3e3d d48d b33e e70e f1bd 5870 d23e
000000f0: 0d64 983e b921 943e 1e32 753e 03c3 a4be
00000100: 1862 33bd db81 c1be 740c 9f3e c1dd c03e
00000110: c39d 04bc 7e17 11be 4183 b43e 9e05 4bbe
00000120: 23b7 a63e fd9b 7fbd c4ae 4d3e 2daa c13e
00000130: 2697 ebbc e590 d43e 115c eabd d9bb d53d
00000140: e701 8f3e 26f2 873e 8ff5 b43e f1a2 ba3e
00000150: 428e ae3c 76af 9c3d 8d22 d1bd cdd4 c43c
00000160: 2d7f 93be 901a ee3d 4a5c 07bd 77ec 553e
00000170: eaab c2be e5f4 63be b711 aa3e daad 003e
00000180: 3d46 723e 404a 85be 1787 383e a078 c5be
00000190: 7ed8 03be 476f b43e 8a92 40be f903 973d
000001a0: bb14 743e b4ed b73d 9907 f73d 2c3e 233e
000001b0: 70b4 c13c 6660 003e 0ac1 c13e d5f4 d73e
000001c0: a4f2 8bbe e008 253d 9aff 23be 0679 cbbe
000001d0: 952e 14be c874 d63e fe2c 04be 1c5d 193e
000001e0: b73c c73e ec5c dcbe a8f0 453e 2558 c1be
000001f0: 5087 3cbd f634 033e 321a a8be 7b09 b23d

kline_transformer.layers.1.linear2.weight f4 [5, 128]
0.08957008 0.013079301 0.05635095 -0.070698865 0.04411258 -0.011798391 -0.043086182 0.030657055
0.05662507 -0.06304801 -0.0578681 -0.007638987 0.019148603 -0.020117335 -0.034073267 0.024469808
0.060346108 0.06140855 0.09718453 -0.017687658 0.08940105 0.059710942 0.04878175 -0.0058365855
-0.028586596 -0.053158186 0.071863 -0.061600853 -0.04013849 -0.02893786 0.024564097 0.03763107
0.044419907 0.023046795 -0.00060093554 -0.021011293 -0.04144145 -0.07992682 -0.023890026 -0.086783245
0.052849784 -0.03346645 -0.00598437 -0.0073077083 -0.05951341 0.021542715 0.041710865 -0.05766525
0.010571392 0.04307504 -0.016003298 -0.047649354 5.19447e-05 0.02995425 -0.079229966 0.052497555
-0.081599586 -0.06524185 -0.015795836 0.06897658 -0.07110995 0.049334824 -0.016679619 -0.019685056
0.061347257 -0.07289233 -0.0069979248 0.06341221 0.04465819 0.034893323 0.06472635 0.017198594
0.049982373 -0.043592803 0.08429175 -0.03510847 0.015314932 0.0071961572 0.072218776 -0.012460061
-0.076867186 -0.076598026 0.05214969 0.045474533 -0.056720283 -0.09317898 0.046919532 -0.025319623
-0.060914017 -0.012171188 -0.06937876 -0.06938638 0.059975937 0.01718455 0.087092035 0.020569032
-0.009296101 -0.05398562 0.045287825 -0.066509396 -0.03087833 -0.07067949 0.055615213 0.05733098
0.027216766 -0.07207573 0.07615898 -0.035622768 -0.009601348 -0.051862665 0.07526108 -0.033948846
0.07729026 0.03698088 -0.07461491 -0.077404335 0.06450845 -0.056077577 -0.0513159 0.07419933
0.024656015 -0.015696581 -0.061568733 0.06674766 -0.029298954 -0.058455504 0.014856727 -0.07365664
0.010054512 0.037706356 -0.0006660792 -0.009506469 0.048529375 -0.040173832 0.08948611 -0.037867997
0.0009886385 -0.03486369 -0.0018354175 0.036793124 0.06438193 -0.047920246 0.054374445 0.07377537
-0.06028036 0.085606225 0.10464205 0.020293748 -0.009928341 -0.0023751855 0.06504598 0.0037015816
-0.09896744 0.06524332 0.048434537 0.09309995 -0.07694279 0.06356979 0.066517115 -0.06748827
-0.036738276 0.022914214 0.08149952 -0.08079859 -0.050513912 0.02959325 -0.030966684 0.08519873
-0.037385672 -0.07674463 -0.027498135 0.08042892 0.004129098 -0.0518665 0.034397334 0.0047754915
-0.031233512 0.05764676 -0.023259085 0.052666463 -0.02280551 -0.033488914 -0.08075175 0.049935002
0.032696676 -0.00395958 0.08055509 0.048841488 -0.077254646 -0.07447479 0.0061440007 0.0046668733
-0.021757882 -0.07227296 0.029776594 -0.02197764 -0.024873989 0.051248346 0.05669927 0.008429151
-0.033708144 -0.0034433496 -0.0052256463 -0.07790976 0.028235989 0.026470162 -0.0037429566 -0.08479346
0.039763644 -0.028857224 0.051357318 -0.006379281 -0.01482313 0.04614261 0.049654376 0.08534429
0.02712956 0.0046383576 -0.023412079 -0.00010487686 0.082617946 0.008475711 0.08270173 -0.04224746
0.011707751 -0.07074315 0.034864232 -0.019202948 0.07360426 0.06315853 0.081782594 0.0275797
0.05957764 -0.010748348 0.056698732 0.019414533 -0.02811679 0.08702763 -0.07733783 0.03142671
0.0071531516 -0.012163142 -0.05489406 0.055975735 -0.010412269 0.036450237 0.030713655 -0.03497289
-0.036138464 -0.04366987 -0.06081705 0.06870833 0.09000637 -0.07108946 -0.0597136 0.008138488
00000000: 8570 b73d 914a 563c 41d0 663d 91ca 90bd
00000010: 65af 343d 0a4e 41bc 237b 30bd 8124 fb3c
00000020: b0ef 673d 511f 81bd 1a07 6dbd 7850 fabb
00000030: 88dd 9c3c 1ccd a4bc 6990 0bbd e874 c83c
00000040: 7b2d 773d 8887 7b3d af08 c73d b5e5 90bc
00000050: e617 b73d 7693 743d 5fcf 473d d440 bfbb
00000060: 702e eabc 66bc 59bd e92c 933d 2d51 7cbd
00000070: 4268 24bd 170f edbc a53a c93c 0923 1a3d
00000080: a6f1 353d a2cc bc3c 1a88 1dba e01f acbc
00000090: 83be 29bd acb0 a3bd 04b5 c3bc 6abb b1bd
000000a0: 0479 583d 1e14 09bd 8918 c4bb 8075 efbb
000000b0: 55c4 73bd 597a b03c 03d9 2a3d 6632 6cbd
000000c0: a233 2d3c 746f 303d 5919 83bc f82b 43bd
000000d0: 32df 5938 9e62 f53c 5243 a2bd ad07 573d
000000e0: af1d a7bd 859d 85bd 4566 81bc 9843 8d3d
000000f0: 18a2 91bd 5013 4a3d b2a3 88bc 8e42 a1bc
00000100: 4347 7b3d 9348 95bd d94e e5bb 43de 813d
00000110: 82eb 363d 4dec 0e3d 408f 843d 11e4 8c3c
00000120: 51ba 4c3d 5e8e 32bd 27a1 ac3d e6cd 0fbd
00000130: 7beb 7a3c becd eb3b 70e7 933d 4925 4cbc
00000140: 8b6c 9dbd 6ddf 9cbd ea9a 553d 8143 3a3d
00000150: 8753 68bd 9fd4 bebd b22e 403d 196b cfbc
00000160: fa80 79bd aa69 47bc 7416 8ebd 721a 8ebd
00000170: 54a9 753d 9dc6 8c3c 4f5d b23d 6380 a83c
00000180: ac4e 18bc 0720 5dbd ba7f 393d 1436 88bd
00000190: 8df4 fcbc 69c0 90bd c7cc 633d e4d3 6a3d
000001a0: b2f5 de3c 719c 93bd 3df9 9b3d 2ee9 11bd
000001b0: f94e 1dbc f26d 54bd 7b22 9a3d f20d 0bbd
000001c0: 5b4a 9e3d 4379 173d b4cf 98bd 2a86 9ebd
000001d0: 021d 843d 9ab1 65bd 9f30 52bd d1f5 973d
000001e0: 69fb c93c 1e96 80bc 7f2f 7cbd ffb2 883d
000001f0: 5c04 f0bc 0a6f 6fbd a169 733c 4bd9 96bd
00000200: aebb 243c fb71 1a3d d29b 2eba 05c1 1bbc
00000210: bdc6 463d 518d 24bd 7e44 b73d 791b 1bbd
00000220: 3495 813a 3bcd 0ebd 6492 f0ba 63b4 163d
00000230: acda 833d 0548 44bd bdb7 5e3d 8b17 973d
00000240: 8ae8 76bd 5152 af3d 924e d63d 133f a63c
00000250: 7baa 22bc 00a9 1bbb d436 853d 3c96 723b
00000260: 71af cabd 4a9e 853d 4b63 463d 30ab be3d
00000270: 2e94 9dbd e130 823d 203a 883d 4a37 8abd
00000280: e07a 16bd 97b6 bb3c 38e9 a63d bb79 a5bd
00000290: ade7 4ebd 8b6d f23c d8ad fdbc ac7c ae3d
000002a0: b821 19bd 4a2c 9dbd c543 e1bc ebb7 a43d
000002b0: 624d 873b f871 54bd 38e4 0c3d ba7b 9c3b
000002c0: 6cdd ffbc 021f 6c3d d689 bebc cab8 573d
000002d0: 9fd2 babc ac2b 09bd 2c61 a5bd a588 4c3d
000002e0: f3ec 053d 5dbf 81bb 11fa a43d 030e 483d
000002f0: af37 9ebd 3d86 98bd 9d53 c93b 92ec 983b
00000300: 963d b2bc d803 94bd 0bee f33c 740a b4bc
00000310: 89c4 cbbc c9e9 513d 7e3d 683d 6c1a 0a3c
00000320: 8d11 0abd d2a9 61bb e63b abbb 278f 9fbd
00000330: 294f e73c f4d7 d83c 644c 75bb 32a8 adbd
00000340: 34df 223d fc65 ecbc 0d5c 523d 4a09 d1bb
00000350: b7dc 72bc 0900 3d3d 6362 4b3d fdc8 ae3d
00000360: d03e de3c 5dfd 973b b0ca bfbc 56f1 dbb8
00000370: 9933 a93d b5dd 0a3c 865f a93d ac0b 2dbd
00000380: ded1 3f3c c9e1 90bd cccd 0e3d 804f 9dbc
00000390: d5bd 963d 4259 813d a27d a73d d3ee e13c
000003a0: af07 743d d719 30bc ee3c 683d 3a0b 9f3c
000003b0: 2f55 e6bc 8b3b b23d 4c63 9ebd 4bb9 003d
000003c0: fc64 ea3b ea47 47bc 98d8 60bd d046 653d
000003d0: 3998 2abc d84c 153d 349b fb3c bc3f 0fbd
000003e0: ed05 14bd 2ddf 32bd 4d1b 79bd f4b6 8c3d
000003f0: 4255 b83d 5a97 91bd 3f96 74bd 4b57 053c

kline_transformer.layers.1.linear2.bias f4 [5]
-0.015533948 0.020229453 -0.035141543 -0.07963494 0.06637433
00000000: 1a82 7ebc 3db8 a53c 94f0 0fbd a517 a3bd
00000010: 44ef 873d

kline_transformer.layers.1.norm1.weight f4 [5]
0.95674163 0.9899137 1.0021689 0.9915385 1.032021
00000000: 05ed 743f fc6a 7d3f 1247 803f 78d5 7d3f
00000010: 4419 843f

kline_transformer.layers.1.norm1.bias f4 [5]
-5.7890888e-05 -0.0055431346 -0.005385506 0.0021521556 0.005197121
00000000: decf 72b8 2fa3 b5bb e678 b0bb 2e0b 0d3b
00000010: 9c4c aa3b

kline_transformer.layers.1.norm2.weight f4 [5]
0.9813227 1.0086349 0.99470955 1.0083778 0.9939369
00000000: f737 7b3f f31a 813f 49a5 7e3f 8612 813f
00000010: a672 7e3f

kline_transformer.layers.1.norm2.bias f4 [5]
0.0004996189 0.00037837194 0.0006235556 0.00047415684 -0.0009579451
00000000: dbf8 023a 3960 c639 1c76 233a 4198 f839
00000010: 9c1e 7bba

report_fc.weight f4 [128, 768]
-0.034369543 -0.004456962 0.012262217 -0.0328301 0.021965414 0.026507936 0.00047896628 -0.013491023
0.03248169 -0.008576904 0.030683802 -0.019023804 0.0058299964 0.0030259406 0.006432721 0.026353426
-0.035550352 -0.005651566 -0.027378613 -0.002096951 0.035190396 -0.020081738 -0.0013628305 0.024006657
0.029290482 0.034054477 -0.020446291 0.030857978 0.015213822 0.021875868 0.019602554 -0.00865864
0.010259687 -0.009794536 -0.0006051685 -0.012352596 -0.03436304 -0.007472854 0.0279422 0.013989354
0.019217128 0.026032362 -0.0004586766 0.005480266 -0.007961136 -0.005077249 0.017243087 -0.008832718
-0.015144547 -0.026265444 -0.018050166 0.0016587226 -0.015771909 -0.0044160737 0.028724607 -0.007832007
0.014280794 -0.0073044645 0.0023731494 0.020062758 0.01929464 -0.02417216 0.008084773 0.027396608
-0.013076503 0.012734698 -0.009773864 -0.024203917 0.00075480406 0.00047715468 0.0022520043 0.0077402703
-0.02130693 -0.025107104 -0.027844401 0.0072320905 -0.007687536 -0.022173734 0.0018704814 0.033250935
-0.033480957 -0.015972517 -0.004768927 0.018472057 -0.032951813 0.04175061 0.00062785717 0.021220747
-0.0020435797 0.06639313 0.03189529 0.016115038 -0.010978915 0.039415304 -0.0061800643 0.018398112
-0.021774633 -0.003117364 -0.012989284 0.015222982 -0.032404024 -0.017762253 -0.01956108 -0.00033513884
0.008539307 0.030395592 0.028057413 0.030588562 0.03210515 -0.004749253 -0.008005275 -0.014686718
-0.033539206 -0.02530359 -0.0028710398 -0.014591236 0.02577807 -0.028201139 0.0061054486 0.00596431
-0.035142522 0.01482492 0.030972611 -0.0130715305 -0.026711546 -0.008939853 -0.028127484 0.017865648
0.00042430908 -0.027922941 0.003576588 -0.028481599 0.019429661 0.0122002885 -0.011668609 0.014351636
-0.009177762 -0.030427733 0.009828841 -0.022715181 -0.021598667 -0.003811023 0.006760365 -0.029945794
0.025391722 0.003200555 0.028415436 0.003108243 0.02046759 0.004083254 0.018690245 -0.023027858
0.03389857 -0.0026608692 0.015994826 -0.014953586 -0.015269039 -0.021274809 -0.015858382 0.031172825
0.01615999 0.024463238 -0.011738867 -0.01720987 -0.018120356 -0.035593607 -0.03440216 0.019672213
-0.021668911 -0.029556965 0.009865081 -0.016829357 0.029326208 -0.011157006 0.011384807 0.008356028
-0.036135715 0.016405772 -0.036717713 0.028927863 0.024856826 0.023014223 -0.0046885866 0.012912481
0.02768913 -0.0007786249 0.027985513 -0.02083242 -0.029604303 0.0065768342 0.025471542 -0.0056971856
-0.036643486 0.03076878 0.012066541 0.009875495 -0.020983776 -0.012361354 -0.03570672 -0.015456494
0.004967066 -0.034495365 0.02459128 -0.015391205 -0.022239087 -0.002084679 0.004599271 0.0029978482
-0.0045010606 0.005963217 -0.04148439 0.03410636 0.013448695 -0.031969894 0.019523723 0.016888792
0.007895571 0.010815684 -0.020148063 -0.019195793 -0.0694103 0.0063418597 -0.021983827 -0.0020099455
0.023774391 -0.012967789 -0.0066557466 0.010307122 0.006306941 -0.029330809 0.014632914 0.027178125
-0.027878113 0.03313652 -0.019252053 0.02231047 0.029947942 -0.018156622 0.01401065 -0.023985185
0.013635638 -0.010847273 -0.02843646 0.028789608 0.03030723 0.02105125 0.02311061 -0.0352539
-0.0045045163 -0.02581582 0.012704808 0.011752709 0.008134441 -0.00666001 -0.010543973 0.03579942
00000000: 14c7 0cbd b50b 92bb 77e7 483c db78 06bd
00000010: d0f0 b33c 2c27 d93c c41d fb39 7409 5dbc
00000020: 850b 053d 2586 0cbc 995c fb3c cfd7 9bbc
00000030: 8e09 bf3b dc4e 463b 93c9 d23b 24e3 d73c
00000040: 3f9d 11bd c630 b9bb 1d49 e0bc 006d 09bb
00000050: ce23 103d 7582 a4bc 01a1 b2ba 9ca9 c43c
00000060: 98f2 ef3c b57c 0b3d fb7e a7bc dfc9 fc3c
00000070: 6543 793c 0535 b33c 8995 a03c f8dc 0dbc
00000080: 3f18 283c 4379 20bc 2ca4 1eba 8b62 4abc
00000090: 42c0 0cbd d8de f4bb 0ae7 e43c 9a33 653c
000000a0: 3d6d 9d3c d241 d53c 887a f0b9 ce93 b33b
000000b0: 6d6f 02bc 0d5f a6bb 6041 8d3c 1bb7 10bc
000000c0: d620 78bc a12a d7bc f1dd 93bc 7f69 d93a
000000d0: 1734 81bc b6b4 90bb de4f eb3c d151 00bc
000000e0: fef9 693c 4a5a efbb d786 1b3b a75a a43c
000000f0: cb0f 9e3c b204 c6bc ff75 043c da6e e03c
00000100: d43e 56bc 32a5 503c 8f22 20bc 4b47 c6bc
00000110: 0bde 453a 9e2a fa39 5d96 133b 18a2 fd3b
00000120: df8b aebc 6aad cdbc f119 e4bc 2cfb ec3b
00000130: bae7 fbbb b1a5 b5bc f12a f53a 2232 083d
00000140: 5423 09bd ccd8 82bc a944 9cbb b652 973c
00000150: 7bf8 06bd b002 2b3d c896 243a 22d7 ad3c
00000160: 94ed 05bb 1ff9 873d a3a4 023d af03 843c
00000170: e8e0 33bc f171 213d 2382 cabb a3b7 963c
00000180: b760 b2bc b04c 4cbb 01d1 54bc d069 793c
00000190: 15ba 04bd 2582 91bc 8f3e a0bc 93b5 afb9
000001a0: 73e8 0b3c 2d00 f93c a9d8 e53c dd94 fa3c
000001b0: b180 033d 9f9f 9bbb 8f28 03bc 8fa0 70bc
000001c0: 6860 09bd 7949 cfbc 0e28 3cbb 1410 6fbc
000001d0: 882c d33c 1306 e7bc 3710 c83b 4270 c33b
000001e0: 9bf1 0fbd 39e4 723c 46ba fd3c f929 56bc
000001f0: 2cd2 dabc 7678 12bc 9c6b e6bc fb5a 923c
00000200: cd75 de39 a7be e4bc 3065 6a3b 3e52 e9bc
00000210: f42a 9f3c b8e3 473c b22d 3fbc 2023 6b3c
00000220: 535e 16bc 9543 f9bc 2609 213c 3015 babc
00000230: b0ef b0bc 5bc2 79bb 0d86 dd3b e250 f5bc
00000240: 4d02 d03c 67c0 513b 7dc7 e83c aab3 4b3b
00000250: a6ab a73c d1cc 853b 491c 993c eba4 bcbc
00000260: 3ad9 0a3d fa61 2ebb 9507 833c e3ff 74bc
00000270: fe2a 7abc 8248 aebc 70e9 81bc 275e ff3c
00000280: f561 843c 2167 c83c 6054 40bc b7fb 8cbc
00000290: 2471 94bc 9aca 11bd 48e9 0cbd 9f27 a13c
000002a0: 0083 b1bc 7321 f2bc 26a1 213c b8dd 89bc
000002b0: 843d f03c e0cb 36bc 5787 3a3c b9e7 083c
000002c0: 0b03 14bd 6665 863c 5065 16bd 20fa ec3c
000002d0: 8ba0 cb3c 5388 bc3c b7a2 99bb df8e 533c
000002e0: 50d4 e23c a21c 4cba e041 e53c c0a8 aabc
000002f0: b984 f2bc 7c82 d73b b2a9 d03c 75af babb
00000300: 7b17 16bd cf0e fc3c beb2 453c d4cc 213c
00000310: 2be6 abbc 4787 4abc 3641 12bd 3c3d 7dbc
00000320: c5c2 a23b 034b 0dbd a773 c93c 652b 7cbc
00000330: bf2e b6bc 1c9f 08bb 7bb5 963b 8c77 443b
00000340: a27d 93bb 1767 c33b 89eb 29bd 1cb3 0b3d
00000350: ea57 5c3c ddf2 02bd 37f0 9f3c 5d5a 8a3c
00000360: 6d5c 013c 4434 313c 8d0d a5bc 7f40 9dbc
00000370: fd26 8ebd 60cf cf3b 6d17 b4bc 4ab9 03bb
00000380: 83c2 c23c d976 54bc 7318 dabb 34df 283c
00000390: 75aa ce3b 2a47 f0bc e4be 6f3c a9a4 de3c
000003a0: a460 e4bc 29ba 073d 7bb6 9dbc 72c4 b63c
000003b0: 6355 f53c 32bd 94bc ed8c 653c 947c c4bc
000003c0: 0368 5f3c c3b8 31bc 94f3 e8bc 2fd8 eb3c
000003d0: de46 f83c ac73 ac3c 7652 bd3c 6566 10bd
000003e0: 9f9a 93bb b37b d3bc d427 503c 6f8e 403c
000003f0: 5246 053c 373c dabb a1c0 2cbc 6aa2 123d

report_fc.bias f4 [128]
-0.00060830795 0.027662365 0.030111399 0.023194237 -0.006153382 -0.024258152 -0.004558267 0.027295936
-0.012939769 -0.01704005 0.029606463 -0.007838732 -0.02222698 -0.009389326 0.033733923 -0.0095691625
-0.009539033 0.035034657 0.006314146 0.030468114 0.013614089 0.008545183 0.02010012 -0.0041638324
0.004567689 -0.02454458 0.023463313 0.012006351 -0.029147105 -0.022843573 0.03396151 -0.030311942
0.01592828 -0.028404895 -0.030257817 0.0017353401 -0.029135482 -0.02019028 2.8657449e-05 0.023551155
0.010485997 -0.0030184411 -0.025450466 -0.0021882947 0.0025286404 -0.037917655 -0.02576886 -0.027231796
-0.003379056 0.03144994 0.031121725 -0.010194549 0.009896365 0.008828934 -0.0047573573 -0.008426668
-0.022217598 0.029253358 -0.012314593 -0.029581537 -0.011089439 -0.0023655545 -0.015272929 0.009837922
0.033055495 -0.020039044 0.010386254 0.017023845 -0.011805211 -0.00055001036 -0.023439262 0.03147553
-0.008227633 0.01699775 0.016151877 0.0097781615 -0.014901097 0.008402695 -0.018639825 0.032482497
-0.0044784597 0.032301314 -0.030153563 0.012230647 0.012181978 0.015601384 0.007575074 0.011173314
0.025164407 -0.0042568743 -0.017306555 0.025188154 -0.0031979054 -0.020378545 0.009599579 0.00017430566
-0.036637574 0.03581205 0.005132514 -0.028195243 -0.036097728 0.01878718 0.016769769 0.033613008
0.017295504 -0.0094773555 -0.0021612395 -0.017557655 -0.03251488 0.033280704 -0.022257723 -0.012149755
0.013870996 0.02592971 -0.017925907 -0.018519545 0.020846277 0.0034311854 -0.03374376 0.014939483
9.3199065e-05 0.029057853 -0.03550269 -0.003400031 0.019323157 0.03340066 0.01628531 -0.020315884
00000000: db76 1fba 2f9c e23c 2eac f63c d701 be3c
00000010: 4fa2 c9bb 08b9 c6bc 845d 95bb ba9b df3c
00000020: 5301 54bc 9397 8bbc 4189 f23c 066e 00bc
00000030: 5b15 b6bc b0d5 19bc 952c 0a3d fac7 1cbc
00000040: 9b49 1cbc 8080 0f3d e5e6 ce3b 4498 f93c
00000050: a10d 5f3c 1801 0c3c 02a9 a43c c270 88bb
00000060: 8dac 953b b711 c9bc 2236 c03c 49b6 443c
00000070: e9c5 eebc 7222 bbbc 391b 0b3d c050 f8bc
00000080: 067c 823c 62b1 e8bc 3edf f7bc 5a74 e33a
00000090: 89ad eebc 1666 a5bc 6765 f037 5aee c03c
000000a0: 76cd 2b3c 0ad1 45bb 7f7d d0bc 7e69 0fbb
000000b0: 8cb7 253b 8b4f 1bbd 3719 d3bc 3715 dfbc
000000c0: 2773 5dbb a7d1 003d fdf2 fe3c 0a07 27bc
000000d0: 5d24 223c 3ca7 103c 9be3 9bbb 0210 0abc
000000e0: ae01 b6bc bda4 ef3c 26c3 49bc fb54 f2bc
000000f0: 7ab0 35bc 6b07 1bbb 4f3b 7abc 3c2f 213c
00000100: 3365 073d ec28 a4bc 1b2b 2a3c 9775 8b3c
00000110: a56a 41bc 922e 10ba b203 c0bc 7cec 003d
00000120: 32cd 06bc de3e 8b3c f150 843c 9534 203c
00000130: bb23 74bc 75ab 093c 8cb2 98bc 5e0c 053d
00000140: 0bc0 92bb 624e 043d 9b04 f7bc 0d63 483c
00000150: eb96 473c f39c 7f3c 5438 f83b 4710 373c
00000160: 9625 ce3c 407d 8bbb 7ac6 8dbc 6357 ce3c
00000170: f393 51bb e8f0 a6bc 8d47 1d3c d2c5 3639
00000180: 4811 16bd a8af 123d a62e a83b b6f9 e6bc
00000190: 36db 13bd 92e7 993c c160 893c cbad 093d
000001a0: 4daf 8d3c e946 1bbc 95a3 0dbb 12d5 8fbc
000001b0: 532e 05bd 5951 083d d455 b6bc c40f 47bc
000001c0: 2d43 633c 8b6a d43c 5ad9 92bc 4db6 97bc
000001d0: d0c5 aa3c bddd 603b e636 0abd bcc4 743c
000001e0: de73 c338 bc0a ee3c 456b 11bd 0ed3 5ebb
000001f0: 994b 9e3c 21cf 083d c568 853c 7f6d a6bc
