models/nvda_model.pth (torch, 416418 bytes, 27 tensors)

kline_transformer.layers.0.self_attn.in_proj_weight f4 [15, 5]
0	0xbecf532b	-0.4049314
1	0xbf0db281	-0.553505
2	0x3e4282b3	0.1899517
3	0x3dbfb15b	0.0936
4	0x3d3e792e	0.046502285
5	0x3e8346c3	0.25639924
6	0xbefdf988	-0.4960444
7	0x3e4041d6	0.18775114
8	0x3bd10108	0.0063782968
9	0xbef9fb2d	-0.48824444
10	0x3f082611	0.53183085
11	0xbc49c4f5	-0.012315025
12	0x3ed5259e	0.41630262
13	0x3ee89cae	0.45432037
14	0xbda8c65c	-0.08240959
15	0x3e052b82	0.13004878
16	0x3f00bf81	0.5029221
17	0xbea0142a	-0.31265384
18	0x3da0f6ae	0.078595504
19	0xbe318a14	-0.17337829
20	0x3c77eba0	0.015131861
21	0x39c8f2f3	0.00038327984
22	0xbdc02e80	-0.09383869
23	0x3eabee69	0.3358033
24	0xbe8311df	-0.25599572
25	0x3ebd22cc	0.3694061
26	0x3ef3ad3f	0.47593114
27	0x3e270b26	0.16312847
28	0xbdcadc0d	-0.099052526
29	0x3efc7322	0.4930659
30	0xbe1accbd	-0.15117164
31	0xbe4314a8	-0.19050848
32	0xbed33421	-0.4125071
33	0x3f045a45	0.5170024
34	0xbe885c50	-0.2663293
35	0xbdcd490d	-0.10023699
36	0xbeece9ff	-0.46272275
37	0xbe2db1d8	-0.16962373
38	0xbe95217b	-0.29127106
39	0x3de5346d	0.1119164
40	0x3de50a3b	0.11183592
41	0xbe49ecea	-0.19719282
42	0x3e9925b5	0.2991158
43	0xbeb9c329	-0.36281708
44	0xbef59a61	-0.47969344
45	0x3ec267e0	0.37969875
46	0x3e35f7c1	0.17770292
47	0xbf0483a3	-0.5176336
48	0xbdc16ad2	-0.094442025
49	0xbe14a1f5	-0.14514907
50	0xbe594a1d	-0.21219678
51	0x3e1f40fd	0.15552135
52	0x3da386d5	0.079847015
53	0xbdcc36ff	-0.09971427
54	0xbecc9f3b	-0.39965233
55	0x3d4feede	0.05076491
56	0x3edd8b75	0.4327046
57	0x3e452540	0.19252491
58	0xbf0448f5	-0.51673824
59	0xbd52c0ee	-0.051453523
60	0x3db0382b	0.08604463
61	0xbdc352c6	-0.09537272
62	0xbe1f2afc	-0.15543741
63	0xbd668ffd	-0.05628966
64	0xbe25daeb	-0.16196792
65	0x3f0a4e79	0.5402599
66	0x3dfa490e	0.12220965
67	0xbe9bbee9	-0.3041909
68	0x3dc6bc61	0.09703899
69	0x3e7a50d4	0.24444896
70	0xbe288926	-0.16458568
71	0xbed0fe15	-0.4081885
72	0x3e5d728f	0.21625732
73	0x3eaa1d0f	0.33225295
74	0x3e8de921	0.27716926

kline_transformer.layers.0.self_attn.in_proj_bias f4 [15]
0	0x3b94b1c0	0.004537791
1	0xbb4516b8	-0.0030073356
2	0xbc8858ae	-0.016643848
3	0xb9b59db5	-0.0003464051
4	0xba2a5661	-0.0006497857
5	0x36d586a0	6.363567e-06
6	0x3746e6b1	1.1855432e-05
7	0xb7f9b07e	-2.9765299e-05
8	0xb647a764	-2.9750745e-06
9	0xb7200480	-9.537791e-06
10	0xbb23cb0e	-0.0024992856
11	0xbabfd20c	-0.0014634742
12	0x39bd1bb7	0.00036069538
13	0xbb443c74	-0.002994326
14	0x3bc3ad4a	0.0059715854

kline_transformer.layers.0.self_attn.out_proj.weight f4 [5, 5]
0	0xbec01803	-0.3751832
1	0xbed501c0	-0.41602898
2	0xbeb1db35	-0.34737554
3	0x3e8ee558	0.2790935
4	0x3e827016	0.2547614
5	0x3d401489	0.046894584
6	0x3dd8b811	0.10581983
7	0xbe6a99c6	-0.22910222
8	0x3ee39547	0.44449827
9	0xbd193735	-0.037406165
10	0x3ed51c99	0.4162338
11	0x3ea04295	0.31300798
12	0x3eb76979	0.35822657
13	0xbd4a56b1	-0.04939908
14	0x3e6d0968	0.2314812
15	0x3e865ebb	0.2624415
16	0x3ee33e40	0.4438343
17	0xbe9c1377	-0.304836
18	0x3ece74aa	0.40323383
19	0x3ddea648	0.108715594
20	0xbed77543	-0.4208165
21	0xbd94804c	-0.07251033
22	0xbe469a3f	-0.19394778
23	0xbe16714b	-0.14691655
24	0x3e99bf25	0.30028644

kline_transformer.layers.0.self_attn.out_proj.bias f4 [5]
0	0x3a34b28f	0.00068930624
1	0x3900c399	0.00012279897
2	0x3b1981cf	0.002342332
3	0xbae77ecf	-0.0017661693
4	0x3c4b15c7	0.012395329

kline_transformer.layers.0.linear1.weight f4 [128, 5]
0	0xbe1bf190	-0.15228868
1	0xbee08172	-0.4384876
2	0x3d09b213	0.03361709
3	0x3ddef004	0.10885623
4	0xbe936b07	-0.28792593
5	0xbe0f13bf	-0.13972376
6	0xbdbfca6b	-0.0936478
7	0xbe092264	-0.13392025
8	0x3bcc5bbe	0.0062365225
9	0xbe91d141	-0.2847996
10	0xbe255bc1	-0.16148283
11	0xbe0cd68c	-0.13753718
12	0x3e150e12	0.14556149
13	0x3e30002c	0.17187566
14	0xbed1ee88	-0.41002297
15	0x3edb1673	0.42790565
16	0xbed13d4c	-0.40867078
17	0xbe42271b	-0.1896023
18	0xbeba9ea4	-0.36449158
19	0x3d87bdd9	0.066280074
20	0x3e87ce85	0.2652475
21	0x3e9f01af	0.31055972
22	0xbeae45c8	-0.34037614
23	0x3ed2ee15	0.41197267
24	0xbe29d392	-0.16584614
25	0x3e854d29	0.2603543
26	0xbdad34ca	-0.08457334
27	0xbdffc930	-0.12489545
28	0xbec156e3	-0.37761602
29	0x3ed3f208	0.41395593
30	0x3e3cfde1	0.18456222
31	0xbecb3140	-0.39686012
32	0xbc8a6357	-0.016893072
33	0x3ea80702	0.32817847
34	0xbeb92453	-0.36160526
35	0xbe88c113	-0.26709804
36	0x3e82f011	0.2557378
37	0x3ec31625	0.38102832
38	0x3ea2a310	0.31765032
39	0xbd7b62d5	-0.06137355
40	0xbe712c07	-0.23551951
41	0x3de27c81	0.110589035
42	0x3e60d9c3	0.2195807
43	0xbea14aee	-0.3150248
44	0xbbffc17a	-0.0078050466
45	0xbeb085be	-0.34477037
46	0xbec3fa4a	-0.38276893
47	0x3df459c3	0.11931183
48	0x3e75c826	0.24002132
49	0x3e389559	0.18025722
50	0xbea64677	-0.32475635
51	0x3dae02a7	0.084966
52	0xbd998e47	-0.074978404
53	0x3e8f0f23	0.27941236
54	0x3e463e46	0.19359693
55	0xbe48cf23	-0.19610266
56	0xbe803416	-0.25039738
57	0xbe242756	-0.1603063
58	0x3e813349	0.2523444
59	0x3d71f883	0.05907489
60	0x3ec7c8fd	0.3902053
61	0x3dfb6b72	0.12276353
62	0xbe820c40	-0.2539997
63	0xbd04618f	-0.0323196
64	0x3e35947d	0.17732425
65	0xbdc2bbd3	-0.09508481
66	0x3eddc7f8	0.43316627
67	0xbeb6069a	-0.35551912
68	0x3c0396d3	0.008031565
69	0xbe1f88c0	-0.1557951
70	0xbdb080e8	-0.08618337
71	0x3d3fc8d8	0.0468224
72	0x3e9dd448	0.3082602
73	0xbe8977ee	-0.26849312
74	0xbe07f434	-0.1327675
75	0xbe1bc782	-0.15212825
76	0x3e80593a	0.25068074
77	0xbe540869	-0.20706333
78	0xbc1887ef	-0.009309753
79	0xbedb928e	-0.4288525
80	0xbebaed36	-0.36509103
81	0xbe74f7e1	-0.23922683
82	0xbedf9508	-0.4366839
83	0x3dd0b6b3	0.10191097
84	0x3ea4dd91	0.32200292
85	0xbe25dc6a	-0.16197363
86	0xbe42d9e9	-0.19028439
87	0x3ebbb6d4	0.36662924
88	0xbede47a0	-0.4341402
89	0xbe289a1a	-0.16465035
90	0x3ce2e64b	0.027697703
91	0x3e2ddd69	0.16978993
92	0xbe80f0c9	-0.25183704
93	0x3ec603e7	0.38674852
94	0x3d9adb61	0.075613745
95	0xbea1f1b0	-0.31629705
96	0x3e4d99a9	0.20078148
97	0xbeac5193	-0.33655986
98	0x3e8c34ba	0.27383977
99	0xbd757e21	-0.05993474
100	0x3eb9f266	0.36317748
101	0xbde230fa	-0.11044498
102	0xbcfd8a51	-0.030949743
103	0xbd9b3fbd	-0.075805165
104	0xbe952502	-0.29129797
105	0x3ea6fef7	0.32616398
106	0xbe39ada0	-0.18132639
107	0xbd3c77a1	-0.046012525
108	0xbe7b9838	-0.24569786
109	0x3da20c79	0.07912535
110	0x3e9faf57	0.3118846
111	0x3e8eef68	0.27917027
112	0x3e93525c	0.28773773
113	0x3da05298	0.078282535
114	0x3d1ca9cd	0.038247872
115	0xbed70931	-0.419992
116	0xbd893888	-0.067002356
117	0x3e2a52a5	0.16633089
118	0x3e8099ba	0.25117284
119	0xbd96654d	-0.0734354
120	0xbe35e1bf	-0.17761897
121	0x3ed6c72b	0.41948828
122	0x3e7deb3a	0.24796763
123	0x3c9f89ab	0.019474825
124	0x3e1cf22f	0.1532676
125	0x3ed37efd	0.41307822
126	0x3d8c3e2d	0.068477966
127	0x3e2f90e4	0.17145115
128	0x3e2de4a1	0.16981746
129	0xbde39188	-0.11111742
130	0xbe312a42	-0.17301276
131	0xbe8849d6	-0.26618832
132	0xbeb2b5ac	-0.3490423
133	0xbe6e80c7	-0.23291312
134	0x3b6b0268	0.0035859589
135	0x3d67f9fd	0.05663489
136	0x3ec73393	0.38906536
137	0xbe55511f	-0.20831726
138	0xbdb2c8be	-0.08729695
139	0xbe678a00	-0.22611237
140	0xbe792b12	-0.24332836
141	0xbe0742e5	-0.13209112
142	0xbec95415	-0.39321962
143	0xbe78114e	-0.24225351
144	0x3d6e629f	0.05819952
145	0x3eec023c	0.46095455
146	0xbe159525	-0.14607675
147	0xbe61d8e2	-0.2205539
148	0xbe75350a	-0.23946014
149	0x3e2778d4	0.16354686
150	0x3e989a00	0.29804993
151	0x3d4f48d0	0.05060655
152	0xbd2d5712	-0.042319365
153	0x3e693349	0.2277347
154	0x3e215a8c	0.15757197
155	0xbebcfa8a	-0.36909896
156	0x3ec23236	0.37928933
157	0xbeb12b2c	-0.3460325
158	0x3e35defb	0.17760842
159	0xbd56e544	-0.05246474
160	0x3e93b943	0.2885228
161	0xbda9901d	-0.082794406
162	0x3dbfd533	0.093668364
163	0xbe08b039	-0.13348474
164	0xbe8534a4	-0.26016724
165	0xbdadbb57	-0.08482998
166	0x3edba8dc	0.42902267
167	0x3eda3f61	0.4262648
168	0xbde3be0a	-0.111202314
169	0xbee26d89	-0.44224194
170	0x3debc310	0.115118146
171	0x3db47f1a	0.08813305
172	0x3e97dc9c	0.296605
173	0x3df9ba37	0.12193721
174	0x3ee08729	0.4385312
175	0xbc5c86fd	-0.013459918
176	0xbdad065b	-0.08448478
177	0xbe03fcd2	-0.12889412
178	0xbd06fb27	-0.03295436
179	0x3ea31b5a	0.31856805
180	0xbea0fbdc	-0.31442153
181	0x3e178133	0.1479538
182	0x3dc4700f	0.09591686
183	0x3ea6725b	0.3250912
184	0xbc5f0694	-0.013612408
185	0xbee953f6	-0.4557187
186	0xbe2c120d	-0.16803761
187	0xbe823f48	-0.25438905
188	0xbdeb2bce	-0.114829645
189	0xbdcf171e	-0.10111831
190	0x3e5838a8	0.21115363
191	0xbd251cbf	-0.040310618
192	0x3dd5c669	0.10438234
193	0xbecfc14c	-0.4057716
194	0xbecd0e68	-0.40050054
195	0x3d1ac536	0.03778573
196	0x3ebccf4d	0.36876908
197	0x3d4ea23a	0.05044768
198	0xbeda8080	-0.42676163
199	0x3ee1797d	0.44038
200	0x3d60157b	0.054707985
201	0xbe891fc0	-0.26782036
202	0xbe7287ba	-0.23684588
203	0xbdd54ed0	-0.10415423
204	0xbe8b6e65	-0.27232662
205	0x3e47c34f	0.19508098
206	0x3ee6ef99	0.45104674
207	0x3e82e715	0.25566927
208	0xbe80c908	-0.25153375
209	0x3de36a46	0.111042544
210	0x3da4a809	0.08039863
211	0xbd733328	-0.05937496
212	0xbcc21a03	-0.023694044
213	0xbec304ba	-0.38089544
214	0x3e24d636	0.1609734
215	0x3eb218d6	0.34784573
216	0xbea22565	-0.31669155
217	0xbed97244	-0.4246999
218	0x3eb68298	0.3564651
219	0xbc0726c4	-0.008248989
220	0xbe4efdac	-0.20213956
221	0xbec2ac77	-0.38022205
222	0x3ecbffbd	0.3984355
223	0x3de8bdbb	0.11364313
224	0x3c3b763a	0.011441762
225	0x3e64f37a	0.22358504
226	0xbe57fa23	-0.21091513
227	0x3ebb7cf9	0.36618784
228	0xbc2be8be	-0.010492502
229	0x3eaa84d2	0.3330446
230	0x3c0abe23	0.008468184
231	0xbec7d324	-0.39028275
232	0x3eb7550b	0.3580707
233	0xbec01913	-0.3751913
234	0xbc9ccc72	-0.019140456
235	0x3eba6c89	0.3641093
236	0xbd5afb2e	-0.0534622
237	0x3e381365	0.17976148
238	0x3ea0f3a8	0.31435895
239	0xbe8b0013	-0.27148494
240	0x3db9f65d	0.09080193
241	0xbd9a3d7c	-0.075312585
242	0x3dc01a40	0.09380007
243	0xbe286db8	-0.16448104
244	0xbe221513	-0.15828352
245	0xbe98e247	-0.29860136
246	0x3d96b0b0	0.07357919
247	0x3ea76d27	0.32700464
248	0x3d8322e2	0.06403138
249	0x3dafa1b2	0.08575763
250	0xbebe948f	-0.37222716
251	0x3e21f288	0.15815175
252	0xbd26ab2f	-0.040690597
253	0x3eba78d6	0.36420316
254	0x3e8d81e5	0.27638164
255	0xbe6c2b69	-0.23063435

kline_transformer.layers.0.linear1.bias f4 [128]
0	0x3d6bf4fc	0.057606682
1	0xbe35a437	-0.17738424
2	0x3ed7afc2	0.4212628
3	0x3cce5791	0.02518824
4	0xbe1c9f1d	-0.15295072
5	0x3ec9cc2c	0.39413583
6	0x3d68ae52	0.05680687
7	0xbe4e071b	-0.20119898
8	0x3dd6b05d	0.104828574
9	0xbeda110b	-0.42591128
10	0x3d2ee855	0.042702038
11	0xbe364dd0	-0.1780312
12	0xbc59af41	-0.013286413
13	0x3d02da3f	0.031946417
14	0xbeda8cb3	-0.4268547
15	0x3e85d54e	0.261393
16	0xbda0629e	-0.0783131
17	0x3e55ac0a	0.20866409
18	0xbe836d3e	-0.25669283
19	0x3eaa3cbc	0.33249462
20	0x3eb909bc	0.3614024
21	0xbe8a8d65	-0.27061
22	0x3d9cbd68	0.07653314
23	0x3eb44537	0.35209057
24	0x3e17095a	0.14749661
25	0xbe461baf	-0.19346498
26	0x3ee0b5fb	0.4388884
27	0x3ed1dea6	0.4099018
28	0x3e866349	0.26247624
29	0xbec2b3b8	-0.3802774
30	0x3eab3a17	0.33442757
31	0x3e2b8575	0.16750129
32	0x3ea0d876	0.31415147
33	0xbeacc10e	-0.3374104
34	0x3c7c9090	0.015415326
35	0x3e643665	0.22286375
36	0x3da81f1c	0.08209059
37	0xbe1ca0e7	-0.15295754
38	0xbe89c739	-0.26909807
39	0x3e11bc72	0.14232042
40	0x3df4ca87	0.119526915
41	0x3e050161	0.12988807
42	0x3edf0edb	0.4356602
43	0x3e3ff7d7	0.18746887
44	0xbeb65001	-0.35607913
45	0xbe5e95fc	-0.21736902
46	0xbe32e9b5	-0.17471965
47	0x3e896c17	0.26840279
48	0x3d40f32a	0.0471069
49	0x3eb94b21	0.3619013
50	0x3df2bdf0	0.11852634
51	0x3e41f0c2	0.18939498
52	0x3dc06630	0.09394491
53	0x3e5ab1ed	0.21356936
54	0x3d67873b	0.05652545
55	0xbdf211df	-0.11819815
56	0x3aad89ba	0.0013239898
57	0x3ecd4a87	0.40095922
58	0xbee054b9	-0.43814638
59	0xbea7be7f	-0.32762524
60	0x3e8d2d06	0.27573413
61	0x3db00c5a	0.08596106
62	0xbe63b091	-0.22235323
63	0x3d9ddecf	0.07708513
64	0xbe028568	-0.12746203
65	0xbc76632e	-0.015038295
66	0x3ec0bc2d	0.37643567
67	0xbeb3b4a1	-0.35098746
68	0x3ea294b6	0.31754082
69	0xbed335de	-0.41252035
70	0xbdd1ca51	-0.10243667
71	0xbe6783ca	-0.22608867
72	0xbe42f671	-0.19039322
73	0x3dd5300b	0.10409554
74	0xbe073d90	-0.13207078
75	0x3edd5085	0.43225494
76	0x3e9084ce	0.28226322
77	0xbe7a0a64	-0.24418026
78	0x3e471c49	0.19444384
79	0xbd214f47	-0.039382245
80	0x3ebd7e94	0.37010634
81	0x3cb6d8f4	0.022320248
82	0xbea0803a	-0.3134783
83	0x3dcda534	0.100412756
84	0x3eadd003	0.33947763
85	0xbe1b778f	-0.15182327
86	0x3e9769d4	0.29572928
87	0xbdd98854	-0.10621706
88	0x3a250b8c	0.0006295971
89	0x3e33fff7	0.17578112
90	0xbe751716	-0.23934588
91	0x3e63026a	0.2216889
92	0x3e62d0c4	0.2214995
93	0x3eaa5d79	0.3327444
94	0xbe658c6c	-0.22416848
95	0x3eab30a2	0.3343554
96	0x3e5d343f	0.21601962
97	0xbeaa5201	-0.3326569
98	0x3de8a123	0.113588594
99	0x3e4f430e	0.20240423
100	0x3e23c017	0.15991245
101	0xbe962b0d	-0.2932972
102	0x3d8a9615	0.06766907
103	0xbe231caf	-0.1592891
104	0xbd853124	-0.065035135
105	0x3dbf36a2	0.09336592
106	0xbe07a721	-0.13247348
107	0x3dda8310	0.106695294
108	0xbe984d60	-0.29746532
109	0x3ebec87f	0.3726234
110	0xbeb3065b	-0.34965786
111	0x3bfbc4ff	0.007683396
112	0x3e59be60	0.21264029
113	0x3d4f64c1	0.050633196
114	0x3dfb7009	0.122772284
115	0x3e3942ef	0.1809194
116	0xbed9695d	-0.42463198
117	0x3ea401ae	0.32032531
118	0x3ea3c3c5	0.31985298
119	0x3e051dba	0.12999621
120	0xbdd5d3b7	-0.10440772
121	0xbe533adc	-0.20627922
122	0x3e4413f3	0.19148235
123	0xbe4731d5	-0.19452603
124	0xbe08860e	-0.13332388
125	0xbde00473	-0.109383486
126	0xbd991d93	-0.07476344
127	0x3de12e31	0.109951384

kline_transformer.layers.0.linear2.weight f4 [5, 128]
0	0xbd017590	-0.031606257
1	0x3dac16ee	0.08402811
2	0x3bc69fd6	0.0060615344
3	0xbba14a28	-0.00492217
4	0xbd0f4165	-0.034974474
5	0xbd8a1e5f	-0.06744074
6	0x3d0aabaf	0.033855136
7	0x3c53bcc4	0.012923423
8	0x3cff0816	0.031131785
9	0xbd8936e3	-0.06699922
10	0xbd211943	-0.039330732
11	0xbd73ea52	-0.059549637
12	0x3beb7c8d	0.0071864785
13	0xbc6526f0	-0.013986334
14	0x3db8ebb3	0.09029331
15	0xbcd4e5a5	-0.02598841
16	0x3d51d2e1	0.0512265
17	0x3d8f8ea3	0.07009628
18	0x3ccf0fd1	0.025276097
19	0x3da936e4	0.08262423
20	0xbd92a2e9	-0.07159979
21	0xbdcc9d3f	-0.0999093
22	0xbd8d3d0c	-0.068964094
23	0x3cbdf599	0.0231884
24	0xbcdc34f7	-0.026880724
25	0x3db4005b	0.0878913
26	0x3dad7b2b	0.08470758
27	0xbda02773	-0.07820024
28	0xbcb7e63e	-0.022448655
29	0xbc65c773	-0.014024603
30	0xbb488430	-0.0030596368
31	0x3c02ebe8	0.007990815
32	0xbd4b5cc6	-0.049649023
33	0xbd93ce37	-0.07217067
34	0xba16d470	-0.00057537016
35	0x3c763444	0.0150271095
36	0x3ced8dbd	0.02899825
37	0x3d918a37	0.071064405
38	0xbbd95f61	-0.0066336845
39	0xbd9645f6	-0.07337563
40	0xbd4eb4be	-0.050465338
41	0x3d0d5841	0.034507994
42	0x3da29bbd	0.07939861
43	0xbd0f892d	-0.03504293
44	0x3d64b43f	0.05583596
45	0xbbd19fae	-0.006397209
46	0x3d616f41	0.05503774
47	0x3d18290b	0.037148517
48	0x3d1366bc	0.035986647
49	0xbd155e23	-0.03646673
50	0xbd897fa2	-0.06713797
51	0xbd211538	-0.039326876
52	0xbcc42d61	-0.02394742
53	0xbd827f1d	-0.06371901
54	0x3c71ce2f	0.014758631
55	0xbc9634e3	-0.018335765
56	0xbc9f49cc	-0.019444369
57	0xbc108bad	-0.008822364
58	0xbcef43a1	-0.029207053
59	0x3d040f8e	0.032241397
60	0x3da03fbe	0.07824658
61	0x3c61e9bb	0.013788636
62	0x3d071e84	0.032988086
63	0xbd92549c	-0.07145044
64	0xbd57d8aa	-0.05269686
65	0x3cef0f9c	0.029182248
66	0xbc126a5a	-0.008936489
67	0xbb895337	-0.004190828
68	0x3d64e4fa	0.05588243
69	0xbd11d866	-0.035606764
70	0xbdb08a9b	-0.08620187
71	0xbd413b6e	-0.047175817
72	0x3cdd1a9d	0.02699023
73	0x3db9a9ac	0.090655655
74	0xbd1ca677	-0.03824469
75	0xbc918b43	-0.0177666
76	0x3d82f6fc	0.06394765
77	0xbd84a2a4	-0.06476334
78	0x3d675579	0.056477997
79	0x3d1c85d2	0.03821356
80	0x3d63d33e	0.055621378
81	0xbd11c6ea	-0.03559009
82	0xbcd6e67b	-0.026232949
83	0xbd8d98b0	-0.069138885
84	0x3d12a3d3	0.035800766
85	0x3daf29bf	0.08552884
86	0x3cf37c88	0.029722467
87	0x3d136a45	0.03599002
88	0xba898a70	-0.0010493528
89	0xbc82abb9	-0.015951024
90	0xbcae76cb	-0.02129688
91	0xbc5e8d4e	-0.013583494
92	0xbd9c8656	-0.0764281
93	0xbcefce80	-0.029273272
94	0x3d6431fa	0.055711724
95	0x3d5a010e	0.053223662
96	0xbdacf30c	-0.08444795
97	0x3da60799	0.08106918
98	0x3c68b747	0.014203853
99	0xbd4af401	-0.049549107
100	0xbc976fc8	-0.018485919
101	0x3b8acbda	0.004235727
102	0xbd97e57d	-0.07416818
103	0xbd0697a8	-0.032859474
104	0x3daf5506	0.08561139
105	0x3c3e9a0e	0.011633409
106	0xbb9bc41e	-0.0047536036
107	0xbce868a9	-0.028370218
108	0xbd86c1be	-0.06579922
109	0x3d748fa5	0.059707303
110	0x3d7211b5	0.059098918
111	0x3d2bc420	0.041935086
112	0x3d9993b3	0.074988745
113	0xbd869c21	-0.06572748
114	0xbda100b6	-0.07861464
115	0x3db16ba1	0.08663107
116	0xbd1bab8a	-0.03800539
117	0x3d7509ac	0.059823677
118	0x3d002a78	0.0312905
119	0x3d43812c	0.04773061
120	0x3bef641a	0.007305634
121	0x3d3c0433	0.045902442
122	0x3ccae2ce	0.024766352
123	0xbd4d7880	-0.050163746
124	0xbd978e2c	-0.07400164
125	0xbaaa1bfd	-0.0012978312
126	0xbd65090e	-0.05591684
127	0xbd7d86c1	-0.06189609
128	0xbd39de2c	-0.045377895
129	0x3d9f115a	0.077669814
130	0xbda12cd4	-0.078698784
131	0x3c7a0c94	0.015261788
132	0xbd73532d	-0.059405494
133	0xbc0e569c	-0.0086876415
134	0xbcf673de	-0.030084547
135	0xbcb10a08	-0.021611229
136	0xbda198e5	-0.078904904
137	0x3dad355c	0.08457443
138	0xbd179239	-0.037004683
139	0x3c09de49	0.008414813
140	0xbda6c1df	-0.08142447
141	0x3d3ce616	0.046117865
142	0x3aecca16	0.0018065597
143	0xbce186df	-0.027530132
144	0x3d7f8803	0.06238557
145	0xbcb4ea21	-0.022084298
146	0x3d71cc34	0.059032634
147	0x3b8e1bdd	0.0043368177
148	0xbd88d257	-0.06680744
149	0xbd4647a4	-0.048408166
150	0x3d5d64cb	0.0540512
151	0xbd8e4df2	-0.06948461
152	0x3d9ebebb	0.07751223
153	0x3c53257b	0.012887354
154	0x3d9ea9f1	0.077472575
155	0xbd955e9a	-0.072934344
156	0x3ce59a20	0.028027594
157	0x3dbd2789	0.09236056
158	0x3c48caa1	0.012255342
159	0x3d054e60	0.032545447
160	0xbd24c5b7	-0.040227618
161	0x3d06342c	0.0327646
162	0xbd3fb954	-0.046807602
163	0x3d6e3052	0.05815155
164	0xbb9787be	-0.004624336
165	0xbc0809ee	-0.008303149
166	0xbba2ca71	-0.0049679806
167	0x3c06af27	0.0082204705
168	0x3cf98912	0.030460868
169	0x3d4dc993	0.050241064
170	0x3c92dbe0	0.01792711
171	0xbcad9ba6	-0.021192383
172	0xbc70b3f7	-0.014691344
173	0x3cc9ef34	0.024650194
174	0xbccdf5d3	-0.025141632
175	0x3d226112	0.039643355
176	0xbcd24c9d	-0.025671298
177	0xbc73e003	-0.0148849515
178	0x3bf29dc6	0.007404062
179	0xbc12f08f	-0.008968486
180	0x3d2ebdca	0.042661466
181	0xbd25d3f1	-0.040485326
182	0x3da76246	0.08173041
183	0x3c819e69	0.015822606
184	0xbdab50d4	-0.08365026
185	0x3dab8f4c	0.08376941
186	0x3d8992d9	0.06717462
187	0x3d2d001a	0.042236425
188	0xbd046b08	-0.032328635
189	0x3d1ea875	0.038734872
190	0x3da1bf32	0.07897796
191	0xbd912035	-0.07086221
192	0xbd7c6091	-0.06161553
193	0x3c877914	0.016537227
194	0x3d0507fc	0.032478318
195	0xbd94fa4a	-0.07274301
196	0xbb23109d	-0.0024881728
197	0x3c16c178	0.0092014
198	0x3d8399dd	0.064258315
199	0xbd3ed6ca	-0.046591558
200	0x3d2f5506	0.042805694
201	0x3d12c4d3	0.035832237
202	0x3d78b34e	0.060717873
203	0x3bffc26e	0.0078051602
204	0x3c9638ce	0.018337633
205	0xbc2cd008	-0.010547645
206	0xbd9ade33	-0.075619124
207	0x3da5fe39	0.0810513
208	0x3d45f10c	0.048325583
209	0xbd4d038b	-0.050052207
210	0x3cc22a64	0.023701854
211	0x3b826db0	0.003980361
212	0xbda539bb	-0.08067652
213	0xbd28a897	-0.041176405
214	0x3ce50d1b	0.02796035
215	0xbce5f1d6	-0.028069418
216	0x3d4ae2ee	0.049532823
217	0x3d943897	0.07237356
218	0x3d7927e8	0.060829073
219	0x3d99f5af	0.075175636
220	0x3da297ba	0.07939096
221	0x3d9d8f1d	0.07693312
222	0xbda402ca	-0.080083445
223	0xbdaabddf	-0.08336996
224	0x3d63780e	0.055534415
225	0xbda18dc1	-0.078883655
226	0x3d5c0820	0.053718686
227	0x3cfcac42	0.030843858
228	0xbd6a5f8d	-0.05722003
229	0xbd181bea	-0.037135996
230	0x3b56fb66	0.0032803654
231	0x3d37b9f3	0.04485507
232	0xbd3012bc	-0.042986616
233	0x3c873201	0.016503336
234	0x3d00b595	0.03142317
235	0x3d175c2e	0.036953144
236	0xbd929730	-0.07157743
237	0x3d502d01	0.05082417
238	0xbd472322	-0.04861749
239	0x3d9c2c86	0.0762568
240	0xbd4d298a	-0.050088443
241	0x3cc4df3f	0.024032233
242	0xbc538a61	-0.01291141
243	0x3d16783d	0.036735762
244	0xbd943c72	-0.072380915
245	0xbd66ea41	-0.056375746
246	0x3d3331f7	0.043748822
247	0x3cdeea80	0.027211428
248	0xbc65c54f	-0.014024093
249	0xbd28c64e	-0.041204743
250	0x3d5a8c80	0.053356647
251	0x3b585e24	0.0033015097
252	0x3c75fa84	0.015013341
253	0xbd196a21	-0.037454728
254	0xbae36c31	-0.0017350969
255	0x3da98a1f	0.08278298

kline_transformer.layers.0.linear2.bias f4 [5]
0	0xbd90e5b6	-0.07075064
1	0x3da883df	0.082282774
2	0xbb0d3673	-0.0021547347
3	0x3d0ab521	0.033864144
4	0x3d3376d2	0.043814488

kline_transformer.layers.0.norm1.weight f4 [5]
0	0x3f78502b	0.96997327
1	0x3f7fd970	0.9994116
2	0x3f806870	1.0031872
3	0x3f811e99	1.0087463
4	0x3f7e8e95	0.9943631

kline_transformer.layers.0.norm1.bias f4 [5]
0	0x3ab8cfb2	0.0014099984
1	0xba785f69	-0.00094746664
2	0xbb00c298	-0.0019647237
3	0x3aabfb45	0.0013121149
4	0xbb196f06	-0.0023412122

kline_transformer.layers.0.norm2.weight f4 [5]
0	0x3f7aba33	0.9794037
1	0x3f7f9ecf	0.998517
2	0x3f8056f9	1.0026542
3	0x3f81849f	1.0118598
4	0x3f801ef9	1.0009452

kline_transformer.layers.0.norm2.bias f4 [5]
0	0x3a8efeab	0.0010909637
1	0xb985dea7	-0.00025533626
2	0xbaf96739	-0.0019027955
3	0x3ac04d26	0.001467143
4	0xb9035d26	-0.00012527834

kline_transformer.layers.1.self_attn.in_proj_weight f4 [15, 5]
0	0xbec8f0c4	-0.3924619
1	0xbf04cde2	-0.5187665
2	0x3e5af11d	0.2138104
3	0x3e0e8e02	0.13921359
4	0x3da1ab14	0.07893959
5	0x3e7b53a7	0.2454363
6	0xbf0754b5	-0.5286363
7	0x3e2c2021	0.16809131
8	0xbcfa3456	-0.030542534
9	0xbf0439c9	-0.51650673
10	0x3ef4095c	0.4766339
11	0xbd3a5eb4	-0.045500472
12	0x3ec019e2	0.37519747
13	0x3edbf780	0.42962265
14	0xbddbcf6a	-0.107329205
15	0x3e084ab0	0.13309741
16	0x3ef777c2	0.48333555
17	0xbea5667d	-0.32304755
18	0x3d4f9432	0.05067844
19	0xbe505fae	-0.20348999
20	0xb8f881a6	-0.000118497104
21	0xbc5d056a	-0.01349006
22	0xbddef1bb	-0.1088595
23	0x3ea1c992	0.31599098
24	0xbe90acc1	-0.282568
25	0x3eaa1574	0.33219492
26	0x3ee0638c	0.43825948
27	0x3e00a8c0	0.12564373
28	0xbe0d29eb	-0.13785522
29	0x3ef943ff	0.4868469
30	0xbe376186	-0.17908296
31	0xbe5e4967	-0.21707688
32	0xbee06012	-0.43823296
33	0x3efa31cc	0.48866117
34	0xbe96025f	-0.29298684
35	0xbd79fb03	-0.0610304
36	0xbed7a301	-0.4211655
37	0xbe02aac8	-0.1276046
38	0xbe817965	-0.2528793
39	0x3dec8721	0.11549211
40	0x3e043b17	0.12913166
41	0xbe3469a1	-0.17618419
42	0x3ea2c1d8	0.31788516
43	0xbeb34e25	-0.35020557
44	0xbef0e27b	-0.4704779
45	0x3ec07625	0.37590137
46	0x3e401a32	0.18759993
47	0xbf040e2d	-0.5158413
48	0xbdc8ac61	-0.09798504
49	0xbe127b4a	-0.14304844
50	0xbe4c8bc6	-0.19975194
51	0x3e201268	0.15632021
52	0x3da64e8d	0.08120451
53	0xbdbfbc72	-0.09362115
54	0xbece2b5e	-0.40267462
55	0x3d852268	0.06500703
56	0x3edea582	0.43485647
57	0x3e478464	0.19484097
58	0xbf024ed3	-0.50901526
59	0xbd603470	-0.05473751
60	0x3dd3dfd0	0.10345423
61	0xbdb40fcc	-0.087920755
62	0xbe1541d7	-0.14575897
63	0xbd308ac8	-0.043101102
64	0xbe2ae3e2	-0.16688493
65	0x3f046802	0.51721203
66	0x3dd98018	0.10620135
67	0xbea544ff	-0.32279202
68	0x3d973e80	0.07384968
69	0x3e7eb022	0.24871877
70	0xbe1e22f7	-0.15443026
71	0xbeccb0a5	-0.3997852
72	0x3e6e0a76	0.23246178
73	0x3eaf8df8	0.34288
74	0x3e838772	0.25689274

kline_transformer.layers.1.self_attn.in_proj_bias f4 [15]
0	0x3a59e02c	0.0008311297
1	0xba8707ae	-0.0010301971
2	0x3a1b9be3	0.00059360097
3	0xba30ac5e	-0.0006739552
4	0xbb012c19	-0.0019710122
5	0xb6e0c8b2	-6.699084e-06
6	0xb7a369a3	-1.9480305e-05
7	0xb778dfd8	-1.483407e-05
8	0xb607bdf2	-2.022713e-06
9	0x3689684f	4.0950613e-06
10	0xb967bb7d	-0.00022099722
11	0xb8b9e634	-8.864366e-05
12	0xba9f6305	-0.0012160247
13	0x3ad10a08	0.0015948424
14	0xbb6c8a8b	-0.003609332

kline_transformer.layers.1.self_attn.out_proj.weight f4 [5, 5]
0	0xbebd5896	-0.36981648
1	0xbecf107f	-0.40442273
2	0xbeb13969	-0.34614113
3	0x3e89fb7f	0.2694969
4	0x3e82f9b5	0.25581136
5	0x3d418575	0.047246415
6	0x3dc9204b	0.098206125
7	0xbe653b52	-0.2238591
8	0x3ee730ba	0.45154363
9	0xbd12ef88	-0.035872966
10	0x3ed304b8	0.41214538
11	0x3e9e2f4a	0.30895454
12	0x3eb84875	0.3599278
13	0xbd1e445f	-0.038639423
14	0x3e664090	0.22485566
15	0x3e893b68	0.26803136
16	0x3ee7e4b4	0.45291674
17	0xbe96be61	-0.29442123
18	0x3ec8e974	0.3924061
19	0x3de1cfc7	0.110259585
20	0xbed70819	-0.41998366
21	0xbd909d65	-0.070612706
22	0xbe543443	-0.20723061
23	0xbe009c0e	-0.1255953
24	0x3e900fec	0.28137147

kline_transformer.layers.1.self_attn.out_proj.bias f4 [5]
0	0x39843a65	0.0002522051
1	0x3941f570	0.00018497347
2	0xbad41bf1	-0.0016182644
3	0x3b845127	0.0040379944
4	0xbb17eb38	-0.0023180973

kline_transformer.layers.1.linear1.weight f4 [128, 5]
0	0xbe22e6b5	-0.1590832
1	0xbee1b32c	-0.4408201
2	0x3cb324c3	0.021868115
3	0x3debefcc	0.11520347
4	0xbe92be88	-0.2866099
5	0xbe0069ff	-0.12540434
6	0xbdb9285f	-0.09040903
7	0xbdd394fa	-0.103311494
8	0x3a42f791	0.0007437403
9	0xbe95001d	-0.2910165
10	0xbe27b2f7	-0.16376863
11	0xbe0d5179	-0.1380061
12	0x3e11f5f8	0.14253986
13	0x3e2e3913	0.1701396
14	0xbed12e27	-0.40855524
15	0x3ed9b830	0.42523336
16	0xbecccf20	-0.40001774
17	0xbe423166	-0.18964157
18	0xbebb6074	-0.36597025
19	0x3d8a7d37	0.06762164
20	0x3e8f5a08	0.27998376
21	0x3e9cafdc	0.3060292
22	0xbeb35f3b	-0.35033593
23	0x3ed96d00	0.42465973
24	0xbe2a5201	-0.16632845
25	0x3e7757e2	0.24154618
26	0xbdad5790	-0.08463967
27	0xbdfe4191	-0.124148495
28	0xbebeab50	-0.37240076
29	0x3ed4e0ea	0.41577846
30	0x3e38c09f	0.18042229
31	0xbecb1711	-0.39666036
32	0xbc302f5e	-0.010753481
33	0x3ea7678b	0.32696185
34	0xbeb911f8	-0.36146522
35	0xbe86b892	-0.2631269
36	0x3e84385d	0.25824252
37	0x3ec7db6f	0.39034602
38	0x3ea1fcbd	0.31638137
39	0xbd8188c4	-0.06324914
40	0xbe813bb9	-0.25240877
41	0x3dedf538	0.116190374
42	0x3e67d78a	0.22640815
43	0xbe9598d3	-0.29218158
44	0xbca66746	-0.020312916
45	0xbeadf4fb	-0.33975968
46	0xbec170e6	-0.37781447
47	0x3dfe1f59	0.12408323
48	0x3e7b33d6	0.24531493
49	0x3e330ea2	0.1748605
50	0xbea72b7e	-0.3265037
51	0x3da475d5	0.08030287
52	0xbda3b6fe	-0.07993887
53	0x3e92a63c	0.28642452
54	0x3e49259e	0.19643256
55	0xbe45fc3c	-0.19334501
56	0xbe7e2d87	-0.24822055
57	0xbe238401	-0.15968324
58	0x3e8a4695	0.27006975
59	0x3d54e3e4	0.051975146
60	0x3ecb1793	0.39666423
61	0x3dea5003	0.11441042
62	0xbe7e3744	-0.2482577
63	0xbbf6695e	-0.007519885
64	0x3e31ee0e	0.17375967
65	0xbdb9471b	-0.090467654
66	0x3edb8242	0.42872816
67	0xbeb09629	-0.34489563
68	0x3c37c292	0.011215823
69	0xbe312b3d	-0.1730165
70	0xbd82e8f2	-0.06392087
71	0x3d6ab2e3	0.057299506
72	0x3ea89528	0.32926297
73	0xbe892761	-0.26787856
74	0xbe1a9116	-0.15094408
75	0xbe28f4f2	-0.16499689
76	0x3e84af3c	0.25914943
77	0xbe55baad	-0.20871992
78	0xbc2a0736	-0.010377696
79	0xbed8ee3d	-0.4236926
80	0xbebac005	-0.36474624
81	0xbe79d7bc	-0.24398702
82	0xbedc92d1	-0.43080762
83	0x3dca6113	0.09881797
84	0x3ea4a6f2	0.3215862
85	0xbe2df983	-0.16989712
86	0xbe3fb33e	-0.18720719
87	0x3ec5aa5c	0.38606536
88	0xbed43e39	-0.41453722
89	0xbe350ad9	-0.1767992
90	0x3c828ae8	0.015935376
91	0x3e248e6c	0.16069955
92	0xbe79867d	-0.2436771
93	0x3ebd2966	0.36945647
94	0x3db39697	0.08768957
95	0xbea03832	-0.31292874
96	0x3e4c081b	0.19924967
97	0xbea7a0d7	-0.327399
98	0x3e8cf240	0.27528572
99	0xbd84e9d7	-0.06489914
100	0x3eb059ff	0.34443662
101	0xbdda6b99	-0.10665054
102	0xbd3c2da7	-0.045941975
103	0xbd8a59d7	-0.06755417
104	0xbe94cf9d	-0.29064646
105	0x3ea9aeb9	0.33141115
106	0xbe191ca6	-0.14952335
107	0xbd4be2da	-0.04977689
108	0xbe7e91f2	-0.24860361
109	0x3d90d329	0.070715256
110	0x3e996fed	0.29968205
111	0x3e913150	0.28357935
112	0x3e93ccee	0.28867286
113	0x3dafd492	0.085854664
114	0x3d0aed68	0.033917814
115	0xbede89b6	-0.4346444
116	0xbd8a7fc4	-0.067626506
117	0x3e2c8c0b	0.16850297
118	0x3e794d46	0.24345884
119	0xbd8a6584	-0.06757644
120	0xbe370d20	-0.178761
121	0x3ed2869f	0.41118333
122	0x3e6fab3c	0.23405164
123	0x3c94c9d1	0.01816264
124	0x3e210d24	0.15727669
125	0x3ed6f893	0.41986522
126	0x3d9379aa	0.0720094
127	0x3e42333a	0.18964854
128	0x3e3e51ff	0.18585967
129	0xbded9f40	-0.1160264
130	0xbe292b75	-0.16520484
131	0xbe91f6b8	-0.28508544
132	0xbea5acb2	-0.3235832
133	0xbe750aab	-0.23929851
134	0xbc0dfb44	-0.008665863
135	0x3d21d7ba	0.039512374
136	0x3ec96cc0	0.39340782
137	0xbe61bbb9	-0.22044267
138	0xbdbdaaf5	-0.09261123
139	0xbe515ace	-0.20444795
140	0xbe7dc0c6	-0.24780568
141	0xbe0ed1eb	-0.13947265
142	0xbeca6c43	-0.39535722
143	0xbe7753c7	-0.24153052
144	0x3d7b4419	0.06134424
145	0x3ef20727	0.47271082
146	0xbe1eeee4	-0.15520817
147	0xbe5e1f63	-0.2169166
148	0xbe70028c	-0.23438472
149	0x3e1dd0f1	0.15411736
150	0x3e9586e1	0.29204467
151	0x3d4ef43e	0.050525896
152	0xbd2ab3e7	-0.041675474
153	0x3e73b2f4	0.23798734
154	0x3e1cac33	0.15300064
155	0xbebfbae9	-0.3744729
156	0x3ec01108	0.37512994
157	0xbeb332d5	-0.3499972
158	0x3e3212c8	0.17389977
159	0xbd463608	-0.048391372
160	0x3e964831	0.29351953
161	0xbda2d235	-0.0795025
162	0x3dc75c19	0.09734363
163	0xbe03bee7	-0.12865792
164	0xbe85ddc6	-0.26145762
165	0xbdb0fb66	-0.086417004
166	0x3edaf7ce	0.42767185
167	0x3ed6fbd8	0.41989017
168	0xbde6b936	-0.11265795
169	0xbee1bd61	-0.44089797
170	0x3de13c09	0.10997779
171	0x3d92e34b	0.07172259
172	0x3e95985a	0.29217798
173	0x3e01944a	0.12654224
174	0x3ee28396	0.44241017
175	0xbbab730c	-0.0052322205
176	0xbda4007c	-0.08007905
177	0xbdff8dea	-0.1247824
178	0xbd22c716	-0.039740644
179	0x3ea16b51	0.31527188
180	0xbea46451	-0.32107785
181	0x3e194c23	0.1497045
182	0x3dc6c434	0.097053915
183	0x3ea61073	0.32434425
184	0xbcb4ce68	-0.022071078
185	0xbeeaa92d	-0.45832196
186	0xbe1cc66b	-0.15310065
187	0xbe842cbe	-0.25815386
188	0xbe019289	-0.12653555
189	0xbdc6f89d	-0.09715388
190	0x3e4b5965	0.1985832
191	0xbd315138	-0.043290347
192	0x3dc05990	0.09392083
193	0xbed38abb	-0.4131678
194	0xbecb9d03	-0.39768228
195	0x3d01d8a6	0.031700753
196	0x3eb6bfc0	0.3569317
197	0x3d497631	0.04918498
198	0xbeda5f96	-0.4265105
199	0x3ee364f3	0.44412956
200	0x3d8fef67	0.07028084
201	0xbe881e08	-0.26585412
202	0xbe84d2cb	-0.25942072
203	0xbdd75029	-0.10513336
204	0xbe8923af	-0.26785037
205	0x3e4c7887	0.19967853
206	0x3ee26426	0.44217032
207	0x3e741b9f	0.23838662
208	0xbe851aee	-0.25997108
209	0x3df17cf1	0.11791409
210	0x3da01e34	0.07818261
211	0xbd8b4df3	-0.06801977
212	0xbbbc70c5	-0.005750748
213	0xbebc2d32	-0.3675323
214	0x3e16fb89	0.1474439
215	0x3eaadaa5	0.33369938
216	0xbe9c6225	-0.30543628
217	0xbedd4c99	-0.43222502
218	0x3eb275b1	0.34855416
219	0x3b519da5	0.0031984833
220	0xbe41fa82	-0.18943217
221	0xbeb8b8d0	-0.360785
222	0x3ed20ad0	0.41023874
223	0x3de6a942	0.11262752
224	0x399b50d5	0.00029624128
225	0x3e57c459	0.21070994
226	0xbe56d8b7	-0.20981108
227	0x3ebcd147	0.36878416
228	0xbc2aa811	-0.010416047
229	0x3eab7e43	0.33494768
230	0x3c54a8c4	0.01297969
231	0xbeceadb5	-0.40366903
232	0x3eb1452e	0.34623092
233	0xbec6f6df	-0.38860223
234	0xbba91a03	-0.0051605715
235	0x3ec37c2f	0.38180682
236	0xbd5dfc0a	-0.05419544
237	0x3e564760	0.20925665
238	0x3e9d58ad	0.30731717
239	0xbe8cee10	-0.27525377
240	0x3dba2706	0.090894744
241	0xbd9bb83d	-0.076035
242	0x3dcca1de	0.09991811
243	0xbe2175c8	-0.15767586
244	0xbe2322fa	-0.15931311
245	0xbe960142	-0.29297835
246	0x3d937c4c	0.07201442
247	0x3ea5c4c9	0.32376698
248	0x3d823170	0.06357086
249	0x3da81609	0.08207328
250	0xbebfee63	-0.37486562
251	0x3e1e0e9d	0.15435262
252	0xbd385148	-0.04499939
253	0x3eb69873	0.35663185
254	0x3e8fa84e	0.28058094
255	0xbe6c8ecf	-0.23101352

kline_transformer.layers.1.linear1.bias f4 [128]
0	0x3d6a7656	0.05724176
1	0xbe32f4b4	-0.1747616
2	0x3ed6e568	0.41971898
3	0x3cd7a173	0.026322102
4	0xbe18d004	-0.14923102
5	0x3eca7276	0.39540452
6	0x3d64fe31	0.05590648
7	0xbe4c4e4f	-0.19951747
8	0x3dda6572	0.106638804
9	0xbedcbd35	-0.43113104
10	0x3d3f1d0f	0.04665857
11	0xbe362e6b	-0.17791145
12	0xbcbe99b0	-0.023266643
13	0x3cfd0113	0.030884301
14	0xbecf3d5a	-0.40476495
15	0x3e87bbcb	0.26510462
16	0xbda7b46c	-0.081887096
17	0x3e558514	0.20851547
18	0xbe8c327f	-0.27382275
19	0x3eaa531b	0.3326653
20	0x3eb38d92	0.35068947
21	0xbe87c61d	-0.26518336
22	0x3d9fb8af	0.077988975
23	0x3eb41196	0.35169667
24	0x3e0dcaf7	0.13846956
25	0xbe4794b6	-0.19490322
26	0x3ed8b5d5	0.42326227
27	0x3ed40401	0.41409305
28	0x3e8762d8	0.264426
29	0xbec54d9c	-0.38535774
30	0x3eaab5d9	0.33341864
31	0x3e2a762f	0.16646646
32	0x3e9eff5e	0.31054205
33	0xbead2222	-0.33815104
34	0x3c9abe5b	0.018889597
35	0x3e61e7f4	0.2206114
36	0x3da7352f	0.08164441
37	0xbe18175a	-0.14852658
38	0xbe8a2f9a	-0.26989442
39	0x3e136af5	0.1439627
40	0x3dfb1be0	0.12261176
41	0x3e1b8872	0.15188769
42	0x3ed8d7c8	0.42352128
43	0x3e42cb8d	0.19022961
44	0xbeb77774	-0.35833323
45	0xbe5e55be	-0.21712396
46	0xbe23eacd	-0.16007538
47	0x3e899f2e	0.26879257
48	0x3d427674	0.047476247
49	0x3eb77af9	0.35836008
50	0x3dfaee9b	0.12252542
51	0x3e458001	0.19287111
52	0x3dc40c83	0.09572699
53	0x3e5da2f8	0.21644199
54	0x3d5e637d	0.0542941
55	0xbddfdeff	-0.10931205
56	0x3b62db97	0.003461575
57	0x3ecdc603	0.40190133
58	0xbedb0aac	-0.4278158
59	0xbea76564	-0.32694542
60	0x3e8ce7e4	0.27520669
61	0x3ddff80e	0.109359846
62	0xbe6719fe	-0.22568509
63	0x3d977274	0.07394877
64	0xbe0e6ecf	-0.13909458
65	0xbc421ff7	-0.011848441
66	0x3ebebc8b	0.37253222
67	0xbeb39650	-0.35075617
68	0x3ea3108d	0.31848565
69	0xbed204ff	-0.41019437
70	0xbdd3adeb	-0.103359066
71	0xbe6bf9c2	-0.23044494
72	0xbe47d1a4	-0.19513565
73	0x3dd8be68	0.10583192
74	0xbe06c87b	-0.13162415
75	0x3eda22bb	0.42604622
76	0x3e8f350a	0.27970153
77	0xbe805ca6	-0.25070685
78	0x3e471efe	0.19445416
79	0xbd3576d4	-0.044302776
80	0x3ebd38d1	0.3695741
81	0x3ca5e40d	0.020250345
82	0xbea25164	-0.3170272
83	0x3dd8035d	0.105475165
84	0x3eae29c6	0.34016246
85	0xbe1ccebc	-0.15313238
86	0x3e9996a1	0.29997733
87	0xbdd9ee2e	-0.10641132
88	0x3aa88d43	0.0012859482
89	0x3e37dff6	0.17956528
90	0xbe6a1739	-0.22860421
91	0x3e60a930	0.2193954
92	0x3e66cb26	0.22538432
93	0x3eae28bf	0.34015462
94	0xbe651df8	-0.22374713
95	0x3eab2612	0.33427483
96	0x3e5ec9bf	0.21756648
97	0xbea8f807	-0.3300173
98	0x3deac252	0.11462845
99	0x3e4eb10d	0.20184727
100	0x3e30fd59	0.17284144
101	0xbe974034	-0.2954117
102	0x3d918c0c	0.0710679
103	0xbe22ebd0	-0.15910268
104	0xbd8c781b	-0.06858846
105	0x3dcb96f5	0.09940902
106	0xbe0add56	-0.13560995
107	0x3ddeb42c	0.10874209
108	0xbe94d8f4	-0.29071772
109	0x3ebf0171	0.37305787
110	0xbebbc7cc	-0.3667587
111	0x3bde1024	0.0067768265
112	0x3e5da655	0.21645482
113	0x3d46d6f0	0.048544824
114	0x3e01ff6b	0.1269509
115	0x3e369b81	0.17832758
116	0xbecd771c	-0.40129936
117	0x3ea47a62	0.3212462
118	0x3ea23a62	0.31685168
119	0x3e08c4af	0.13356279
120	0xbdd69d19	-0.10479183
121	0xbe61c9e5	-0.22049673
122	0x3e481f4d	0.1954319
123	0xbe45977a	-0.19296065
124	0xbe08719f	-0.13324593
125	0xbdd617d0	-0.104537606
126	0xbda12a2d	-0.078693725
127	0x3de2ef0b	0.1108075

kline_transformer.layers.1.linear2.weight f4 [5, 128]
0	0xbcec563f	-0.02884972
1	0x3dace989	0.08442981
2	0x3bc21f9c	0.0059241783
3	0xbc58167b	-0.0131889535
4	0xbd1ba902	-0.038002975
5	0xbd900f96	-0.07034223
6	0x3d0219c4	0.031762853
7	0x3c96a562	0.018389408
8	0x3d07ff61	0.033202533
9	0xbd82c45f	-0.06385111
10	0xbd2a341a	-0.041553594
11	0xbd6cc6a3	-0.057806622
12	0x3b2c082d	0.002624999
13	0xbc5dad5c	-0.013530102
14	0x3dc75b71	0.09734238
15	0xbce54552	-0.027987156
16	0x3d4d5d0c	0.050137565
17	0x3d958191	0.073001035
18	0x3cbdb88f	0.023159293
19	0x3da78f03	0.08181574
20	0xbd9655e0	-0.07340598
21	0xbdd1b6db	-0.10239955
22	0xbd887e25	-0.06664685
23	0x3cc23cac	0.023710571
24	0xbcdb06fd	-0.02673673
25	0x3db59b86	0.08867554
26	0x3da3d417	0.07999437
27	0xbd9e89e1	-0.07741142
28	0xbcd6e5c3	-0.026232606
29	0xbcc261bd	-0.023728246
30	0xbb6f7067	-0.0036535503
31	0x3beb7e22	0.007186667
32	0xbd468a90	-0.048471987
33	0xbd901b3a	-0.07036443
34	0xbb7443c8	-0.0037271846
35	0x3c40fafe	0.011778591
36	0x3d03e6d2	0.03220255
37	0x3d95cfa3	0.07314994
38	0xbb4ebbc7	-0.003154503
39	0xbd9b6166	-0.07586937
40	0xbd560f8f	-0.05226093
41	0x3d0d2014	0.03445442
42	0x3d9d7d3a	0.07689901
43	0xbd29abd9	-0.041423652
44	0x3d700ce0	0.05860603
45	0xbc197aa3	-0.009367618
46	0x3d1d8d8a	0.03846506
47	0x3d19e0a8	0.037567765
48	0x3d115862	0.03548468
49	0xbd05ac50	-0.032635033
50	0xbd915021	-0.070953615
51	0xbd28496a	-0.041085638
52	0xbce340ea	-0.027740914
53	0xbd79c528	-0.06097904
54	0x3c9e6b3a	0.019338239
55	0xbcd4b020	-0.02596289
56	0xbc976830	-0.018482298
57	0xbc050514	-0.0081188865
58	0xbd36e26a	-0.04464952
59	0x3d0b8cbd	0.034069765
60	0x3d9dce42	0.07705356
61	0x3b201ae5	0.0024430093
62	0x3d0f3db0	0.03497094
63	0xbd8fb66a	-0.070172146
64	0xbd6ad471	-0.057331506
65	0x3cf91f31	0.030410381
66	0xbbe2e299	-0.006923985
67	0xbbc00c5e	-0.0058608493
68	0x3d7313c5	0.059345026
69	0xbcc99180	-0.024605513
70	0xbdaa76c3	-0.08323433
71	0xbd4c7887	-0.04991963
72	0x3cdf2e0f	0.027243642
73	0x3dbab58a	0.09116657
74	0xbd2d6d06	-0.0423403
75	0xbc7bd7ec	-0.015371304
76	0x3d805593	0.06266322
77	0xbd7d9911	-0.061913554
78	0x3d6dab4d	0.058024693
79	0x3d0f1c32	0.034939
80	0x3d5fc324	0.05462946
81	0xbcfadfad	-0.030624235
82	0xbd06316d	-0.03276198
83	0xbd8d3149	-0.06894166
84	0x3d0741cb	0.03302173
85	0x3da8dc92	0.082451954
86	0x3cfd1445	0.030893454
87	0x3d0c2f10	0.03422457
88	0xbb1b98d8	-0.0023742225
89	0xbc995b64	-0.018720336
90	0xbca081b5	-0.0195931
91	0xbc7ab448	-0.015301771
92	0xbd9fc3cc	-0.07801017
93	0xbcfe8fca	-0.031074423
94	0x3d5ec8fb	0.05439089
95	0x3d5d4c56	0.054027878
96	0xbdae6c18	-0.08516711
97	0x3da63278	0.08115095
98	0x3c55c95d	0.013048497
99	0xbd3e2ebf	-0.0464313
100	0xbcab225d	-0.02089041
101	0xbb48c268	-0.0030633453
102	0xbd99a818	-0.075027645
103	0xbd0e2f14	-0.034712866
104	0x3da5e7f0	0.08100879
105	0x3c262b62	0.010142179
106	0xbbcc38a6	-0.006232339
107	0xbd011fc4	-0.031524435
108	0xbd94fcf9	-0.07274813
109	0x3d79dc78	0.06100127
110	0x3d4c3fa8	0.049865395
111	0x3d27da3c	0.04097961
112	0x3d9e28ed	0.0772265
113	0xbd85b2a3	-0.06528213
114	0xbda97d97	-0.082759075
115	0x3daf03a9	0.0854562
116	0xbd27d740	-0.040976763
117	0x3d74dc05	0.05978014
118	0x3ce836ab	0.02834638
119	0x3d51422d	0.0510885
120	0x3be46dff	0.0069711204
121	0x3d317109	0.04332069
122	0x3cc92446	0.02455343
123	0xbd50a302	-0.050936706
124	0xbd9f6585	-0.07783035
125	0x3c3c357a	0.011487359
126	0xbd46524f	-0.04841834
127	0xbd7645e2	-0.06012524
128	0xbd3c41a0	-0.045961022
129	0x3da3f259	0.080052085
130	0xbd9d9762	-0.076948896
131	0x3cdeb1bd	0.027184362
132	0xbd5d3687	-0.05400708
133	0xbbc97e56	-0.0061490936
134	0xbcc5f247	-0.024163378
135	0xbccd38ef	-0.025051562
136	0xbda74f49	-0.08169419
137	0x3db21c6a	0.08696826
138	0xbcfc4cec	-0.030798398
139	0x3c0fa690	0.008767739
140	0xbd955396	-0.072913334
141	0x3d43af62	0.04777468
142	0xbaad2348	-0.0013209367
143	0xbcbce9ea	-0.023060758
144	0x3d84ba95	0.064809
145	0xbce4a15f	-0.027908979
146	0x3d8c9b1e	0.06865524
147	0x3c459a08	0.01206065
148	0xbd7bf56b	-0.061513346
149	0xbcac4b3c	-0.021031968
150	0x3d585822	0.052818425
151	0xbd8655c4	-0.06559327
152	0x3da03f50	0.07824576
153	0x3c538886	0.012910968
154	0x3daa7c08	0.08324438
155	0xbd8ff3bd	-0.07028911
156	0x3d07097d	0.032968033
157	0x3dddd06b	0.10830768
158	0x3cc37818	0.023860976
159	0x3d3dea5c	0.04636608
160	0xbd2611e3	-0.0405444
161	0x3d02d5b0	0.03194207
162	0xbd2c96c9	-0.042135987
163	0x3d72392d	0.05913656
164	0xbb406a7f	-0.0029360352
165	0xbb1ae8c0	-0.0023637265
166	0xbc1026c9	-0.00879831
167	0x3c175522	0.009236606
168	0x3d110556	0.03540548
169	0x3d553501	0.0520525
170	0x3ccc74ce	0.02495804
171	0xbc28723b	-0.010281141
172	0xbc9098df	-0.01765102
173	0x3d002529	0.03128544
174	0xbc1745b8	-0.009232931
175	0x3d2b47d2	0.04181654
176	0xbccaf0d9	-0.024773048
177	0xbb8e3c95	-0.004340718
178	0x3c379998	0.011206053
179	0xbba2da67	-0.0049698832
180	0x3d39330d	0.0452147
181	0xbd238712	-0.039923735
182	0x3da0dd28	0.07854682
183	0x3cc7bcdb	0.024382045
184	0xbda9885e	-0.08277963
185	0x3db1fc6e	0.08690725
186	0x3dcbc44f	0.09949552
187	0x3d47e9dc	0.04880701
188	0xbce2e5c7	-0.027697457
189	0x3d61a9be	0.05509352
190	0x3d9a93ae	0.07547699
191	0xbd89ed36	-0.067346975
192	0xbd7433b2	-0.059619613
193	0x3c93faf8	0.018064007
194	0x3d0f7d08	0.03503135
195	0xbd8e2f0b	-0.069425665
196	0xbb32bc64	-0.0027272934
197	0x3b50545d	0.0031788566
198	0x3d82aa6a	0.0638016
199	0xbd1786dc	-0.036993846
200	0x3d166ec6	0.036726736
201	0x3d1b27c1	0.03787971
202	0x3d84c7a9	0.06483395
203	0x3c13fb75	0.00903212
204	0x3cae510d	0.021278882
205	0xbc280f9f	-0.010257631
206	0xbd960c1c	-0.073265284
207	0x3da8afbc	0.08236644
208	0x3d4f8700	0.050665855
209	0xbd585550	-0.052815735
210	0x3d04634b	0.032321256
211	0x3be19c4d	0.0068850876
212	0xbd91ea5d	-0.071247794
213	0xbd0665eb	-0.03281204
214	0x3cea2127	0.028580261
215	0xbcc0e377	-0.023545964
216	0x3d4d4ebb	0.05012391
217	0x3d9ed0f9	0.07754702
218	0x3d809616	0.062786266
219	0x3d9e1a2f	0.07719838
220	0x3daa0a55	0.08302752
221	0x3da7c786	0.08192353
222	0xbd9712a3	-0.073766015
223	0xbda6e4e4	-0.08149126
224	0x3d74eea6	0.059797905
225	0xbdad094f	-0.08449041
226	0x3d6836f0	0.056693017
227	0x3ce92fbe	0.028465148
228	0xbd4748e0	-0.048653483
229	0xbd139ada	-0.03603635
230	0x3bbe33a2	0.005804495
231	0x3d490e7e	0.049086086
232	0xbd2bb7e0	-0.041923404
233	0x3cabc0d7	0.020965977
234	0x3d17a856	0.037025772
235	0x3d2f66cd	0.042822648
236	0xbd80b94a	-0.06285341
237	0x3d5ac267	0.053408053
238	0xbcfd4a5d	-0.030919248
239	0x3d9f77c8	0.07786518
240	0xbd4b29f9	-0.049600575
241	0x3cc48b05	0.02399207
242	0xbbd10738	-0.0063790344
243	0x3d320710	0.043463767
244	0xbd9038d5	-0.0704209
245	0xbd5de930	-0.054177463
246	0x3d448b4c	0.047984406
247	0x3ce4403c	0.02786266
248	0xbc40f191	-0.011776344
249	0xbd30b45f	-0.043140765
250	0x3d602661	0.0547241
251	0x3b2949f9	0.0025831445
252	0x3c9f343a	0.019434083
253	0xbd4173b6	-0.04722949
254	0xbb9eb7d4	-0.0048436914
255	0x3dac88f6	0.08424561

kline_transformer.layers.1.linear2.bias f4 [5]
0	0xbd920944	-0.071306735
1	0x3db562ce	0.08856736
2	0xbaec7153	-0.0018039144
3	0x3d20401c	0.03912364
4	0x3d29c538	0.041447848

kline_transformer.layers.1.norm1.weight f4 [5]
0	0x3f7aec88	0.9801717
1	0x3f7f8a24	0.9982016
2	0x3f805db4	1.0028596
3	0x3f830632	1.0236266
4	0x3f80ec9a	1.0072205

kline_transformer.layers.1.norm1.bias f4 [5]
0	0x3a6eef1c	0.00091146096
1	0xbacf893d	-0.0015833747
2	0xbb0a91f0	-0.0021144114
3	0x3bdadff0	0.0066795275
4	0xbb0082d8	-0.001960924

kline_transformer.layers.1.norm2.weight f4 [5]
0	0x3f7bf9ae	0.98427856
1	0x3f7ea8ec	0.99476504
2	0x3f7f7f0c	0.99803233
3	0x3f805017	1.0024441
4	0x3f7c5936	0.98573625

kline_transformer.layers.1.norm2.bias f4 [5]
0	0x39b1f6ee	0.00033944048
1	0xba27e0bc	-0.00064040325
2	0xb9046a22	-0.00012628039
3	0x36608750	3.3457363e-06
4	0xb97a5f45	-0.00023877349

report_fc.weight f4 [128, 768]
0	0xbd0d47e4	-0.03449239
1	0x3c50e22e	0.012749238
2	0x3d11a2ce	0.035555653
3	0x3c40b128	0.011760987
4	0xbccc3444	-0.024927266
5	0xbaabf9da	-0.0013120726
6	0xbd146aa7	-0.036234524
7	0x3c8baeeb	0.01705118
8	0xbab82d08	-0.0014051506
9	0xbc814dc1	-0.015784146
10	0x3c8e4243	0.01736558
11	0xbc83f3d0	-0.01610747
12	0xbc69fc8b	-0.014281402
13	0xbc8e5db1	-0.01737866
14	0xbc31e55e	-0.010857908
15	0x3c5fe8cb	0.013666342
16	0x3b72fbc7	0.003707634
17	0x3ab4e168	0.0013800086
18	0xbc43a180	-0.01194036
19	0xbc31919e	-0.0108379405
20	0x3c420e9b	0.0118443025
21	0x3cb15716	0.021647971
22	0x3cc1fad6	0.023679178
23	0x3aa0f707	0.0012280651
24	0x3ade421c	0.0016956958
25	0x3d0e7f45	0.034789342
26	0x3bb6718d	0.0055677355
27	0x3cd73d7e	0.026274439
28	0xba6fbb54	-0.00091450405
29	0xbc8bd170	-0.017067641
30	0x3cf51c0d	0.029920602
31	0xbcb37e82	-0.02191091
32	0x3cfe714c	0.031059884
33	0x3a80ff81	0.0009841771
34	0xbcde884c	-0.0271646
35	0xbd144c9d	-0.036205877
36	0xbb2e89c1	-0.00266324
37	0xbc735a1d	-0.014853028
38	0xbc3f561f	-0.011678248
39	0x3c1671ac	0.009182375
40	0x3ce7c95b	0.028294256
41	0xbc9a144b	-0.018808505
42	0xbcf453ae	-0.029825058
43	0xbc199175	-0.009373059
44	0x3c6afcfc	0.014342543
45	0xbc845094	-0.016151704
46	0xbcd4fe48	-0.026000157
47	0x3cf9b1a0	0.030480206
48	0xbcd52230	-0.026017278
49	0x3c3126c4	0.010812465
50	0xbb276c16	-0.0025546602
51	0x3ca17a8e	0.019711759
52	0xbcd06698	-0.025439546
53	0xbd04afa8	-0.03239408
54	0x3ccaeee4	0.024772115
55	0xbbdfd3d2	-0.006830671
56	0xbc2029fe	-0.009775637
57	0xbb9bd6a0	-0.00475581
58	0xbcdb82e1	-0.026795806
59	0x3c9db3f5	0.01925085
60	0xbba55a0e	-0.0050461357
61	0xbd130646	-0.035894655
62	0x3c0c4f6a	0.008563856
63	0x3d10e1ca	0.03537158
64	0xb9ed7ea4	-0.00045298517
65	0xbd08cf13	-0.033400606
66	0xbc60fee1	-0.013732643
67	0x3c87b4b2	0.016565654
68	0xbb5eecc2	-0.003401563
69	0xbc847e11	-0.016173394
70	0x3d0576bd	0.03258394
71	0x3d49b8c4	0.04924847
72	0x3c839c24	0.016065665
73	0xbc8eb0a2	-0.01741821
74	0x3cfbd2d4	0.03074018
75	0x3bfc7240	0.0077040493
76	0xbc49c074	-0.012313951
77	0x3bf0bd96	0.007346819
78	0x3c595706	0.013265377
79	0xbd07bfc4	-0.033141866
80	0xbcaeda4c	-0.021344326
81	0xbcd9b989	-0.026577728
82	0x3c5597a6	0.013036644
83	0xbcb1097b	-0.021610966
84	0x3cf4353d	0.029810542
85	0x3d8ffb6e	0.07030378
86	0x3c886167	0.016648008
87	0x3a07a609	0.00051745825
88	0x3d031e76	0.03201147
89	0x3bb61340	0.005556494
90	0x3d14fbd3	0.03637297
91	0xba8502bc	-0.001014791
92	0xbc88bfc2	-0.016693
93	0x3d44b861	0.0480274
94	0xbcca13b6	-0.024667602
95	0xbcf17b19	-0.029477643
96	0x3b7f748b	0.0038979377
97	0xbc76b493	-0.015057701
98	0xbce57e71	-0.028014394
99	0xbd19ebb2	-0.037578292
100	0xbc0646ec	-0.00819562
101	0xbc95e046	-0.018295418
102	0x3cdda7e5	0.027057597
103	0x3ca4daeb	0.02012392
104	0x3c0cd06f	0.008594616
105	0xbcce9557	-0.025217695
106	0xbac1373a	-0.001474119
107	0x3caf95db	0.021433761
108	0x3cdefd21	0.02722031
109	0x3d133906	0.035943054
110	0x3c8d324d	0.0172359
111	0xbc5e392c	-0.0135634355
112	0x3c30f64a	0.010800907
113	0x3b85e452	0.004086056
114	0xbbcf3cf0	-0.006324403
115	0xbcf31999	-0.029675292
116	0x3c7248ba	0.014787847
117	0xbbb48119	-0.0055085537
118	0x3c9edacf	0.019391445
119	0xbc9ac52c	-0.018892847
120	0xbc8f1983	-0.01746822
121	0xbc857cb0	-0.016294807
122	0xbbb85bfc	-0.0056261998
123	0xbc1fcef5	-0.009753932
124	0xbcf9f4a7	-0.030512167
125	0xbb15a6e4	-0.002283507
126	0xbc29942a	-0.0103502665
127	0xbc86fe7b	-0.016478768
128	0xbc838dbe	-0.016058799
129	0xbc974476	-0.018465262
130	0x3cb2d6ae	0.021830883
131	0x3cc09239	0.023507224
132	0xbc6a6fe5	-0.014308904
133	0xbc065540	-0.008199036
134	0xbd04ad67	-0.03239193
135	0xbd10e392	-0.035373278
136	0xbcfbb3fb	-0.03072547
137	0xbb754418	-0.003742462
138	0x3c7bbcb5	0.0153648155
139	0x3c8ec273	0.017426705
140	0xbb301c65	-0.0026872393
141	0xbcab3700	-0.02090025
142	0xbce891ee	-0.028389897
143	0xbc78986b	-0.015173058
144	0x3d0c87fb	0.03430937
145	0x3d07702a	0.033065952
146	0xbce227a7	-0.027606798
147	0xbcc67109	-0.024223821
148	0x3c8675a3	0.016413515
149	0xbade8208	-0.0016976008
150	0xbc34c773	-0.0110338805
151	0x3ced8ae1	0.028996887
152	0xbbee8e40	-0.007280141
153	0x3cd2bcf0	0.025724858
154	0xbd02c86a	-0.03192941
155	0x3c805538	0.015665635
156	0x3cd7384c	0.026271962
157	0xbc8671db	-0.016411712
158	0xbc2019ac	-0.009771746
159	0xbcdbc44f	-0.026827006
160	0x3bf406e6	0.0074471114
161	0xbc72778d	-0.014799011
162	0x3b1fe6e6	0.00243991
163	0x3ce6f770	0.02819416
164	0x3b9f82fd	0.00486791
165	0xbd1519dd	-0.03640162
166	0xbd02d290	-0.03193909
167	0xbb909108	-0.0044118203
168	0x3c6776b1	0.014127419
169	0x3a2f5dc8	0.0006689695
170	0x3c17f04c	0.0092736
171	0x3bb66384	0.0055660624
172	0xbc41965b	-0.011815633
173	0xbbd14911	-0.006386884
174	0x3cf8e27d	0.030381436
175	0x3d0d806c	0.0345463
176	0x3c8756f9	0.016520964
177	0xbc924b0c	-0.01785805
178	0xbc665a4f	-0.014059617
179	0x3b856da0	0.004071906
180	0xbcbe6e4f	-0.023245959
181	0x3bd261da	0.006420356
182	0xbcb80a28	-0.02246578
183	0x3d00649d	0.031345952
184	0xbcdde26c	-0.027085505
185	0xbc3d7c9c	-0.011565354
186	0x3ce48938	0.027897462
187	0x3c46955a	0.012120569
188	0xbcbc62e6	-0.022996377
189	0x3c9c4c7d	0.019079441
190	0x3bed4764	0.0072411764
191	0x3b4df6f4	0.0031427713
192	0x3c116198	0.008873366
193	0xbae46d83	-0.0017427657
194	0xbc2ed44b	-0.010670732
195	0x3cb4c860	0.022068202
196	0x3bbae976	0.0057041002
197	0xbd0a513d	-0.03376888
198	0xbc767b1b	-0.015043999
199	0xbd1386ec	-0.036017343
200	0xbcbfa9b7	-0.023396356
201	0xbcc17a42	-0.023617867
202	0xbc0b6bcc	-0.0085095875
203	0x3d11db58	0.035609573
204	0x3947ab24	0.00019041874
205	0x3ac3f8e6	0.0014951497
206	0xbb368411	-0.0027849714
207	0xbceaabd6	-0.02864639
208	0x3cce612f	0.025192825
209	0x3abf6ad6	0.0014603983
210	0xbc45875f	-0.012056201
211	0xbb3d4207	-0.0028878467
212	0x3c51b8d2	0.012800412
213	0xbc595c5b	-0.013266648
214	0xbc419763	-0.011815879
215	0xbc6767c7	-0.014123864
216	0x3aac670a	0.0013153267
217	0xbd24573a	-0.04012225
218	0xbce4ff0a	-0.027953643
219	0xbc70925f	-0.014683335
220	0xbcc7b17f	-0.024376629
221	0x3cfd4a80	0.030919313
222	0x3ca763b3	0.020433282
223	0x3cd3b860	0.025844753
224	0xbc9e0f49	-0.019294398
225	0x3a72c1d5	0.00092604506
226	0xbcaeede5	-0.021353671
227	0x3d26cc6f	0.040722307
228	0xbc8db425	-0.017297814
229	0xbce82fb4	-0.02834306
230	0x3cc43d2c	0.02395495
231	0x3d0205c0	0.031743765
232	0xbd022882	-0.031776913
233	0x3a567b24	0.00081818015
234	0xbc5d2c1f	-0.013499289
235	0xbbc39fd0	-0.005969979
236	0x3b8f0d02	0.0043655643
237	0xbd08cc06	-0.033397697
238	0x3ce90201	0.028443338
239	0x3c397380	0.011319041
240	0xbbd4c71f	-0.0064934636
241	0xbc78210e	-0.0151446
242	0x3c4ab474	0.012372125
243	0xbd1e62d4	-0.03866847
244	0xbba20527	-0.004944462
245	0xbc88451f	-0.016634522
246	0x3c79009b	0.015197898
247	0x3ba4a367	0.005024362
248	0x3cd06049	0.025436537
249	0x3c3139be	0.0108169895
250	0xbb5adc7a	-0.0033395574
251	0x3cc2b970	0.023770064
252	0x3cd92633	0.026507473
253	0xb872bd4c	-5.7873593e-05
254	0x3ae5525f	0.0017495862
255	0x3d571526	0.052510403
