models/tsla_model.pth (torch, 416418 bytes, 27 tensors)

kline_transformer.layers.0.self_attn.in_proj_weight f4 [15, 5]
-0.1284584 -0.25523257 -0.40239018 -0.28457093 -0.40310025 0.21929917 -0.11867288 0.250334
0.21799377 0.39529467 -0.22283252 -0.255583 -0.22174348 -0.10647154 -0.0957249 -0.2971227
0.27272072 -0.43609598 0.17263095 -0.023526035 0.09336143 0.10646025 0.26013792 0.27187306
-0.30647206 -0.048777644 -0.3296826 -0.008448286 0.39334565 -0.42137623 -0.031710114 0.13656
0.32789645 -0.03988405 0.14205126 -0.5266938 0.046236422 -0.3458416 0.12897032 0.45973134
-0.14174734 -0.39074007 0.07879498 -0.44395137 0.059569694 0.21812217 0.404668 -0.46855706
0.028917613 0.14197356 -0.035782386 -0.26236987 0.053288385 -0.40823364 0.25396544 -0.14722912
0.36191005 -0.41148636 0.39663148 0.43753815 -0.31724262 -0.3359854 -0.49209484 -0.028311148
-0.03646224 -0.2226177 -0.5509602 0.15602529 0.41516477 0.43949044 0.11165166 0.064645015
0.05023176 0.21301413 0.34752882
00000000: 998a 03be d8ad 82be 1606 cebe 48b3 91be
00000010: 2863 cebe f68f 603e c40a f3bd c72b 803e
00000020: c239 5f3e 1064 ca3e 352e 64be c6db 82be
00000030: b910 63be c00d dabd 6b0b c4bd 7720 98be
00000040: 0da2 8b3e f947 dfbe 2bc6 303e acb9 c0bc
00000050: 4734 bf3d d507 da3d cc30 853e f232 8b3e
00000060: e8e9 9cbe 11cb 47bd 28cc a8be ae6a 0abc
00000070: 9a64 c93e a0be d7be 77e2 01bd 62d6 0b3e
00000080: 0be2 a73e 755d 23bd e375 113e 68d5 06bf
00000090: 6762 3d3d 2612 b1be cc10 043e e861 eb3e
000000a0: 3726 11be 150f c8be 435f a13d 984d e3be
000000b0: 5aff 733d 6b5b 5f3e a530 cf3e b6e6 efbe
000000c0: a1e4 ec3c 8461 113e 8d90 12bd 5855 86be
000000d0: ec44 5a3d 0004 d1be c207 823e 3bc3 16be
000000e0: 464c b93e 57ae d2be 4813 cb3e 0005 e03e
000000f0: a06d a2be 4706 acbe dbf3 fbbe c8ec e7bc
00000100: 6e59 15bd e5f5 63be ba0b 0dbf 18c5 1f3e
00000110: 7a90 d43e e404 e13e a0a9 e43d 9b64 843d
00000120: d1bf 4d3d 6020 5a3e 4cef b13e

kline_transformer.layers.0.self_attn.in_proj_bias f4 [15]
-0.00083144195 0.0059381095 -0.00027328802 -0.0012793861 0.009546072 -0.00013016621 9.518347e-06 -0.0001051276
-8.263683e-08 1.4321779e-05 -0.0019986634 0.0004950274 0.0004966832 0.0018648324 0.0012327448
00000000: 20f5 59ba 7994 c23b 1948 8fb9 13b1 a7ba
00000010: 2167 1c3c 3a7d 08b9 fdb0 1f37 f377 dcb8
00000020: 1476 b1b3 9347 7037 02fc 02bb bac4 013a
00000030: d833 023a 646d f43a 0d94 a13a

kline_transformer.layers.0.self_attn.out_proj.weight f4 [5, 5]
0.38701484 -0.16455895 -0.37557027 -0.09912779 -0.40335244 0.27675104 -0.022150036 -0.079945594
0.3140958 -0.29591233 -0.12117588 -0.11014612 0.3241776 0.043408178 -0.09971982 0.05518604
-0.4308831 0.16794255 0.43105137 0.16928169 0.19701004 -0.31409144 -0.21340251 -0.25512582
-0.35676438
00000000: cf26 c63e 2482 28be bf4a c0be 8303 cbbd
00000010: 3684 cebe 50b2 8d3e fe73 b5bc 84ba a3bd
00000020: 2ad1 a03e d281 97be 0f2b f8bd 4a94 e1bd
00000030: 9bfa a53e c6cc 313d e839 ccbd c20a 623d
00000040: b69c dcbe 22f9 2b3e c4b2 dc3e 2e58 2d3e
00000050: 00bd 493e 98d0 a0be 3086 5abe da9f 82be
00000060: d2a9 b6be

kline_transformer.layers.0.self_attn.out_proj.bias f4 [5]
-0.0056573963 0.007107434 -0.008063277 0.001037793 0.0026980955
00000000: ae61 b9bb 7ae5 e83b d61b 04bc 8e06 883a
00000010: 88d2 303b

kline_transformer.layers.0.linear1.weight f4 [128, 5]
0.26926425 -0.36826706 0.3252808 -0.24575256 -0.27154085 -0.33445835 -0.108977094 0.21690243
-0.326814 0.38471258 -0.16597043 -0.4415333 0.2262542 -0.07844713 -0.06416316 0.051171593
0.3956507 -0.42880556 -0.13733096 -0.0047963406 0.32674333 0.08560706 -0.05777195 -0.18002807
0.40763667 0.4527736 -0.34485385 0.14217682 -0.29908478 0.013666574 0.35523063 -0.30906668
-0.26901653 -0.3075036 0.2445133 0.17301528 0.19352238 -0.21962272 -0.36498263 0.32056358
0.11149883 0.43650076 -0.12223386 0.33078504 0.437182 -0.10210673 -0.2792085 -0.33413336
0.29484063 -0.44959164 0.242498 -0.028411018 0.42202762 -0.010671007 -0.13271177 0.2536996
0.42832154 0.08511223 0.25499883 0.38341984 0.16754259 -0.24562126 -0.27622858 0.26062313
-0.027094785 0.37212753 -0.0120416805 -0.19109458 -0.11836521 -0.23892236 0.18277664 0.015619081
-0.39044365 0.15135396 -0.12322686 -0.10812206 0.20438091 -0.16686477 0.40499893 -0.025567748
-0.05604952 -0.41951966 0.31375384 -0.015547809 -0.12967783 0.13306965 0.06756149 -0.3144272
-0.00418124 -0.05415886 0.18956959 -0.35416445 0.17607643 0.16062753 0.034106 0.04187621
-0.35187498 0.019422613 -0.3125997 -0.41391134 -0.328966 0.30817166 -0.28641355 0.21082877
-0.18650308 0.2719041 -0.30593744 -0.40711442 0.25740334 0.26802316 0.331918 0.42658073
0.13249193 -0.34459707 -0.01963465 -0.38029563 -0.39674768 -0.40669948 -0.16514708 0.1814999
0.18077663 0.4221679 0.045985464 -0.05377653 -0.3039792 -0.44303167 0.06603044 -0.09371686
-0.12867793 0.0059562596 -0.0053806338 -0.3282427 0.29672235 -0.18960164 -0.1445622 -0.045322113
0.20301236 0.26579702 0.44328296 0.18070765 -0.34860897 -0.11268393 -0.35921434 -0.22126843
-0.028012075 0.23977505 -0.04185006 0.24372336 0.17596324 -0.06962058 -0.1437783 -0.108965896
0.09954116 -0.36791122 0.39956743 0.12003088 0.29755232 0.16957411 0.2620759 -0.09227681
-0.11306101 0.37164345 0.41830173 -0.20950718 -0.2938769 -0.32003075 -0.1678895 -0.37525836
-0.42207766 -0.17405242 -0.37865958 0.36107767 -0.032441035 0.41424116 0.2548307 -0.33753073
-0.30966416 -0.20682682 0.1523155 0.44090357 0.41574645 -0.1575775 -0.40658453 0.13381328
0.41888842 0.07627956 -0.3799372 -0.18251058 -0.43666688 0.41562092 -0.07697381 -0.3834686
0.09309558 0.16170195 -0.05390465 0.2269082 -0.31177428 -0.45274892 -0.2638599 0.34652978
0.2650133 -0.4489806 0.027952379 0.3401938 -0.03514874 -0.3740109 -0.19524051 0.21647651
0.43393806 -0.17044763 -0.38864902 0.37472543 0.038466185 0.28480104 0.04261145 -0.280575
0.030859243 0.2465962 -0.39231983 0.4294954 0.25389755 -0.12634988 -0.0012802668 -0.14765272
-0.14730278 0.41498426 -0.287537 -0.12142567 -0.24936955 -0.33834937 -0.22871138 0.34608978
0.062321655 -0.3723401 -0.03791377 -0.40400538 0.38684976 -0.099614635 -0.21278211 0.06982558
0.18376537 -0.43461126 0.20003304 0.31544197 0.17054586 -0.31618607 0.09488451 -0.1368714
-0.36047322 0.2125334 -0.10978408 0.09268948 -0.46817973 0.09816358 0.04804469 0.2870911
00000000: 01dd 893e 808d bcbe 348b a63e 8fa6 7bbe
00000010: 6707 8bbe 203e abbe 622f dfbd ac1b 5e3e
00000020: 2a54 a7be 0cf9 c43e 27f4 29be a710 e2be
00000030: 2eaf 673e e4a8 a0bd fa67 83bd 4e99 513d
00000040: bb92 ca3e 678c dbbe 7da0 0cbe 9f2a 9dbb
00000050: e74a a73e c152 af3d 48a2 6cbd 4759 38be
00000060: c1b5 d03e f1d1 e73e af90 b0be cd96 113e
00000070: a421 99be c4e9 5f3c cae0 b53e fd3d 9ebe
00000080: 89bc 89be 1d71 9dbe b261 7a3e eb2a 313e
00000090: bb2a 463e c7e4 60be 01df babe e920 a43e
000000a0: 8059 e43d 077d df3e bf55 fabd a85c a93e
000000b0: 52d6 df3e 551d d1bd 6bf4 8ebe 8713 abbe
000000c0: 5af5 963e e030 e6be 6551 783e 39be e8bc
000000d0: 0114 d83e 73d5 2ebc 98e5 07be eae4 813e
000000e0: f64c db3e 524f ae3d 358f 823e 9b4f c43e
000000f0: 4990 2b3e 2484 7bbe d56d 8dbe 6570 853e
00000100: e2f5 ddbc 8087 be3e 784a 45bc 4cae 43be
00000110: 7669 f2bd 10a8 74be cd29 3b3e 2de7 7f3c
00000120: 3be8 c7be 88fc 1a3e 5d5e fcbd 196f ddbd
00000130: 3b49 513e 99de 2abe 055c cf3e 7473 d1bc
00000140: 2e94 65bd 48cb d6be 58a4 a03e 3dbc 7ebc
00000150: 44ca 04be 6943 083e ae5d 8a3d 9afc a0be
00000160: c902 89bb aed5 5dbd 881e 423e 0b55 b5be
00000170: 614d 343e 8b7b 243e bcb2 0b3d 6486 2b3d
00000180: f528 b4be 2c1c 9f3c 110d a0be 30ec d3be
00000190: 3b6e a8be adc8 9d3e cca4 92be 7fe3 573e
000001a0: aafa 3ebe 0437 8b3e d5a3 9cbe 4d71 d0be
000001b0: 5fca 833e 553a 893e 28f1 a93e ca68 da3e
000001c0: f7ab 073e 076f b0be d8d8 a0bc 1cb6 c2be
000001d0: 8322 cbbe ea3a d0be 511c 29be 1cdb 393e
000001e0: 821d 393e 6426 d83e 415b 3c3d c744 5cbd
000001f0: 29a3 9bbe 0cd5 e2be f83a 873d a0ee bfbd
00000200: 26c4 03be ba2c c33b 0750 b0bb 6d0f a8be
00000210: feeb 973e ef26 42be 1d08 14be aea3 39bd
00000220: 79e2 4f3e 8c16 883e fcf5 e23e 6d0b 393e
00000230: e07c b2be d5c6 e6bd f1ea b7be 3194 62be
00000240: 9479 e5bc 9787 753e f86a 2bbd 9e92 793e
00000250: b52f 343e 3c95 8ebd 9e3a 13be 8329 dfbd
00000260: 3cdc cb3d dc5e bcbe 1a94 cc3e c0d2 f53d
00000270: c758 983e d6a4 2d3e d02e 863e a0fb bcbd
00000280: 888c e7bd 0d48 be3e a52b d63e 0d89 56be
00000290: 0877 96be 12db a3be 3aeb 2bbe dd21 c0be
000002a0: 901a d8be cc3a 32be abdf c1be 2cdf b83e
000002b0: e4e0 04bd 6b17 d43e 2b79 823e d4d0 acbe
000002c0: 4d8c 9ebe 69ca 53be 98f8 1b3e 1dbe e13e
000002d0: b8dc d43e ff5b 21be d92b d0be 5906 093e
000002e0: 8b78 d63e 7538 9c3d 2187 c2be 0ee4 3abe
000002f0: cd92 dfbe 44cc d43e 72a4 9dbd ff55 c4be
00000300: e5a8 be3d 3295 253e 1fcb 5cbd a05a 683e
00000310: e1a0 9fbe b5ce e7be a518 87be 5a6c b13e
00000320: d3af 873e c9e0 e5be 63fc e43c e22d ae3e
00000330: 20f8 0fbd 5b7e bfbe 21ed 47be 05ac 5d3e
00000340: 212d de3e d389 2ebe 01fd c6be 03dc bf3e
00000350: b88e 1d3d 71d1 913e 5889 2e3d 87a7 8fbe
00000360: 86cc fc3c b783 7c3e 25de c8be d2e6 db3e
00000370: dcfe 813e dd61 01be a0ce a7ba 4632 17be
00000380: 8ad6 16be d178 d43e 0d38 93be 06ae f8bd
00000390: bb5a 7fbe 213c adbe 5133 6abe ae32 b13e
000003a0: fe44 7f3d 5da3 bebe 784b 1bbd cbd9 cebe
000003b0: 2c11 c63e c202 ccbd 8ee3 59be b700 8f3d
000003c0: fd2c 3c3e 5e85 debe 76d5 4c3e 9c81 a13e
000003d0: 93a3 2e3e 24e3 a1be cf52 c23d 0428 0cbe
000003e0: f28f b8be 5ba2 593e 7ad6 e0bd fbd3 bd3d
000003f0: 41b5 efbe fd09 c93d 82ca 443d 9bfd 923e

kline_transformer.layers.0.linear1.bias f4 [128]
-0.24599749 0.38338882 -0.19658543 -0.01043179 0.29958576 -0.39926875 -0.11716749 -0.3762173
0.121476844 0.16396937 -0.09935869 -0.18408787 -0.023388816 -0.23308717 -0.3781695 -0.40009257
-0.3544591 0.41042504 0.2178448 -0.4140156 0.2566184 -0.03853358 0.4400552 -0.01899114
-0.3041018 -0.17430791 -0.18763351 0.05084977 0.31564435 -0.29144713 -0.21604186 -0.33799627
0.058926564 0.43762234 0.24970017 -0.2036018 0.25572857 0.027205711 -0.24363944 0.04804451
0.44217202 0.3686479 -0.40029758 0.021908067 -0.13323048 -0.2545548 -0.27644074 0.22000393
-0.02680489 -0.20649044 0.4344574 -0.31928635 0.1863651 -0.2476254 0.09069998 -0.39763942
-0.28354424 0.091654934 0.3926654 -0.32199734 0.23232763 -0.33357292 0.2313693 -0.26166722
-0.24095595 -0.42401746 0.10292738 -0.20820701 -0.08791558 0.29555345 0.42935508 0.16460611
-0.13229154 0.12807867 -0.058760624 0.24320659 -0.32696933 0.17004724 0.42776573 -0.06800246
-0.053410675 0.046607845 -0.26096433 0.35921654 -0.29951978 0.3371668 -0.3893924 0.2004704
0.1652759 -0.21973853 -0.057962306 -0.042533968 -0.109232694 -0.38090256 -0.17649612 -0.034872357
0.37598115 -0.27792558 -0.29552603 0.118874565 0.44393888 -0.16636579 -0.3198171 -0.093342476
-0.375341 -0.44086 -0.31351578 0.43197244 -0.384935 0.3577889 -0.2502542 -0.0567787
-0.3115574 0.15216282 0.23835802 -0.1949655 -0.34574834 0.07984448 0.21983936 0.16674924
-0.3905295 -0.1681112 0.06539758 -0.10064152 0.07559966 0.35966054 0.26376823 -0.16982779
00000000: c4e6 7bbe 8a4b c43e b14d 49be 19ea 2abc
00000010: 4e63 993e f46c ccbe 82f5 efbd 8e9f c0be
00000020: dac8 f83d 96e7 273e 927c cbbd 8881 3cbe
00000030: e799 bfbc 67ae 6ebe 6f9f c1be efd8 ccbe
00000040: aa7b b5be 3b23 d23e b512 5f3e daf9 d3be
00000050: 7d63 833e 63d5 1dbd ea4e e13e 4f93 9bbc
00000060: 3bb3 9bbe c67d 32be 0023 40be d947 503d
00000070: 239c a13e 8f38 95be 143a 5dbe d90d adbe
00000080: fb5c 713d 0910 e03e 67b1 7f3e fe7c 50be
00000090: dbee 823e 83de de3c 9e7c 79be 52ca 443d
000000a0: 5f64 e23e 6bbf bc3e cef3 ccbe 8c78 b33c
000000b0: 926d 08be 0255 82be a489 8dbe b648 613e
000000c0: ee95 dbbc 3b72 53be 3371 de3e 8079 a3be
000000d0: 7ed6 3e3e 8391 7dbe e9c0 b93d 6597 cbbe
000000e0: b62c 91be 95b5 bb3d 700b c93e d6dc a4be
000000f0: 4be7 6d3e 12ca aabe 13ec 6c3e 3ff9 85be
00000100: 28bd 76be d118 d9be 97cb d23d 3834 55be
00000110: 150d b4bd c852 973e 6ed4 db3e 818e 283e
00000120: 6f77 07be 0e27 033e fbae 70bd 260b 793e
00000130: 8668 a7be dd20 2e3e 1c04 db3e e044 8bbd
00000140: 27c5 5abd dee7 3e3d 1e9d 85be 3beb b73e
00000150: a85a 99be 20a1 ac3e 715e c7be 1d48 4d3e
00000160: 163e 293e 2303 61be e269 6dbd 1938 2ebd
00000170: 64b5 dfbd a905 c3be 66bb 34be 51d6 0ebd
00000180: 9a80 c03e 434c 8ebe 304f 97be 8274 f33d
00000190: f54b e33e cb5b 2abe 11bf a3be 572a bfbd
000001a0: b22c c0be 67b8 e1be 2485 a0be 7e2b dd3e
000001b0: 3316 c5be 1b30 b73e 5221 80be c890 68bd
000001c0: 7484 9fbe 92d0 1b3e 2014 743e 09a5 47be
000001d0: ed05 b1be 8185 a33d 921d 613e 50c0 2a3e
000001e0: 7cf3 c7be 5825 2cbe 2bef 853d 241d cebd
000001f0: ffd3 9a3d 6d25 b83e a10c 873e 56e7 2dbe

kline_transformer.layers.0.linear2.weight f4 [5, 128]
-0.03685153 -0.010541292 -0.062125217 0.057822105 0.016201468 -0.0936181 0.009209818 0.07016723
-0.083037 0.015586335 -0.067065544 0.023935335 -0.076746486 0.039336093 0.008901407 0.07513702
-0.029892722 -0.018527668 0.055082437 -0.022712145 -0.08838506 0.03007786 -0.08937897 0.024746545
0.021339579 0.0042300425 -0.034850724 -0.080865316 0.017878959 -0.027771436 0.076192714 -0.07719692
-0.052007843 -0.0026529792 -0.06936083 -0.029933404 0.06900861 0.068541974 -0.046063807 0.08400198
-0.015899876 -0.074916676 -0.014632385 -5.8061023e-06 0.02207177 -0.03481085 -0.02194821 0.029604875
0.07547887 0.03982647 0.05799525 0.012088951 0.041695375 -0.056350574 -0.022323823 -0.04975879
-0.013007458 -0.058896992 -0.05575819 -0.087070644 0.07328645 -0.06378171 0.07671766 0.07857716
-0.028861396 -0.07983685 -0.079398945 0.077797174 0.08099882 0.042897206 0.06958088 -0.07638564
0.028469197 -0.005282756 -0.019212626 0.07826141 -0.013734891 0.015147153 -0.008560814 -0.07618191
-0.054075345 -0.07615504 -0.034993023 0.00038362673 -0.017619736 -0.0770516 0.07061448 -0.09721914
0.054289937 0.05405538 -0.006757059 0.07147817 -0.06523941 0.026960103 0.04476236 -0.010857554
0.005644754 0.04736195 0.067477055 -0.08632021 -0.0798377 0.035734877 -0.017157372 0.004925991
-0.01735272 0.038689483 -0.08241045 0.03624004 -0.053915817 -0.011672581 0.024629224 0.011367305
0.041013133 -0.027466267 0.041049294 -0.0069107064 0.021133214 -0.08418163 -0.06448491 0.0061724973
-0.014023496 0.0851934 -0.02051396 0.05497245 0.02947355 -0.014898048 0.048838194 -0.057713885
-0.054727823 -0.080557816 0.02463857 -0.025522735 0.033995118 -0.08099484 0.036917597 -0.0015084251
0.08269809 0.08494687 -0.025863595 0.052424032 -0.054656446 0.08545282 -0.08726449 0.072192185
-0.023574656 -0.045975305 0.013786502 -0.05197219 -0.069088995 0.0040530693 -0.01480801 -0.025100978
-0.024592135 -0.049473394 0.06868945 0.038554262 -0.05447435 -0.016729455 -0.038396314 0.08100804
-0.03890746 0.04033302 0.028844833 -0.047094557 -0.00905269 -0.07897023 0.052781973 -0.051778264
-0.0103852665 -0.009467154 -0.00013745489 0.05590251 -0.06408608 0.089723945 -0.06121875 -0.0058015296
-0.054821055 0.041003674 0.05137422 0.026016776 0.013164602 -0.005550638 0.066040486 -0.062461462
-0.0022133964 -0.011902858 0.031097185 0.04019214 0.036249604 0.052029394 -0.012535783 -0.04332775
-0.048208877 -0.05209459 0.058157116 -0.08181474 -0.075351655 -0.03447525 -0.025729103 0.0096656205
-0.07363753 0.019094871 0.09787884 -0.02740775 -0.010386731 0.028994555 -0.020402081 -0.035792388
-0.03511246 0.09390935 0.027159415 -0.06682375 0.0021394012 -0.044154022 -0.047826596 -0.018328778
-0.02356504 0.06446484 -0.021671474 -0.052599125 0.04062588 0.0053626476 0.05950452 0.0678118
-0.068201594 0.028846327 -0.00818687 -0.025302026 -0.0014990397 -0.0769548 -0.08088601 0.07323377
-0.0052362564 0.014258055 0.017327456 -0.021017497 -0.1070448 0.038813166 0.0066912323 0.019868186
-0.038674396 0.020126287 0.04214635 0.041949168 -0.015516575 0.020196663 -0.0104880445 -0.011769256
0.017044393 0.039323132 0.101010434 -0.06122094 0.04647766 -0.071079016 0.007753436 0.0101744
00000000: a1f1 16bd 62b5 2cbc 0377 7ebd dfd6 6c3d
00000010: f1b8 843c d9ba bfbd c7e4 163c d6b3 8f3d
00000020: 4d0f aabd d45d 7f3c a959 89bd 0914 c43c
00000030: 432d 9dbd e21e 213d 35d7 113c 70e1 993d
00000040: 95e1 f4bc 56c7 97bc 1f9e 613d d20e babc
00000050: 3a03 b5bd d865 f63c 520c b7bd 44b9 ca3c
00000060: 57d0 ae3c 2b9c 8a3b a2bf 0ebd b79c a5bd
00000070: e576 923c ec80 e3bc ed0a 9c3d 6b19 9ebd
00000080: 2d06 55bd 9bdd 2dbb 0d0d 8ebd e636 f5bc
00000090: 6354 8d3d bc5f 8c3d 67ad 3cbd 3b09 ac3d
000000a0: 7540 82bc ea6d 99bd acbc 6fbc 0ad2 c2b6
000000b0: dbcf b43c d295 0ebd bccc b3bc ec85 f23c
000000c0: aa94 9a3d 1521 233d 6d8c 6d3d bc10 463c
000000d0: c5c8 2a3d dccf 66bd 73e0 b6bc dfcf 4bbd
000000e0: 3c1d 55bc f93d 71bd b362 64bd 1852 b2bd
000000f0: 3517 963d fc9f 82bd 261e 9d3d 10ed a03d
00000100: bc6e ecbc 8181 a3bd ea9b a2bd 2054 9f3d
00000110: b6e2 a53d fbb4 2f3d 6c80 8e3d 1370 9cbd
00000120: 3c38 e93c f81a adbb cc63 9dbc 8547 a03d
00000130: 4f08 61bc c42b 783c a842 0cbc 4305 9cbd
00000140: 1c7e 5dbd 2cf7 9bbd d854 0fbd 8221 c939
00000150: 4457 90bc 3bcd 9dbd 539e 903d d41a c7bd
00000160: 205f 5e3d 2d69 5d3d 526a ddbb 2663 923d
00000170: 3d9c 85bd 6fdb dc3c bd58 373d e2e3 31bc
00000180: a1f7 b83b 9bfe 413d 6931 8a3d a6c8 b0bd
00000190: f381 a3bd bc5e 123d 9e8d 8cbc 356a a13b
000001a0: 4b27 8ebc dd78 1e3d cfc6 a8bd 7070 143d
000001b0: d5d6 5cbd 5a3e 3fbc 3ac3 c93c ef3d 3a3c
000001c0: 63fd 273d f000 e1bc 4e23 283d 3573 e2bb
000001d0: 901f ad3c 6b67 acbd aa10 84bd a942 ca3b
000001e0: cec2 65bc e179 ae3d e40c a8bc cb2a 613d
000001f0: 8472 f13c f116 74bc 8f0a 483d 6565 6cbd
00000200: 482a 60bd 7ffb a4bd d4d6 c93c 0e15 d1bc
00000210: 773e 0b3d 9fe0 a5bd e836 173d 59b6 c5ba
00000220: 9e5d a93d a0f8 ad3d e4df d3bc 95ba 563d
00000230: 70df 5fbd e301 af3d bab7 b2bd 7fd9 933d
00000240: a31f c1bc 9a50 3cbd c8e0 613c cbe0 54bd
00000250: 887e 8dbd 9ccf 843b 4c9d 72bc 91a0 cdbc
00000260: 7275 c9bc 9da4 4abd 0ead 8c3d 13eb 1d3d
00000270: 7f20 5fbd 360c 89bc 7445 1dbd 8be7 a53d
00000280: 6e5d 1fbd 3d34 253d 004c ec3c 39e6 40bd
00000290: bc51 14bc 25bb a1bd e931 583d 7215 54bd
000002a0: f726 2abc 1f1c 1bbc c421 10b9 08fa 643d
000002b0: 903f 83bd 30c1 b73d 83c0 7abd c21a bebb
000002c0: 0b8c 60bd 78f3 273d c66d 523d 2221 d53c
000002d0: 58b0 573c 20e2 b5bb 3c40 873d 97d7 7fbd
000002e0: a10e 11bb 3404 43bc 86bf fe3c 83a0 243d
000002f0: 777a 143d c61c 553d e362 4dbc 7078 31bd
00000300: ac76 45bd 2361 55bd 2836 6e3d 7d8e a7bd
00000310: f851 9abd eb35 0dbd d7c5 d2bc 8d5c 1e3c
00000320: 46cf 96bd d96c 9c3c b474 c83d 3886 e0bc
00000330: 1b2d 2abc fd85 ed3c 4422 a7bc 0a9b 12bd
00000340: 15d2 0fbd 8c53 c03d 6c7d de3c e4da 88bd
00000350: 3235 0c3b d9da 34bd d2e5 43bd 3c26 96bc
00000360: 790b c1bc 2406 843d 6088 b1bc 2e72 57bd
00000370: 5367 263d 26b9 af3b 03bb 733d eae0 8a3d
00000380: 47ad 8bbd 224f ec3c 3922 06bc 3246 cfbc
00000390: 6d7b c4ba 7a9a 9dbd 90a7 a5bd 96fb 953d
000003a0: e794 abbb 9e9a 693c 4ff2 8d3c e32c acbc
000003b0: 4e3a dbbd 8efa 1e3d 2042 db3b 9bc2 a23c
000003c0: 0b69 1ebd e2df a43c a7a1 2c3d e4d2 2b3d
000003d0: 3c39 7ebc 7973 a53c 0cd6 2bbc d6d3 40bc
000003e0: afa0 8b3c 4b11 213d 8fde ce3d cfc2 7abd
000003f0: 5c5f 3e3d e091 91bd 8910 fe3b 87b2 263c

kline_transformer.layers.0.linear2.bias f4 [5]
0.028126806 -0.048396897 0.042947736 0.0070630624 0.0667872
00000000: 306a e63c d33b 46bd f7e9 2f3d 4371 e73b
00000010: bac7 883d

kline_transformer.layers.0.norm1.weight f4 [5]
0.9771368 1.0087521 0.9916203 1.0204988 1.0192614
00000000: a325 7a3f ca1e 813f d4da 7d3f b49f 823f
00000010: 2877 823f

kline_transformer.layers.0.norm1.bias f4 [5]
-0.0035793905 0.010285094 -0.003165423 0.0012167611 -0.001867941
00000000: 3594 6abb d082 283c fc72 4fbb ba7b 9f3a
00000010: b3d5 f4ba

kline_transformer.layers.0.norm2.weight f4 [5]
0.9838989 0.9983265 0.9926991 1.0086133 1.0240695
00000000: cce0 7b3f 5392 7f3f 8721 7e3f 3e1a 813f
00000010: b614 833f

kline_transformer.layers.0.norm2.bias f4 [5]
-0.0035552639 0.022141853 -0.0037388152 0.0004600118 0.015313669
00000000: 6eff 68bb d562 b53c e906 75bb bd2d f139
00000010: 2fe6 7a3c

kline_transformer.layers.1.self_attn.in_proj_weight f4 [15, 5]
-0.15351571 -0.27809313 -0.43673128 -0.30976623 -0.3983383 0.2394643 -0.10323286 0.2747375
0.23551969 0.37278044 -0.21295539 -0.24615936 -0.20252939 -0.09321202 -0.09845895 -0.2954047
0.27390918 -0.42385325 0.17731634 -0.02675898 0.11226096 0.130244 0.2913496 0.28045967
-0.31352437 -0.0650326 -0.34879425 -0.026858615 0.37571397 -0.42152897 -0.012813343 0.1582188
0.3449609 -0.016842771 0.13400036 -0.5090746 0.06822121 -0.32409677 0.15112692 0.4164853
-0.14475775 -0.39257306 0.07763595 -0.44451204 0.037359104 0.20957264 0.39188918 -0.48161155
0.016114645 0.16077784 -0.058027506 -0.27790418 0.039999343 -0.42147353 0.2688881 -0.11613117
0.38387278 -0.37915495 0.44034094 0.4455837 -0.30101317 -0.3280637 -0.48468906 -0.020875962
-0.04586747 -0.20287964 -0.5393978 0.1679109 0.4292604 0.43824986 0.13932003 0.086625874
0.070533045 0.2331107 0.33763257
00000000: 3933 1dbe 3962 8ebe 3e9b dfbe ae99 9ebe
00000010: fff2 cbbe 2136 753e c06b d3bd 65aa 8c3e
00000020: 132c 713e 14dd be3e fa10 5abe 3311 7cbe
00000030: dd63 4fbe f2e5 bebd d9a4 c9bd 493f 97be
00000040: d33d 8c3e 4b03 d9be 6a92 353e a635 dbbc
00000050: 13e9 e53d af5e 053e c62b 953e 6998 8f3e
00000060: 4486 a0be d02f 85bd 2995 b2be 9906 dcbc
00000070: 955d c03e a5d2 d7be 0eef 51bc 1c04 223e
00000080: b79e b03e daf9 89bc 6437 093e b752 02bf
00000090: 90b7 8b3d 03f0 a5be 04c1 1a3e 903d d53e
000000a0: 603b 14be 56ff c8be 99ff 9e3d 1597 e3be
000000b0: dc05 193d 369a 563e b3a5 c83e ca95 f6be
000000c0: dc02 843c f2a2 243e 40ae 6dbd 7549 8ebe
000000d0: 5ad6 233d 61cb d7be b3ab 893e 2ed6 edbd
000000e0: f98a c43e 9920 c2be 5e74 e13e 8c23 e43e
000000f0: 661e 9abe f7f7 a7be 2a29 f8be 1104 abbc
00000100: 87df 3bbd aebf 4fbe f915 0abf d6f0 2b3e
00000110: 05c8 db3e 4962 e03e e9a9 0e3e e868 b13d
00000120: a173 903d 92b4 6e3e 2dde ac3e

kline_transformer.layers.1.self_attn.in_proj_bias f4 [15]
-0.0015066362 0.0021955003 0.0011664354 0.001543798 -0.004894897 -4.2149154e-06 -5.2670225e-06 -1.26271e-07
-7.634935e-06 1.1331063e-05 0.00049873773 0.007717531 0.00063553895 0.0014670257 -2.048667e-05
00000000: 527a c5ba 62e2 0f3b 14e3 983a 4459 ca3a
00000010: 5f65 a0bb d96d 8db6 61bb b0b6 1c95 07b4
00000020: cc17 00b7 8c1a 3e37 b9bd 023a 58e3 fc3b
00000030: 4c9a 263a 3749 c03a cada abb7

kline_transformer.layers.1.self_attn.out_proj.weight f4 [5, 5]
0.40766567 -0.17039303 -0.3580783 -0.10251691 -0.3906295 0.26549783 -0.012708268 -0.095079444
0.31482562 -0.29697457 -0.10474465 -0.114863895 0.34559587 0.034623194 -0.09452925 0.03355746
-0.426364 0.15052506 0.43309152 0.15695782 0.24195264 -0.33308765 -0.16828404 -0.2335068
-0.36589184
00000000: 8eb9 d03e 837b 2ebe 0a56 b7be 63f4 d1bd
00000010: 9700 c8be 55ef 873e 5736 50bc 03b9 c2bd
00000020: d330 a13e 0d0d 98be 5d84 d6bd c33d ebbd
00000030: f1f1 b03e 0dd1 0d3d 8d98 c1bd 8c73 093d
00000040: 624c dabe 3e23 1a3e 2cbe dd3e 8db9 203e
00000050: 6fc2 773e 778a aabe a752 2cbe 681c 6fbe
00000060: 2d56 bbbe

kline_transformer.layers.1.self_attn.out_proj.bias f4 [5]
-0.0039171395 0.00798499 -0.00413333 -0.00034002986 0.002054512
00000000: 595b 80bb 7ad3 023c e370 87bb 0946 b2b9
00000010: fea4 063b

kline_transformer.layers.1.linear1.weight f4 [128, 5]
0.27152178 -0.36346623 0.3277608 -0.24817172 -0.2704232 -0.34001988 -0.11330045 0.21741675
-0.32174405 0.39122716 -0.14918807 -0.44092122 0.2080998 -0.071131326 -0.066558965 0.053694654
0.40816623 -0.42881814 -0.14223224 -0.0072508887 0.32079393 0.0855275 -0.046551608 -0.15485223
0.40862638 0.44006452 -0.35788342 0.14996137 -0.30111134 0.019869631 0.34023657 -0.31081623
-0.27682626 -0.2982186 0.25177297 0.17837487 0.195838 -0.21449262 -0.3663401 0.3165776
0.13274099 0.43983135 -0.1408001 0.32443652 0.442897 -0.12204837 -0.29732263 -0.35408318
0.29319325 -0.4283464 0.22945108 -0.050445914 0.41896516 0.0013836024 -0.13160755 0.24856628
0.43442798 0.090593815 0.25366607 0.37881586 0.15889645 -0.2596326 -0.2739537 0.26612437
-0.013700907 0.34458363 -0.009503046 -0.18529953 -0.10553818 -0.2316168 0.17435311 0.0092876665
-0.36212316 0.14487565 -0.12017378 -0.102858 0.20939353 -0.16384871 0.41373077 -0.037434127
-0.05014209 -0.4152331 0.3149877 -0.012775047 -0.1311644 0.13830893 0.08592679 -0.31280136
0.005481819 -0.06332206 0.18479297 -0.33603618 0.17527117 0.17197564 0.042560324 0.044061944
-0.33914036 0.02531684 -0.3102121 -0.41672292 -0.32295626 0.29890206 -0.2927746 0.20875724
-0.18483028 0.26529858 -0.29160312 -0.3832466 0.27319664 0.25857297 0.33377066 0.41751975
0.114416026 -0.3591849 -0.012165895 -0.37988275 -0.3955405 -0.40438005 -0.17210191 0.17945915
0.18191937 0.44044757 0.050452758 -0.050244037 -0.3054006 -0.44772273 0.06085449 -0.098866455
-0.11927695 0.01139825 -0.026100522 -0.34526935 0.28563392 -0.19815595 -0.12991251 -0.017059477
0.21036783 0.277664 0.43826464 0.16168305 -0.34809014 -0.11263194 -0.35465583 -0.22945213
-0.029739944 0.24098891 -0.056092273 0.24283282 0.19194241 -0.071910866 -0.14612496 -0.11102945
0.09644091 -0.3482406 0.4016013 0.117911674 0.29831183 0.1704181 0.2623365 -0.08890941
-0.120776266 0.3793549 0.41640517 -0.21820544 -0.28717247 -0.33030957 -0.17364694 -0.39576542
-0.4434916 -0.16483708 -0.3818206 0.35813603 -0.04216053 0.42485976 0.25922784 -0.33753452
-0.30759302 -0.20315045 0.13624765 0.43930304 0.40020797 -0.16138777 -0.40924883 0.1402967
0.4250372 0.06457587 -0.35565096 -0.16033389 -0.40530318 0.39367098 -0.06570712 -0.3945292
0.092797294 0.15968578 -0.051250193 0.21469916 -0.32760808 -0.44271255 -0.26052308 0.35564852
0.26979652 -0.43267825 0.026664823 0.3539676 -0.028771598 -0.37308306 -0.21666221 0.21526943
0.42534855 -0.17669958 -0.39144257 0.3824433 0.0387877 0.28910956 0.041619036 -0.27089784
0.03651713 0.26416877 -0.38791728 0.42043117 0.23821275 -0.121865585 0.023169883 -0.14624023
-0.15714745 0.4174192 -0.2953866 -0.14231798 -0.25742966 -0.32965925 -0.23458657 0.35067442
0.06493519 -0.35974222 -0.042007025 -0.4051056 0.3827689 -0.10103658 -0.21579088 0.071530364
0.17153893 -0.43326044 0.20849305 0.31744647 0.18148887 -0.3215231 0.09039141 -0.14232421
-0.36430806 0.21572973 -0.10712356 0.109086044 -0.4679078 0.10868569 0.047130782 0.28755814
00000000: e704 8b3e 3f18 babe 43d0 a73e ba20 7ebe
00000010: e974 8abe 1617 aebe 110a e8bd 7fa2 5e3e
00000020: a3bb a4be ed4e c83e c2c4 18be 6dc0 e1be
00000030: 1d18 553e 4dad 91bd 1150 88bd edee 5b3d
00000040: 2afb d03e 0d8e dbbe 54a5 11be dd98 edbb
00000050: 1a3f a43e 0b29 af3d e6ac 3ebd 9591 1ebe
00000060: 7a37 d13e 2350 e13e 7f3c b7be 798f 193e
00000070: 442b 9abe a3c5 a23c 7d33 ae3e 4e23 9fbe
00000080: 2cbc 8dbe 1cb0 98be 63e8 803e e7a7 363e
00000090: c289 483e f4a3 5bbe ee90 bbbe 7616 a23e
000000a0: 41ed 073e 9331 e13e e72d 10be 8b1c a63e
000000b0: 65c3 e23e 7ff4 f9bd ac3a 98be 644a b5be
000000c0: 6d1d 963e 3850 dbbe 39f5 6a3e 60a0 4ebd
000000d0: 9a82 d63e fe59 b53a 21c4 06be 2988 7e3e
000000e0: 586d de3e 4089 b93d 85e0 813e 27f4 c13e
000000f0: c0b5 223e 90ee 84be a943 8cbe 7441 883e
00000100: c579 60bc 446d b03e aab2 1bbc 29bf 3dbe
00000110: 6724 d8bd f42c 6dbe 9f89 323e 4c2b 183c
00000120: 3568 b9be 485a 143e ac1d f6bd 37a7 d2bd
00000130: 426b 563e f5c7 27be 85d4 d33e 8754 19bd
00000140: cb61 4dbd 6f99 d4be 1146 a13e 6e4e 51bc
00000150: f64f 06be dba0 0d3e 63fa af3d 8027 a0be
00000160: d5a0 b33b ffae 81bd 5e3a 3d3e ef0c acbe
00000170: 497a 333e 621a 303e bc53 2e3d 4c7a 343d
00000180: cea3 adbe 4365 cf3c 1fd4 9ebe b55c d5be
00000190: 865a a5be b109 993e 8de6 95be 75c4 553e
000001a0: 2644 3dbe 37d5 873e 014d 95be e638 c4be
000001b0: 6ee0 8b3e ad63 843e fde3 aa3e 26c5 d53e
000001c0: f352 ea3d 15e7 b7be 7653 47bc fe7f c2be
000001d0: 4984 cabe e70a cfbe 7c3b 30be 24c4 373e
000001e0: 1249 3a3e 5882 e13e 8da7 4e3d b1cc 4dbd
000001f0: 785d 9cbe ea3b e5be 8f42 793d 7f7a cabd
00000200: 7947 f4bd babf 3a3c c3d0 d5bc 25c7 b0be
00000210: 9c3e 923e 65e9 4abe c907 05be 51c0 8bbc
00000220: aa6a 573e fa29 8e3e 3964 e03e 3e90 253e
00000230: df38 b2be 93ab e6bd 7395 b5be 80f5 6abe
00000240: 2fa1 f3bc ccc5 763e 03c1 65bd 2ba9 783e
00000250: 8d8c 443e 0146 93bd c8a1 15be 6963 e3bd
00000260: d082 c53d 984c b2be b09e cd3e ad7b f13d
00000270: 54bc 983e 1582 2e3e f850 863e 2316 b6bd
00000280: 8c59 f7bd ce3a c23e 0f33 d53e 3f71 5fbe
00000290: 4508 93be 561e a9be 81d0 31be c4a1 cabe
000002a0: 5511 e3be 0dcb 28be fd7d c3be 9b5d b73e
000002b0: 85b0 2cbd 3887 d93e 83b9 843e 53d1 acbe
000002c0: d57c 9dbe ac06 50be 8184 0b3e 54ec e03e
000002d0: 0fe8 cc3e d642 25be 1089 d1be f0a9 0f3e
000002e0: 7a9e d93e 5b40 843d e217 b6be 912e 24be
000002f0: e683 cfbe 3e8f c93e 7491 86bd bbff c9be
00000300: 820c be3d ab84 233e b9eb 51bd 19da 5b3e
00000310: 3fbc a7be 38ab e2be 4863 85be 9017 b63e
00000320: c522 8a3e 0188 ddbe 3070 da3c 3e3b b53e
00000330: 6ab2 ebbc be04 bfbe b3dc 5dbe 976f 5c3e
00000340: 49c7 d93e bcf0 34be 296b c8be 9ccf c33e
00000350: dadf 1e3d 2b06 943e b978 2a3d 1fb3 8abe
00000360: fc92 153d 2141 873e 189d c6be c142 d73e
00000370: 0bee 733e aa94 f9bd c4ce bd3c 00c0 15be
00000380: 43eb 20be f8b7 d53e ea3c 97be cebb 11be
00000390: d2cd 83be 19c9 a8be 7637 70be 998b b33e
000003a0: befc 843d 2230 b8be 8f0f 2cbd 006a cfbe
000003b0: 49fa c33e 44ec cebd 49f8 5cbe 837e 923d
000003c0: e7a7 2f3e 50d4 ddbe 347f 553e 5888 a23e
000003d0: 38d8 393e ad9e a4be 221f b93d 70bd 11be
000003e0: 9686 babe 41e8 5c3e 9963 dbbd 8168 df3d
000003f0: 9c91 efbe 9a96 de3d 350c 413d d23a 933e

kline_transformer.layers.1.linear1.bias f4 [128]
-0.24436405 0.38644516 -0.21445996 0.001868422 0.29931325 -0.41190818 -0.10558019 -0.37930363
0.13717128 0.15274453 -0.09956829 -0.19014782 -0.031246439 -0.25400186 -0.38662267 -0.39059255
-0.35155922 0.40876746 0.21777578 -0.41121596 0.25951314 -0.06058351 0.44964716 -0.02141077
-0.30285123 -0.16975097 -0.19901821 0.053932864 0.31217906 -0.28903466 -0.21473715 -0.33963552
0.053865198 0.44732684 0.25586057 -0.20534925 0.25143537 0.0022598947 -0.24479014 0.04522491
0.443485 0.36828214 -0.3982843 0.013888282 -0.14072227 -0.25587812 -0.27271396 0.21991709
-0.031073853 -0.20425582 0.43535534 -0.3199031 0.18722548 -0.2505019 0.12213036 -0.38849536
-0.28076106 0.09225084 0.39185265 -0.3136864 0.23385003 -0.3281257 0.22881679 -0.26730904
-0.24936196 -0.41966078 0.1083786 -0.20515338 -0.09328399 0.29540974 0.43338624 0.16285415
-0.12367898 0.12932746 -0.06620769 0.24618298 -0.3127596 0.17480369 0.42559826 -0.06894904
-0.042579908 0.04588896 -0.24612562 0.34663835 -0.2998961 0.34453076 -0.37789494 0.19932836
0.17899632 -0.23533827 -0.06070319 -0.03332615 -0.10837172 -0.39763126 -0.1909336 -0.036953297
0.3796585 -0.2747048 -0.28969577 0.1217714 0.44506678 -0.16156808 -0.31379148 -0.09546671
-0.39605057 -0.43852827 -0.31641358 0.4268266 -0.3749625 0.36163342 -0.2580505 -0.06146155
-0.31416968 0.15028428 0.24186772 -0.19364893 -0.34295607 0.08196217 0.2252577 0.17858131
-0.39520317 -0.16991706 0.05193659 -0.097939804 0.06598715 0.35707062 0.2634844 -0.16650341
00000000: 923a 7abe 24dc c53e 649b 5bbe d7e5 f43a
00000010: 963f 993e a1e5 d2be 6d3a d8bd 1634 c2be
00000020: a176 0c3e 1069 1c3e 76ea cbbd 1cb6 42be
00000030: 88f8 ffbc 880c 82be 68f3 c5be bffb c7be
00000040: 92ff b3be f849 d13e 9d00 5f3e e68a d2be
00000050: e8de 843e 6a26 78bd 2738 e63e a465 afbc
00000060: 510f 9bbe 33d3 2dbe 6ecb 4bbe b5e8 5c3d
00000070: efd5 9f3e 5afc 93be 0ee4 5bbe b5e4 adbe
00000080: c1a1 5c3d 0608 e53e 2800 833e 1347 52be
00000090: 23bc 803e be1a 143b 44aa 7abe c13d 393d
000000a0: 7710 e33e 7a8f bc3e ebeb cbbe ad8b 633c
000000b0: 8019 10be 7502 83be 2aa1 8bbe f231 613e
000000c0: 988e febc 7028 51be e5e6 de3e 57ca a3be
000000d0: 09b8 3f3e c941 80be 7b1f fa3d dde8 c6be
000000e0: eabf 8fbe 02ee bc3d e9a0 c83e 819b a0be
000000f0: 6276 6f3e 1700 a8be f34e 6a3e bbdc 88be
00000100: be58 7fbe c7dd d6be 99f5 dd3d ba13 52be
00000110: ad0b bfbd f23f 973e cde4 dd3e 3dc3 263e
00000120: 684b fdbd 6b6e 043e e697 87bd 6417 7c3e
00000130: 0722 a0be bdff 323e 04e8 d93e 2735 8dbd
00000140: 4568 2ebd 10f6 3b3d 5b08 7cbe 957a b13e
00000150: fb8b 99be 5666 b03e 727b c1be bc1c 4c3e
00000160: d04a 373e 84fc 70be e8a3 78bd 0081 08bd
00000170: fef1 ddbd 5396 cbbe 1984 43be 575c 17bd
00000180: 9962 c23e 1ca6 8cbe 0153 94be 4963 f93d
00000190: cbdf e33e 1a72 25be 47a9 a0be 0d84 c3bd
000001a0: 24c7 cabe c786 e0be f600 a2be 0489 da3e
000001b0: 16fb bfbe 0428 b93e 321f 84be 1bbf 7bbd
000001c0: d9da a0be 1fe4 193e 2cac 773e e84b 46be
000001d0: f097 afbe c8db a73d f4a9 663e 05de 363e
000001e0: 1258 cabe bdfe 2dbe 76bb 543d aa94 c8bd
000001f0: 4524 873d f6d1 b63e 6de7 863e df7f 2abe

kline_transformer.layers.1.linear2.weight f4 [5, 128]
-0.03806311 -0.010840834 -0.055738155 0.05061853 0.01044321 -0.10003947 0.002961114 0.04661305
-0.08392054 0.014028555 -0.064351715 0.015343463 -0.07711365 0.035472542 0.0012706491 0.06534402
-0.030336894 -0.019838609 0.056292515 -0.021845777 -0.08904806 0.028366705 -0.0959587 0.024181243
0.020831184 0.00079819874 -0.035801288 -0.0796214 0.015480698 -0.026093725 0.07318902 -0.07807212
-0.05436009 -0.004006254 -0.06840021 -0.03150373 0.06494768 0.06449766 -0.046656333 0.08059734
-0.017576696 -0.07306061 -0.019314107 -0.0019735438 0.018773615 -0.037791017 -0.023515645 0.02645464
0.074510634 0.041090876 0.05667147 0.010907665 0.038292266 -0.06230573 -0.024601849 -0.061083157
-0.011082068 -0.05993423 -0.056242507 -0.126754 0.074886255 -0.05714982 0.07462374 0.07805927
-0.028111914 -0.08810815 -0.078905925 0.0782848 0.08051609 0.042606547 0.07150164 -0.0800212
0.028268889 -0.0056353505 -0.019474916 0.080121666 -0.023805859 0.0021532716 -0.009967824 -0.07671223
-0.058948617 -0.07620285 -0.0475993 -0.0060185054 -0.019615432 -0.0787865 0.06804438 -0.099049464
0.052655127 0.05488925 -0.0078258095 0.072200045 -0.0864012 -0.02094069 0.046713974 -0.017898604
0.0011537346 0.050959054 0.026379118 -0.088059515 -0.078937925 -0.0005276207 -0.016726311 0.0057237046
-0.033564378 0.038997825 -0.07854023 0.03352748 -0.07928534 -0.015221335 0.025999302 0.008823569
0.04092235 -0.028214758 0.041304413 -0.007753611 0.019770809 -0.089552335 -0.06518369 0.0033883303
-0.013636106 0.07765504 -0.021290675 0.053686596 0.025503743 -0.016903525 0.042719305 -0.05783819
-0.065230444 -0.07926672 0.01711146 -0.039549366 0.040492274 -0.06454389 0.04116493 -0.0017512804
0.08026841 0.075898245 -0.03822502 0.04944481 -0.04909706 0.07817054 -0.078322954 0.07762244
-0.024435956 -0.05467403 0.0039992337 -0.061605077 -0.07669147 0.009294836 -0.021517027 -0.02382094
-0.029227352 -0.060549818 0.059544913 0.029095156 -0.052384272 -0.026356703 -0.035833634 0.076141454
-0.04258299 0.033959035 0.024117606 -0.0478275 -0.008622642 -0.07868297 0.05741634 -0.051294997
-0.014778094 -0.013650633 0.00039427736 0.058207046 -0.07148381 0.08211394 -0.044162296 -0.007996818
-0.045453478 0.0393753 0.044961344 0.019195069 0.021749374 0.00013998832 0.06486451 -0.06023295
-0.01170592 -0.02289493 0.025853915 0.04345803 0.026679844 0.04513199 -0.023044344 -0.053370334
-0.06365045 -0.061258547 0.05058241 -0.08270279 -0.073500924 -0.045106668 -0.032879107 0.0014229408
-0.080002084 0.02007309 0.09193604 -0.040870942 -0.010195402 0.018206097 -0.028891 -0.029391503
-0.020569969 0.089633286 0.029644422 -0.0699297 0.0067564235 -0.053657442 -0.053072326 -0.0215619
-0.031996537 0.066618636 -0.017830638 -0.05856091 0.04051238 0.011307722 0.055041075 0.054356065
-0.0778366 0.021761978 -0.006201233 -0.031926267 -0.007128198 -0.0755517 -0.07766536 0.073881954
-0.0028877126 0.0100654075 0.025142152 -0.016831055 -0.10087213 0.04508183 0.008464855 0.015165582
-0.032958075 0.021292787 0.035557806 0.032525163 -0.023521297 0.011262304 -0.0095044635 -0.01310083
0.020924952 0.0487949 0.09331971 -0.060969748 0.047555327 -0.06921289 0.006458894 0.003844279
00000000: 10e8 1bbd c19d 31bc b14d 64bd 6055 4f3d
00000010: ff19 2b3c 7ee1 ccbd 400f 423b 53ed 3e3d
00000020: 88de abbd 06d8 653c d5ca 83bd 2663 7b3c
00000030: c3ed 9dbd a84b 113d e98b a63a 16d3 853d
00000040: 1485 f8bc 9484 a2bc fb92 663d eaf5 b2bc
00000050: d45e b6bd 4b61 e83c ff85 c4bd be17 c63c
00000060: 29a6 aa3c 363e 513a 5fa4 12bd 8b10 a3bd
00000070: c1a2 7d3c 82c2 d5bc 20e4 953d 47e4 9fbd
00000080: b0a8 5ebd e546 83bb 6915 8cbd 0e0a 01bd
00000090: 4a03 853d 5917 843d b61a 3fbd 3810 a53d
000000a0: 01fd 8fbc cda0 95bd 9e38 9ebc 9256 01bb
000000b0: 20cb 993c c1ca 1abd e2a3 c0bc 67b7 d83c
000000c0: 0899 983d e84e 283d 5820 683d 10b6 323c
000000d0: 5ad8 1c3d 4b34 7fbd d189 c9bc 5532 7abd
000000e0: 9091 35bc 987d 75bd 8b5e 66bd cdcb 01be
000000f0: f75d 993d ee15 6abd 55d4 983d 8add 9f3d
00000100: f54a e6bc 0c72 b4bd 6e99 a1bd c853 a03d
00000110: 9fe5 a43d 3484 2e3d 746f 923d 28e2 a3bd
00000120: 2894 e73c bfa8 b8bb dc89 9fbc d416 a43d
00000130: 8104 c3bc e71d 0d3b 1650 23bc 4d1b 9dbd
00000140: 1b74 71bd 3d10 9cbd 7cf7 42bd e236 c5bb
00000150: 8bb0 a0bc d15a a1bd da5a 8b3d 72da cabd
00000160: e7ac 573d 8dd3 603d d337 00bc 9edd 933d
00000170: 1df3 b0bd cf8b abbc 2757 3f3d 18a0 92bc
00000180: e938 973a 71ba 503d 0519 d83c 8c58 b4bd
00000190: 35aa a1bd 0750 0aba 9e05 89bc ea8d bb3b
000001a0: cd7a 09bd 2fbc 1f3d b3d9 a0bd 1c54 093d
000001b0: 5a60 a2bd e862 79bc 7dfc d43c bb90 103c
000001c0: 329e 273d a322 e7bc d12e 293d 0112 febb
000001d0: 64f6 a13c 3767 b7bd 077f 85bd c00e 5e3b
000001e0: f969 5fbc 9b09 9f3d c869 aebc 7ae6 5b3d
000001f0: 3aed d03c 4379 8abc 70fa 2e3d bde7 6cbd
00000200: 8a97 85bd 9756 a2bd 552d 8c3c 84fe 21bd
00000210: 3adb 253d 962f 84bd 8f9c 283d 388b e5ba
00000220: c463 a43d 8a70 9b3d d791 1cbd a486 4a3d
00000230: 001a 49bd e017 a03d c967 a0bd 84f8 9e3d
00000240: ea2d c8bc e0f1 5fbd 010c 833b 9b55 7cbd
00000250: 6b10 9dbd 5e49 183c 7a44 b0bc 2224 c3bc
00000260: 336e efbc 1603 78bd 5ee5 733d f758 ee3c
00000270: e490 56bd 03ea d7bc 4ac6 12bd 0df0 9b3d
00000280: 806b 2ebd a118 0b3d 4992 c53c c5e6 43bd
00000290: fb45 0dbc 8924 a1bd 652d 6b3d b41a 52bd
000002a0: d21f 72bc e8a6 5fbc 03b7 ce39 836a 6e3d
000002b0: 1b66 92bd 5a2b a83d 86e3 34bd 1605 03bc
000002c0: 6d2d 3abd ff47 213d 6329 383d fa3e 9d3c
000002d0: be2b b23c d4c9 1239 afd7 843d d3b6 76bd
000002e0: 30ca 3fbc 268e bbbc 97cb d33c 0c01 323d
000002f0: b08f da3c 52dc 383d 7ec7 bcbc da9a 5abd
00000300: 2b5b 82bd 3eea 7abd 802f 4f3d 1560 a9bd
00000310: a787 96bd c5c1 38bd 3eac 06bd f881 ba3a
00000320: 22d8 a3bd 5270 a43c f648 bc3d 4a68 27bd
00000330: 9e0a 27bc f424 953c d2ac ecbc 73c6 f0bc
00000340: 5a82 a8bc a891 b73d dcd8 f23c 4d37 8fbd
00000350: fd64 dd3b e8c7 5bbd 5e62 59bd 95a2 b0bc
00000360: cd0e 03bd 5a6f 883d 8f11 92bc 91dd 6fbd
00000370: 4ff0 253d 0644 393c c072 613d 77a4 5e3d
00000380: cc68 9fbd 2d46 b23c b633 cbbb 1ec5 02bd
00000390: a993 e9bb daba 9abd 040f 9fbd 6c4f 973d
000003a0: c73f 3dbb 61e9 243c eaf6 cd3c 48e1 89bc
000003b0: 0c96 cebd baa7 383d 2db0 0a3c 1079 783c
000003c0: 0cff 06bd 366e ae3c 10a5 113d 1b39 053d
000003d0: bcaf c0bc 8785 383c 9cb8 1bbc dda4 56bc
000003e0: ce6a ab3c 29dd 473d 671e bf3d 6abb 79bd
000003f0: 60c9 423d 7dbf 8dbd 21a5 d33b 4df0 7b3b

kline_transformer.layers.1.linear2.bias f4 [5]
0.028312126 -0.059056997 0.043941803 0.005771793 0.068086736
00000000: d5ee e73c c0e5 71bd 52fc 333d 4f21 bd3b
00000010: 0f71 8b3d

kline_transformer.layers.1.norm1.weight f4 [5]
0.9778702 0.99624074 0.99045134 1.0031995 1.0195928
00000000: b455 7a3f a209 7f3f 388e 7d3f d768 803f
00000010: 0482 823f

kline_transformer.layers.1.norm1.bias f4 [5]
-0.0042447443 0.008781741 -0.0032465928 0.000110588306 0.0007526848
00000000: 7f17 8bbb 4be1 0f3c cac4 54bb a5eb e738
00000010: d24f 453a

kline_transformer.layers.1.norm2.weight f4 [5]
0.99176204 1.0043126 1.0039973 1.0083444 1.0395544
00000000: 1ee4 7d3f 518d 803f fc82 803f 6e11 813f
00000010: 1e10 853f

kline_transformer.layers.1.norm2.bias f4 [5]
-0.00022619391 0.0002674832 -0.0015863879 -8.301822e-05 -5.1173884e-05
00000000: 772e 6db9 fd3c 8c39 58ee cfba 111a aeb8
00000010: 8aa3 56b8

report_fc.weight f4 [128, 768]
-0.022498263 -0.025192255 0.01265349 -0.01847745 0.030898232 -0.0039817486 -0.014320025 0.013047318
0.030609736 -0.018742079 0.011161643 -0.002466133 0.0059275106 0.021081917 0.006500401 0.008641538
0.03250522 -0.024188444 -0.018841894 0.020046799 -0.018218031 0.025641264 -0.018736934 0.02025199
-0.017192949 0.013820124 0.018720224 0.0047117774 -0.028683787 0.014538714 -0.0060001956 0.0069311336
0.014963563 0.034175873 0.041052524 -0.029473165 0.026229594 0.030496491 -0.014626654 -0.009928714
-0.014139182 -0.033148892 0.0003423403 0.018696569 -0.010243531 -0.008544472 -0.0052033174 -0.03564018
0.0044004805 0.03388037 -0.026855024 -0.0058221146 -0.015874587 -0.03113434 0.03280941 0.022449829
0.0064810673 0.024221037 0.02645422 0.008347453 -0.013812929 -0.01442835 -0.03342651 -0.032577585
0.015992934 -0.031818643 -0.02037679 0.009313437 0.0057776594 0.001599949 -0.0028732887 0.014031839
-0.03561534 -0.017851863 0.032092378 0.014982218 -0.017221553 -0.033168405 0.00947238 0.009481223
0.00452738 0.007926079 0.014458194 -0.0072835623 0.005354407 0.021309296 0.027704554 0.009739144
-0.034761913 0.0025052389 -0.017588135 -0.036111012 -0.031239513 -0.02176141 -0.02878143 0.022246195
0.020116262 -0.024596285 0.019584825 -0.0051169386 -0.0075880755 -0.026443688 -0.034444276 -0.030621272
0.016654953 -0.014636052 -0.0112516135 0.016463757 -0.0069651655 -0.0044571063 0.022750424 -0.002799477
-0.017161522 0.0125814015 -0.03388721 0.0056467773 0.0353532 0.015031112 -0.0016103935 0.0624426
0.01333411 -0.0146920085 0.021627212 0.012014884 -0.026300516 0.013766737 -0.011966215 -0.010568159
0.007895856 0.03311369 -0.005700136 0.010471562 0.018529944 0.0045605614 -0.015805744 0.03451533
0.004061486 -0.031885605 -0.002615752 -0.0070172255 -0.026377842 -0.024808805 -0.026416076 0.015993847
-0.0104583185 0.03418468 -0.0047783796 -0.02438333 -0.029065557 0.031279005 -0.013832326 0.008412441
0.042448863 0.027029222 0.028143058 0.03329714 -0.009651199 0.010006575 0.018083254 -0.03510393
0.015019794 0.018071968 0.0026717223 0.013081079 0.015254094 -0.03197492 0.019849643 0.012728734
0.014760714 -0.005262734 -0.025091775 -0.0064552403 -0.018353488 0.03429295 0.002817205 -0.02759277
-0.019927446 -0.017854633 -0.030822787 0.03493202 -0.019834392 -0.02436093 -0.0039044358 0.0038049794
-0.0076846695 -0.01866699 -0.0148416 -0.013789402 -0.021598913 -0.008558737 0.0152233755 0.029967833
-0.012139045 0.02896317 0.03336556 -0.026599117 -0.02149946 -0.018232008 0.008645156 0.0019583749
-0.009940182 -0.017880576 -0.028088078 0.027396418 -0.033398323 0.025628773 -0.0108777415 -0.0007401811
0.0074017406 0.011836793 0.03265718 0.01337478 -0.014441982 -0.026025124 0.004777769 0.02004304
-0.0009873571 0.019480022 -0.007424922 -0.0052958084 -0.043780208 -0.02765737 0.01120327 0.02144597
0.007464027 -0.0087548895 0.05262417 -0.0013466722 -0.034644485 -0.01043608 -0.034048602 -0.005655145
-0.010804778 -0.009440181 0.00010691222 -0.03293168 -0.034043316 0.030625882 0.021331316 -0.029212795
0.026105493 0.04927447 0.019018661 -0.043936335 -0.009581568 0.031530358 0.02090839 0.024781665
0.030320559 -0.016093547 0.033227995 0.0030580165 -0.03138119 -0.015091648 -0.011225549 0.02134819
00000000: 474e b8bc fd5f cebc 9550 4f3c 055e 97bc
00000010: 4a1e fd3c 5479 82bb 8a9e 6abc 6bc4 553c
00000020: 45c1 fa3c fd88 99bc 53df 363c d99e 21bb
00000030: 903b c23b fcb3 ac3c 5101 d53b 3d95 0d3c
00000040: 3224 053d d826 c6bc 515a 9abc 2f39 a43c
00000050: fb3d 95bc a10d d23c 337e 99bc 80e7 a53c
00000060: 3ad8 8cbc cd6d 623c 285b 993c 4165 9a3b
00000070: 43fa eabc c933 6e3c 4a9d c4bb 901e e33b
00000080: bb29 753c 00fc 0b3d b126 283d b571 f1bc
00000090: 72df d63c c7d3 f93c a2a4 6fbc 0bac 22bc
000000a0: 07a8 67bc 22c7 07bd 237c b339 8c29 993c
000000b0: 7cd4 27bc 1dfe 0bbc 9780 aabb 70fb 11bd
000000c0: e831 903b 25c6 0a3d 11ff dbbc 70c7 bebb
000000d0: 6c0b 82bc 720d ffbc 2963 063d b4e8 b73c
000000e0: 225f d43b 326b c63c 85b6 d83c c1c3 083c
000000f0: a04f 62bc e364 6cbc 3cea 08bd 1370 05bd
00000100: 9d03 833c 4454 02bd 3aed a6bc 6397 183c
00000110: 8552 bd3b 61b5 d13a c94d 3cbb cce5 653c
00000120: 64e1 11bd 123e 92bc 4c73 033d fa77 753c
00000130: 3714 8dbc 98db 07bd 0b32 1b3c 2257 1b3c
00000140: 6b5a 943b 63dc 013c 10e2 6c3c f3aa eebb
00000150: 0574 af3b d590 ae3c a9f4 e23c ee90 1f3c
00000160: 8262 0ebd ef2e 243b fe14 90bc 24e9 13bd
00000170: 02ea ffbc fc44 b2bc 09c7 ebbc a73d b63c
00000180: dcca a43c 267e c9bc 5b70 a03c feab a7bb
00000190: 64a5 f8bb 6fa0 d8bc 7115 0dbd 76d9 fabc
000001a0: f86f 883c 0dcc 6fbc b058 38bc 00df 863c
000001b0: 0b3c e4bb eb0c 92bb 195f ba3c 6e77 37bb
000001c0: 5296 8cbc 3922 4e3c 51cd 0abd 9a08 b93b
000001d0: 84ce 103d 0e45 763c d713 d3ba d0c3 7f3d
000001e0: 5077 5a3c c0b6 70bc 8d2b b13c 13da 443c
000001f0: 2e74 d7bc e18d 613c f20d 44bc 1226 2dbc
00000200: 9f5d 013c 38a2 073d 35c8 babb ea90 2b3c
00000210: 1ccc 973c c370 953b 0c7b 81bc f25f 0d3d
00000220: 3716 853b 7b9a 02bd 096d 2bbb c1f0 e5bb
00000230: 5816 d8bc d63b cbbc 8766 d8bc 8705 833c
00000240: 5e59 2bbc 3c05 0c3d f493 9cbb 8dbf c7bc
00000250: e41a eebc 6a1e 003d fba0 62bc 56d4 093c
00000260: dcde 2d3d 636c dd3c 458c e63c 9562 083d
00000270: 1020 1ebc 9ef2 233c 5523 943c 23c9 0fbd
00000280: 9515 763c aa0b 943c 1018 2f3b 0652 563c
00000290: 4fec 793c 22f8 02bd b89b a23c 2e8c 503c
000002a0: ecd6 713c 0373 acbb 448d cdbc 7b86 d3bb
000002b0: 0e5a 96bc c476 0c3d dba0 383b 3c0a e2bc
000002c0: e23e a3bc e143 92bc 1280 fcbc e114 0f3d
000002d0: bc7b a2bc 9390 c7bc 90e1 7fbb f65c 793b
000002e0: aecf fbbb 84eb 98bc 2f2a 73bc f2ec 61bc
000002f0: 34f0 b0bc f239 0cbc 776b 793c 1a7f f53c
00000300: d8e2 46bc 2b44 ed3c 53aa 083d 64e6 d9bc
00000310: a31f b0bc 4b5b 95bc 6aa4 0d3c 1458 003b
00000320: 25dc 22bc 497a 92bc f818 e6bc 746e e03c
00000330: aecc 08bd 6ff3 d13c 8e38 32bc b608 42ba
00000340: 4d8a f23b 1cef 413c 89c3 053d e521 5b3c
00000350: 109e 6cbc a432 d5bc d58e 9c3b 4d31 a43c
00000360: 356a 81ba 9194 9f3c c34c f3bb 7688 adbb
00000370: e052 33bd b591 e2bc ec8d 373c 75af af3c
00000380: cc94 f43b ab70 0fbc 718c 573d d282 b0ba
00000390: 60e7 0dbd 18fc 2abc 8c76 0bbd cb4e b9bb
000003a0: 8606 31bc fdaa 1abc 1036 e038 5fe3 06bd
000003b0: 0171 0bbd 21e3 fa3c 03bf ae3c ac4f efbc
000003c0: 30db d53c 07d4 493d 06cd 9b3c 96f6 33bd
000003d0: 02fc 1cbc fa25 013d 1248 ab3c eb02 cb3c
000003e0: d262 f83c 9dd6 83bc 141a 083d 0169 483b
000003f0: 9089 00bd f642 77bc 5deb 37bc 66e2 ae3c

report_fc.bias f4 [128]
-0.021438735 -0.012733604 -0.023498004 -0.032001436 -0.003307428 0.035583954 0.00029548435 -0.033199698
-0.025334496 0.0052723354 0.0151430415 -0.008190381 -0.013409398 -0.0016817198 -0.018427415 -0.027446736
-0.018160986 -0.030749159 -0.012474063 0.006187294 -0.0017717952 0.009552144 0.02668799 0.03560978
0.015712662 0.0102127455 0.03051336 0.017422983 0.027257077 0.007056383 0.023529394 -0.0062120208
0.02003226 -0.0028491432 -0.00058650377 -0.012233734 0.025663665 0.02266054 0.0012434904 -0.0054585044
-0.017013734 -0.0012208687 -0.0054305373 -0.027480597 -0.020694042 0.028896831 -0.028852014 -0.016232539
0.0029460916 0.02958053 0.021700898 -0.014792723 0.017834624 -0.035436332 -0.031485725 -0.0084515745
-0.036142707 -0.02143701 -0.012349936 0.03217823 -0.021874031 0.018971626 0.034813914 -0.022847548
-0.034275584 -0.011798843 -0.0014165372 0.0014313046 0.009256695 0.009388987 -0.019150462 0.002785425
0.02307598 0.02528261 -0.03622329 -0.011177708 0.016553128 -0.021653008 0.031498823 0.014838071
0.004753686 0.0042468845 -0.02588199 -0.008105395 0.02027365 -0.021466011 -0.013674887 -0.016164105
-0.017696977 0.004496336 0.023045884 -0.026387656 0.034248825 0.017821956 0.02613456 0.029713988
0.030469324 -0.0062854416 0.035334803 0.026989346 0.0068011144 -0.027300583 -0.010219365 -0.014784816
-0.017071046 0.035997696 0.023656422 -0.03428812 -0.02470608 0.025438085 -0.035310987 -0.016408628
0.014002583 0.00059704966 0.019309286 -0.027908584 -0.014064742 -0.013180681 -0.03412671 -0.0046045864
0.02904083 -0.0053532454 -0.020311953 0.028161168 0.004741847 -0.00042644367 0.02405303 0.025629327
00000000: 49a0 afbc 9ba0 50bc e37e c0bc f013 03bd
00000010: 6fc1 58bb 7bc0 113d 3deb 9a39 68fc 07bd
00000020: 4a8a cfbc 8ec3 ac3b 851a 783c f330 06bc
00000030: 17b3 5bbc 276d dcba 17f5 96bc fad7 e0bc
00000040: 59c6 94bc a9e5 fbbc 0360 4cbc c9be ca3b
00000050: 953b e8ba 9980 1c3c c6a0 da3c 90db 113d
00000060: d7b7 803c 5c53 273c 27f7 f93c a5ba 8e3c
00000070: 3c4a df3c 3b39 e73b b7c0 c03c 358e cbbb
00000080: b21a a43c b1b8 3abb 9abf 19ba 0070 48bc
00000090: 9b3c d23c 99a2 b93c 9dfc a23a 41dd b2bb
000000a0: 6360 8bbc 8e05 a0ba a6f2 b1bb fd1e e1bc
000000b0: 8d86 a9bc 0cb9 ec3c 0f5b ecbc 1afa 84bc
000000c0: 3713 413b de52 f23c 15c6 b13c 2d5d 72bc
000000d0: eb19 923c b025 11bd 2df7 00bd 7978 0abc
000000e0: 600a 14bd ab9c afbc 6357 4abc 52cd 033d
000000f0: 2b31 b3bc 626a 9b3c 0999 0e3d c82a bbbc
00000100: 8e64 0cbd ef4f 41bc 1aab b9ba 9d9a bb3a
00000110: 65a9 173c 44d4 193c 6ee1 9cbc ad8b 363b
00000120: d609 bd3c 7a1d cf3c df5e 14bd b522 37bc
00000130: 6d9a 873c a661 b1bc e904 013d 611b 733c
00000140: cfc4 9b3b 7329 8b3b 7806 d4bc 7ecc 04bc
00000150: ed14 a63c 7dd9 afbc a20c 60bc 966a 84bc
00000160: 40f9 90bc 0056 933b b9ca bc3c ed2a d8bc
00000170: 7f48 0c3d 5aff 913c 2518 d63c c06a f33c
00000180: ce9a f93c 1bf6 cdbb 3abb 103d c318 dd3c
00000190: e2db de3b 79a5 dfbc 206f 27bc 033c 72bc
000001a0: 94d8 8bbc 5272 133d 1dcb c13c b371 0cbd
000001b0: 6864 cabc 8863 d03c 41a2 10bd 636b 86bc
000001c0: 176b 653c 5383 1c3a 822e 9e3c 8ba0 e4bc
000001d0: ce6f 66bc c8f3 57bc 73c8 0bbd 12e2 96bb
000001e0: 09e7 ed3c 476a afbb 4165 a6bc 40b2 e63c
000001f0: 7f61 9b3b 4d94 dfb9 dc0a c53c 98f4 d13c
